dialogue_manager/model/weights/trained_modelLIST_SAMPLESAMPLEDCOMPOSITE0.0_old.pt (torch_old, 1584 bytes, 2 tensors)

net_layers.0.weight f4 [6, 41]
000000 cd 86 fd bd a5 e7 65 be 93 37 87 3e ae c6 a9 3c
       -0.12379227 -0.22451647 0.26409587 0.02072462
000010 47 62 e6 3b c0 d5 ed bc bd b1 65 3e b0 b8 05 00
       0.0070307585 -0.029032588 0.22431083 5.25431e-40
000020 dc 52 74 3e 5d 3e fd 3d e7 44 a0 be 01 4b f1 bd
       0.23859733 0.123654105 -0.31302568 -0.11781884
000030 d3 fa 07 80 e7 70 10 be b4 c9 be 3d 66 33 72 be
       -7.32827e-40 -0.14105569 0.093158156 -0.2365242
000040 f3 80 ff 3a 79 b2 e3 bd 6f b2 2f 3d 14 66 81 bd
       0.0019493386 -0.11118025 0.042894777 -0.06318298
000050 42 8d 84 3e 76 64 05 bd 70 29 27 be dd 5f 95 3e
       0.2588902 -0.03256651 -0.16324401 0.291747
000060 d6 bc c2 bd 5a c6 2b be 17 d6 2f 3e 6c 4d 05 80
       -0.09508674 -0.16774884 0.17171513 -4.86951e-40
000070 1c d2 72 be 1f 75 08 80 6c 95 32 3d 19 66 6e be
       -0.23712963 -7.76699e-40 0.04359953 -0.23281135
000080 6a c4 ce 3d 77 16 63 3e ff e2 7f 3e f5 ab 84 3e
       0.10096057 0.22176538 0.24988936 0.25912443
000090 20 42 1b 3d d3 19 05 3e 2f ba 3a 39 57 82 45 bc
       0.03790486 0.12998132 0.00017807701 -0.012055001
0000a0 01 92 8e 3e 45 a6 02 3e 73 0f 9a 3e ee c0 48 be
       0.27845767 0.1275874 0.30089912 -0.19604847
0000b0 e5 59 8e be 0f a0 9c 3e b6 e6 91 3d 18 be 73 3e
       -0.2780296 0.30590865 0.07124083 0.23802984
0000c0 b5 30 8e 3e 9e 0d 5d 3e e6 2c 92 3e d0 b6 b0 3c
       0.27771536 0.21587226 0.2854988 0.021571547
0000d0 01 07 1d 3d 84 c5 95 bd 52 8e 1e bd a8 cf 1f 3d
       0.038336758 -0.07313064 -0.038709946 0.039016396
0000e0 a7 1e 08 00 07 06 ad bd f3 e9 06 be e8 97 57 be
       7.4568e-40 -0.08448415 -0.13175182 -0.21054041
0000f0 ee 60 05 00 6e 23 33 bd 11 3a c8 3d 59 dc f4 bd
       4.9395e-40 -0.04373496 0.097767 -0.119560905
000100 f4 25 6f 3e eb 87 ab bd 8b 5a 04 3e 3c a1 ee bd
       0.23354322 -0.08375534 0.12925164 -0.11651847
000110 dc a4 26 be d5 d6 88 3e 1c 65 2f be 9a dd 9a be
       -0.16273826 0.26726404 -0.17128414 -0.30247194
000120 71 d4 1d be 95 19 9a be 87 3e 13 bd 56 6a 98 3e
       -0.15413071 -0.30097643 -0.035948303 0.29768628
000130 7c 85 f8 bd af 6d e6 3d 57 2b 8f 3e e4 b4 3a be
       -0.12134835 0.11251389 0.27962753 -0.18233067
000140 84 80 41 3e 62 da 05 be 4f cc 18 be 7c d7 8c 3e
       0.18896681 -0.13071588 -0.14921688 0.27508152
000150 74 c8 4b 3e e0 1c 9a bc bb d0 b3 3c 5b 49 4c bd
       0.19900686 -0.018812597 0.021950116 -0.049874645
000160 f9 46 4c bd 5c 9b 08 3d 8b 60 09 3e c6 b8 94 3e
       -0.049872372 0.033351287 0.13415734 0.2904722
000170 43 33 92 3e 2b ca 07 80 62 ff 9c 38 ff d4 80 be
       0.28554735 -7.15373e-40 7.4862284e-05 -0.25162503
000180 02 0c 05 00 3b a8 41 3e fb 55 c8 3d 66 fe 37 3e
       4.63485e-40 0.18911831 0.097820245 0.17968139
000190 4e 90 e9 3d 23 bc 12 3e b2 d2 98 be 3a 6f 04 00
       0.11404477 0.14329581 -0.29848248 4.07243e-40
0001a0 fa a5 77 be 77 28 0c 3e 61 c9 d1 3d 21 e1 40 be
       -0.24184409 0.13687311 0.10243488 -0.1883588
0001b0 17 e2 35 3e 83 5b d5 3d 8b 5b 86 3e 75 85 91 be
       0.17762028 0.10417845 0.26241717 -0.28422132
0001c0 c9 de 07 00 80 10 95 3d b1 a1 56 be 56 07 89 3e
       7.22769e-40 0.07278538 -0.20960118 0.2676341
0001d0 0f a1 39 3e 19 cf e6 bc 8b e4 34 3e 27 c4 7e 3e
       0.18127845 -0.028174924 0.17665307 0.24879514
0001e0 6a a1 74 be e5 7a ed bd 7d 95 8b bc 89 c5 49 3e
       -0.238897 -0.11595706 -0.017039055 0.1970426
0001f0 19 2b 85 3e 58 aa 13 3e 1c a2 35 bd 9f 3a b9 bd
       0.26009443 0.1442045 -0.044344053 -0.09044384
000200 7f 91 98 3e 13 31 0c be b7 c0 00 3e 02 59 f0 bb
       0.29798505 -0.13690595 0.12573515 -0.0073348293
000210 a1 af 8f 3e 59 13 59 be c6 f6 d2 b1 48 30 00 be
       0.28063682 -0.21198787 -6.1398593e-09 -0.12518418
000220 22 ce c5 bd 2b 31 c5 bc a3 2b 05 80 08 34 32 be
       -0.09658457 -0.024071297 -4.74831e-40 -0.17402661
000230 44 71 fd 3c c9 7e 88 3e 68 47 01 be ec ec f3 3d
       0.030937798 0.2665923 -0.12624896 0.11910424
000240 e9 9b c7 3d 0f ba 11 3d a3 29 2a 3e d9 ff 5f 3e
       0.097465344 0.03557783 0.16617446 0.21874942
000250 fb 81 38 3e 5b 16 36 3e d3 85 4b 3e c0 0a 14 3d
       0.18018334 0.17781965 0.19875269 0.036143064
000260 ad 8d a1 3a 53 0b 69 bc 37 94 fd 3d 04 1c 40 be
       0.0012325548 -0.014223891 0.12381785 -0.18760687
000270 d9 a3 63 3e c5 e3 ef 3c c0 69 73 be 20 d3 8d bd
       0.22230472 0.029283414 -0.23770809 -0.069250345
000280 41 be 87 be 77 88 ca bd 69 1a 27 be ba 3c a5 be
       -0.2651234 -0.0988931 -0.16318668 -0.32272893
000290 e1 c7 12 be 9c 83 7d bd 4a 01 1e 3d 3e 1b 1e 3e
       -0.1433406 -0.06189309 0.038575448 0.1544008
0002a0 d9 78 07 00 ef e1 c3 bd e6 75 33 be 5f a1 d4 bd
       6.862e-40 -0.09564578 -0.17525443 -0.103823416
0002b0 db b6 92 3e d9 36 0e be db 80 85 3e 3b 07 43 3e
       0.28655133 -0.1388811 0.2607487 0.19045727
0002c0 26 02 93 3d ff f7 2d 3e 46 c3 80 3e 13 9e 1c 3e
       0.07178144 0.16989134 0.25148982 0.15294676
0002d0 97 1e 25 3e 24 a5 c5 3e 72 e6 ac bd a4 10 9f 3e
       0.1612495 0.38602555 -0.084423915 0.31067383
0002e0 e4 ca fb bd 9f 7d 31 bd 10 ca 5e bd 97 95 34 3e
       -0.12294558 -0.043332692 -0.05439192 0.17635189
0002f0 c4 eb 58 bd 07 d7 37 3e 9d 48 99 3e a6 e7 92 3a
       -0.05295922 0.1795312 0.29938212 0.0011207953
000300 c4 5d 69 3e 04 fe c2 bd 03 ff 9e 3e ef 00 ed 3d
       0.22789675 -0.09521106 0.31053934 0.11572444
000310 67 40 35 3e 8a b4 68 be 2f ac a8 bc 2e e2 8d be
       0.17700349 -0.2272512 -0.020589916 -0.27711624
000320 bd a9 69 3e e3 c8 2b be 4d 01 d8 bd 01 1c ae 3e
       0.22818656 -0.16775851 -0.10547123 0.3400574
000330 8c fe a9 3d 34 8f 9f 3e ed 3a b5 bd c2 45 55 3d
       0.08300504 0.31163943 -0.0884913 0.05206848
000340 e5 96 ff 3d 89 9b 8f 3e 98 91 05 00 10 f5 c4 3d
       0.12479953 0.2804835 5.11407e-40 0.096170545
000350 67 31 36 3e 57 87 8f 3e 03 6c 08 bc 3d e5 78 bc
       0.17792283 0.28032944 -0.008326533 -0.015191373
000360 fd 24 c1 bd 32 3c f8 3b d0 3a 73 be 58 9d 18 be
       -0.09430883 0.007575535 -0.23752904 -0.14903772
000370 da 7f 6c bd 24 ad 7c 3e a1 9a b1 bd db 23 9b be
       -0.057739116 0.24675423 -0.08672071 -0.30300793
000380 21 63 06 00 41 25 52 af 7f 34 05 3e 5f 80 3d 3e
       5.86574e-40 -1.9112624e-10 0.13008307 0.18506001
000390 cc cf a7 39 4c 4e 19 3d b6 30 e9 3d f8 11 56 3e
       0.00032007543 0.037428185 0.11386244 0.20905292
0003a0 b4 05 06 3d 38 f5 21 be 58 bf 9c 3e 7e 28 98 be
       0.032720283 -0.158162 0.30614734 -0.29718393
0003b0 4f 94 97 bb 93 29 ca ba d4 2b 81 3e cc 7b 12 3b
       -0.004625834 -0.0015423767 0.2522875 0.002235162
0003c0 f9 08 16 bd 2f ef 98 3e 70 46 91 be 9a e1 1f bc
       -0.03662965 0.29869983 -0.28374052 -0.009758377
0003d0 46 e1 22 3e 0d a2 5f be
       0.15906247 -0.21839161

net_layers.0.bias f4 [6]
000000 15 5e cf bc 81 96 0c 3e c3 66 9d bd 80 84 2a 3e
       -0.025313416 0.13729288 -0.07685616 0.16652107
000010 35 5d 43 bc d2 3d 48 bd
       -0.011924078 -0.04888708
