dialogue_manager/model/weights/trained_modelCOMPOSITE0.4.pt (torch_old, 2977 bytes, 2 tensors)

net_layers.0.weight f4 [6, 99]
000000 2f 10 16 3f 3f 23 64 3e 47 70 75 3e 8f 68 00 00
       0.58618444 0.2227907 0.23968612 3.7509e-41
000010 1b db 5f 3f ae 29 00 00 ad 14 00 80 3c 4f 00 80
       0.87443703 1.4952e-41 -7.417e-42 -2.8424e-41
000020 fa c1 a8 35 26 6f 00 00 4b 27 00 80 d2 75 0b 3e
       1.257343e-06 3.9873e-41 -1.4096e-41 0.13619164
000030 12 98 00 80 1d 04 00 00 33 16 00 00 d7 0d 00 80
       -5.4553e-41 1.476e-42 7.964e-42 -4.965e-42
000040 da aa 00 80 e5 11 00 00 fe dd 67 3c 59 35 00 00
       -6.129e-41 6.42e-42 0.014152048 1.9138e-41
000050 31 31 12 3e a7 1c 00 80 c3 96 00 00 1d d1 a9 39
       0.14276578 -1.0279e-41 5.4083e-41 0.00032389993
000060 bf 39 00 80 06 87 00 00 d6 79 00 80 54 a0 00 80
       -2.0715e-41 4.8437e-41 -4.3706e-41 -5.7515e-41
000070 e4 14 00 00 05 76 00 80 ca ab fd 34 af 25 00 00
       7.494e-42 -4.2337e-41 4.7249915e-07 1.3518e-41
000080 a6 55 ee 38 15 46 00 00 39 5f 00 80 c5 62 73 34
       0.000113646776 2.514e-41 -3.416e-41 2.266707e-07
000090 7b ad 00 80 01 57 00 00 43 ad 00 00 b7 2f ed 32
       -6.2233e-41 3.1211e-41 6.2155e-41 2.761213e-08
0000a0 65 a7 00 00 16 12 00 00 70 5d 67 26 45 9c 00 80
       6.005e-41 6.488e-42 8.0270856e-16 -5.6059e-41
0000b0 74 12 73 34 6c 1c 00 00 bd 6d 00 80 dc 20 32 1c
       2.2637852e-07 1.0196e-41 -3.9367e-41 5.893773e-22
0000c0 f1 c3 00 80 74 9a 00 80 04 21 00 00 dc 3c 00 80
       -7.029e-41 -5.5407e-41 1.1844e-41 -2.1832e-41
0000d0 4c 9b 00 80 29 80 00 80 ff 0d 00 80 77 84 00 80
       -5.571e-41 -4.5975e-41 -5.021e-42 -4.752e-41
0000e0 c0 04 33 1c 98 98 00 00 4c 13 00 80 4c 30 32 1c
       5.923227e-22 5.474e-41 -6.922e-42 5.895768e-22
0000f0 dc 61 00 00 81 1c 00 00 25 b6 06 80 9e 77 00 80
       3.5105e-41 1.0225e-41 -6.16354e-40 -4.291e-41
000100 0d 36 00 80 c5 c3 00 00 98 84 00 00 d3 15 00 80
       -1.939e-41 7.0229e-41 4.7566e-41 -7.829e-42
000110 5e 51 34 1c 03 35 00 80 8f a0 00 80 fb 1e 32 1c
       5.966217e-22 -1.9017e-41 -5.7598e-41 5.89353e-22
000120 58 27 00 00 6e 24 00 80 07 8f 00 80 6f 0d 00 00
       1.4114e-41 -1.3069e-41 -5.1309e-41 4.819e-42
000130 7d c0 00 00 86 4b af 24 7f 2a 00 00 df 15 06 80
       6.9052e-41 7.6022094e-17 1.5245e-41 -5.58859e-40
000140 0c 25 32 1c 95 28 00 00 98 96 00 00 e6 48 00 80
       5.894314e-22 1.4558e-41 5.4023e-41 -2.6151e-41
000150 84 b6 00 80 4e 1e 92 39 e3 98 00 00 58 7d 00 00
       -6.5474e-41 0.0002786987 5.4845e-41 4.4965e-41
000160 d6 0e 00 80 c0 7b 21 80 75 50 00 80 de a7 00 00
       -5.322e-42 -3.074965e-39 -2.8863e-41 6.022e-41
000170 f1 23 00 80 0f 05 00 80 12 49 00 80 82 35 00 80
       -1.2893e-41 -1.815e-42 -2.6213e-41 -1.9195e-41
000180 7a b4 00 80 c9 00 00 80 0d 56 00 80 7b df 3a 3f
       -6.4743e-41 -2.82e-43 -3.0869e-41 0.72997254
000190 55 45 9c 3d de a5 36 3e 4d 97 00 00 d6 68 58 3f
       0.076304115 0.17836711 5.4276e-41 0.84534967
0001a0 a8 19 00 00 ce 2e 00 80 eb 78 00 80 30 8e 09 80
       9.204e-42 -1.679e-41 -4.3377e-41 -8.77527e-40
0001b0 33 18 00 00 cd 43 00 00 cf fa 81 3e a0 7b 00 80
       8.681e-42 2.4322e-41 0.25386664 -4.4348e-41
0001c0 4b 49 00 00 5a 36 00 80 e9 56 1d 80 65 8c 00 00
       2.6293e-41 -1.9498e-41 -2.694407e-39 5.0364e-41
0001d0 15 97 00 80 2e 95 0e 3e 47 1e 00 00 e7 e1 22 3e
       -5.4198e-41 0.13924095 1.0861e-41 0.15906487
0001e0 f3 0c 00 00 cf 5a 00 00 9b be 9b 3d 22 af 00 80
       4.645e-42 3.2576e-41 0.076047145 -6.2826e-41
0001f0 e4 81 84 36 1d 81 00 80 59 5d 00 80 d0 4b 00 80
       3.949028e-06 -4.6317e-41 -3.3487e-41 -2.7196e-41
000200 be 7f 0c 00 4e 9b 36 86 f3 7a 00 00 84 ec 9b 3d
       1.147851e-39 -3.4344495e-35 4.4106e-41 0.07613471
000210 cb 46 09 80 8d 7a 00 00 ac ff 9b 3d 91 16 00 00
       -8.51915e-40 4.3963e-41 0.07617125 8.095e-42
000220 b6 41 00 00 a3 75 00 00 1e 1a 00 80 8b 1f 00 00
       2.3573e-41 4.22e-41 -9.369e-42 1.1315e-41
000230 94 80 00 80 c4 71 00 80 22 57 00 80 61 ff 9b 3d
       -4.6125e-41 -4.0811e-41 -3.1257e-41 0.07617069
000240 0a 37 00 00 31 27 00 80 db 0a 5f 3d d0 1f 00 80
       1.9744e-41 -1.4059e-41 0.054453712 -1.1412e-41
000250 54 96 00 00 00 9f 00 80 c9 64 15 00 d6 45 00 00
       5.3928e-41 -5.7038e-41 1.9647e-39 2.5052e-41
000260 05 6b 00 00 26 18 00 80 ff 26 00 00 4c 0c 5f 3d
       3.8391e-41 -8.663e-42 1.3989e-41 0.054455087
000270 ee 9e 00 00 47 1f 00 00 04 a4 62 3d ba 5c 00 80
       5.7013e-41 1.122e-41 0.0553322 -3.3264e-41
000280 07 40 00 00 29 7b 00 00 04 44 00 00 2d a2 00 80
       2.2969e-41 4.4182e-41 2.44e-41 -5.8178e-41
000290 e5 58 00 80 94 36 00 00 98 18 00 80 ef a4 62 3d
       -3.189e-41 1.9579e-41 -8.823e-42 0.055333074
0002a0 6f 07 00 80 6e 5d 00 00 95 a4 62 3d 6d 3b 00 80
       -2.667e-42 3.3516e-41 0.05533274 -2.1318e-41
0002b0 1e 7d 00 00 70 11 db 2d 8a 5a 00 80 a2 94 00 00
       4.4884e-41 2.4905161e-11 -3.2479e-41 5.332e-41
0002c0 14 26 00 00 2d 14 00 80 d5 93 00 00 01 a5 62 3d
       1.366e-41 -7.238e-42 5.3032e-41 0.05533314
0002d0 45 7e 00 80 a4 ab 00 80 98 ce 64 3d 68 00 96 2f
       -4.5297e-41 -6.1573e-41 0.055861086 2.728513e-10
0002e0 20 1c 00 00 57 ba 09 00 20 94 00 00 d6 53 00 80
       1.009e-41 8.93366e-40 5.3137e-41 -3.0075e-41
0002f0 06 1c 00 00 0c 34 00 80 2d 95 00 80 20 d0 64 3d
       1.0053e-41 -1.8671e-41 -5.3514e-41 0.055862546
000300 b4 9a 00 80 a7 a3 00 80 a6 01 00 80 19 31 00 80
       -5.5497e-41 -5.8707e-41 -5.91e-43 -1.7613e-41
000310 5b 3d 00 80 c8 6a 00 00 1b 28 6d 3f 14 b4 4b 3f
       -2.201e-41 3.8306e-41 0.9263932 0.7957165
000320 5d 50 48 3f 05 b0 00 80 21 fe e7 3f 1b 8d 00 80
       0.78247625 -6.3144e-41 1.8124429 -5.0619e-41
000330 d2 5e 00 00 bf 75 00 80 50 72 07 23 ee 5d 00 80
       3.4015e-41 -4.224e-41 7.342571e-18 -3.3696e-41
000340 3c 23 00 80 35 9c 85 3e 86 61 00 80 94 9a 00 00
       -1.264e-41 0.2609574 -3.4985e-41 5.5452e-41
000350 76 68 00 00 e4 05 00 80 00 93 00 00 a1 2d 00 00
       3.7474e-41 -2.113e-42 5.2734e-41 1.6369e-41
000360 b7 a1 ff 3d a7 8f 00 80 1f 4a 3a 3e f1 34 15 80
       0.124820165 -5.1533e-41 0.18192337 -1.947537e-39
000370 75 cf 0f 00 b5 f9 ee 3d 71 c5 0c 80 a4 30 00 80
       1.451954e-39 0.116687216 -1.172855e-39 -1.7449e-41
000380 69 07 00 00 80 69 00 00 70 7c 00 00 0a 81 00 80
       2.658e-42 3.7846e-41 4.464e-41 -4.629e-41
000390 63 11 00 80 4e 63 21 1e dc f4 ee 3d 17 19 00 80
       -6.237e-42 8.543805e-21 0.11667797 -9e-42
0003a0 66 3d 00 80 24 f4 4f 3d 97 70 00 80 a7 17 00 00
       -2.2026e-41 0.05076994 -4.039e-41 8.485e-42
0003b0 de 6d 00 80 4c e8 df b1 e7 06 00 00 1d 75 00 00
       -3.9413e-41 -6.5165633e-09 2.476e-42 4.2012e-41
0003c0 0f a3 00 00 c5 a3 00 80 54 f4 4f 3d 4c 1f 00 00
       5.8494e-41 -5.875e-41 0.05077012 1.1227e-41
0003d0 92 b2 00 00 97 80 70 3c 35 e0 08 00 ba 65 00 00
       6.4059e-41 0.014679096 8.15114e-40 3.6493e-41
0003e0 a6 0a 00 00 96 3a 00 00 bd be 00 00 db 14 00 80
       3.82e-42 2.1017e-41 6.8424e-41 -7.482e-42
0003f0 34 ba 07 80 a5 a9 00 80 94 81 70 3c 01 44 15 30
       -7.09646e-40 -6.0857e-41 0.014679331 5.4302524e-10

net_layers.0.bias f4 [6]
000000 f2 f9 5c 3f 4a cf 5a 3f 16 a4 e8 3f 46 57 5c 3f
       0.86318886 0.8547255 1.8175075 0.8607067
000010 0f a5 ce 3f 19 d0 5a 3f
       1.6144122 0.8547378
