dialogue_manager/model/weights/trained_modelLIST_SAMPLEMODELDCOMPOSITE0.0.pt (torch_old, 23982 bytes, 4 tensors)

net_layers.0.weight f4 [62, 88]
0	0xbe2f75ab	-0.1713473
1	0x3d416920	0.047219396
2	0x3dc90140	0.098146915
3	0x3e2b1cb3	0.16710167
4	0xbc62ba52	-0.013838368
5	0x3db83334	0.08994141
6	0x3ce77cf6	0.028257828
7	0xbb559f0e	-0.0032596025
8	0x3cb5654a	0.022143025
9	0xbe1e8478	-0.1548022
10	0x3d8ef65d	0.06980584
11	0x3dc261f3	0.094913386
12	0x3c305257	0.010761819
13	0xbda925be	-0.08259152
14	0xbdacfc00	-0.08446503
15	0x3e033cf3	0.12816219
16	0x3e359b9a	0.17735139
17	0xbdc2c881	-0.09510899
18	0xbdeb3a95	-0.11485783
19	0xbe47cafb	-0.19511025
20	0x3e30bfdf	0.17260693
21	0x3bdb3214	0.0066893194
22	0xbe0185ce	-0.12648699
23	0xbd79522b	-0.060869377
24	0xbc3fbb35	-0.0117023485
25	0x3d461367	0.048358347
26	0x3c99ee36	0.018790346
27	0xbcb4c08f	-0.022064475
28	0x3dbee357	0.093207054
29	0xbd967dac	-0.07348189
30	0xbe75c9b5	-0.24002726
31	0x3d636cca	0.05552367
32	0x3e005e41	0.12535955
33	0x3e12becb	0.14330594
34	0xbe432a12	-0.19059017
35	0xbc8345d5	-0.01602451
36	0x3e46d030	0.19415355
37	0x3d3a4c57	0.04548296
38	0xbe4f3a3a	-0.20237055
39	0x3c86607f	0.016403435
40	0xbe08bf68	-0.13354266
41	0x3d7a7aea	0.061152376
42	0x3e6a164b	0.22860067
43	0xbdda6f3e	-0.10665749
44	0x3e086a5b	0.13321821
45	0xbab91b75	-0.0014122563
46	0xbe33370c	-0.17501467
47	0x3e473c0f	0.19456504
48	0xbd95fa93	-0.07323184
49	0xbd464149	-0.048402105
50	0xbda6ddfb	-0.08147808
51	0x3cc8efb0	0.024528354
52	0x3e0b6ee5	0.13616522
53	0x3cf5ae39	0.029990302
54	0xbce5c412	-0.028047595
55	0x3d3df546	0.04637649
56	0x3d7e7d98	0.062131494
57	0x3e95fa63	0.29292592
58	0x3db620e1	0.0889299
59	0xbd49c32c	-0.049258396
60	0xbdd07f4b	-0.10180529
61	0xbcde338a	-0.027124185
62	0x3d4c2dc1	0.04984832
63	0xbbbfcfb8	-0.0058536194
64	0x3e6d195c	0.23154205
65	0x3e3ac941	0.18240835
66	0xbdaae814	-0.08345047
67	0xbd2fc085	-0.04290821
68	0x3d9bb250	0.0760237
69	0x3eb18ae3	0.34676275
70	0xbdbbcdca	-0.091701105
71	0x3e52a41a	0.20570412
72	0x3e0d5dd3	0.13805322
73	0xbc98a365	-0.0186326
74	0x3de5e005	0.11224369
75	0xbcc0f8e4	-0.02355618
76	0x3e241c38	0.1602639
77	0x3e603471	0.21895005
78	0xbe0ecc93	-0.13945226
79	0x3d652620	0.055944562
80	0x3c8fae01	0.017539026
81	0x3d90a654	0.070629746
82	0x3e4c08c3	0.19925217
83	0x3e76afef	0.24090551
84	0xbda7f35f	-0.08200716
85	0xbcdf5a6b	-0.027264794
86	0xbd1e206d	-0.038605142
87	0x3cabe1c0	0.02098167
88	0x3b2bd53f	0.0026219634
89	0xbe29094a	-0.1650745
90	0xbe3f4e36	-0.18682179
91	0x3d2e6e05	0.04258539
92	0xbd7a96e1	-0.061179046
93	0xbcc03bb5	-0.02346597
94	0xbd650da8	-0.055921227
95	0x3c3334fa	0.010937924
96	0xbe03d64a	-0.12874714
97	0xbb183ac6	-0.002322839
98	0x3d8ddfc1	0.06927443
99	0x3d89838b	0.06714543
100	0xbcfad791	-0.030620368
101	0xbce7b3d4	-0.02828399
102	0x3df45329	0.11929924
103	0xbe7ee889	-0.24893393
104	0xbe162232	-0.14661482
105	0x3d7a6df6	0.061140023
106	0x3de1ec88	0.11031443
107	0xbe546350	-0.2074101
108	0xbdb42aae	-0.08797203
109	0xbd6f6c78	-0.058453053
110	0x3d6459f7	0.05574986
111	0x3da35817	0.07975786
112	0x3e1c8574	0.15285283
113	0x3ba55751	0.0050458093
114	0xbd04c23e	-0.032411806
115	0xbcba3bde	-0.022733625
116	0xbca83604	-0.02053357
117	0x3dbfaeea	0.09359534
118	0x3e869516	0.2628562
119	0x3cf93300	0.030419827
120	0xbe2476df	-0.1606097
121	0x3dc7a6bd	0.097486
122	0x3e41c392	0.1892226
123	0xbe2808bc	-0.16409582
124	0x3e990bbc	0.29891765
125	0xbd07556a	-0.03304044
126	0xbd27524b	-0.040849965
127	0xbe34daa2	-0.17661527
128	0x3e58eefd	0.21184917
129	0x3d21a7fb	0.03946684
130	0xbccde192	-0.025131974
131	0xbe190662	-0.14943841
132	0xbcac17ae	-0.021007385
133	0x3dff1834	0.12455788
134	0xbda685ab	-0.08130964
135	0x3e05bfa3	0.13061385
136	0x3daa07a4	0.083022386
137	0x3e2d717f	0.16937827
138	0xbde09ca4	-0.10967377
139	0x3e036971	0.12833191
140	0xbc9c9ad4	-0.019116797
141	0x3e00b063	0.12567286
142	0x3d72c1a1	0.05926669
143	0xbc81f005	-0.01586152
144	0xbda57627	-0.080791764
145	0x3dd4f6a6	0.10398607
146	0x3d5c217f	0.053742882
147	0xbe60dc17	-0.21958958
148	0x3cf711f4	0.030159928
149	0xbe2aae9c	-0.1666817
150	0xbd4088fb	-0.047005635
151	0x3d2caa76	0.04215475
152	0xbc3436ea	-0.010999421
153	0x3e457645	0.19283397
154	0xbe135ce7	-0.14390908
155	0xbe0ca048	-0.13733017
156	0xbd49485e	-0.04914128
157	0xbbce8e2a	-0.0063035684
158	0xbe47a1f1	-0.1949537
159	0xbe3b6d15	-0.1830333
160	0xbe846c60	-0.25863934
161	0xbd8be959	-0.06831617
162	0x3e0f4318	0.13990438
163	0xbcc98777	-0.024600727
164	0x3d3c648c	0.045994326
165	0x3e113995	0.14182122
166	0xbd38143d	-0.044941176
167	0x3ddd5fa7	0.1080926
168	0x3d7add08	0.061245948
169	0x3e0592a4	0.1304422
170	0x3d19d91f	0.03756058
171	0xbe4e9b12	-0.20176342
172	0x3d26fe74	0.04077001
173	0x3e27b19e	0.1637635
174	0xbe644f8d	-0.22295971
175	0xbc92663a	-0.017871011
176	0xbdd432bd	-0.1036124
177	0xbd03f740	-0.032218218
178	0xbd5cb5a1	-0.053884152
179	0xbe3ac5cf	-0.1823952
180	0xbe41906d	-0.1890275
181	0x3d895f5b	0.06707641
182	0x3d1e9873	0.038719606
183	0xbc9ac66b	-0.018893441
184	0x3d8fa0d2	0.07013096
185	0xbc6488dd	-0.013948646
186	0xbdfac5d4	-0.12244764
187	0xbc917ffe	-0.017761227
188	0xbdab7620	-0.0837214
189	0x3dd56c53	0.10421052
190	0xbd9e705d	-0.07736275
191	0xbcd7e6d1	-0.026355179
192	0xbe2cfbe6	-0.16892967
193	0xbd92a940	-0.07161188
194	0xbde6e72d	-0.11274562
195	0xbe04d71c	-0.12972683
196	0xbe023507	-0.12715541
197	0xbe494ba7	-0.19657765
198	0xbe5bf4c3	-0.21480088
199	0xbc2e49ee	-0.010637743
200	0xbcbf2740	-0.023334146
201	0xbe302240	-0.17200565
202	0xbe3c0f08	-0.18365109
203	0xbdf6a551	-0.1204325
204	0x3da4c2df	0.08044981
205	0x3d78f9f9	0.060785268
206	0xbbb75371	-0.005594664
207	0xbd36f12d	-0.044663597
208	0x3e4063d8	0.18788087
209	0xbda4d433	-0.08048286
210	0xbdd8a072	-0.105774775
211	0xbe7e2903	-0.24820332
212	0x3e0a3796	0.13497767
213	0xbd4b6ec5	-0.049666185
214	0x3d6f458a	0.058415927
215	0xbdb3f4d9	-0.08786935
216	0xbe226691	-0.15859438
217	0xbd44ad0e	-0.0480166
218	0x3e0fb59a	0.14034119
219	0xbd819b33	-0.0632843
220	0xbe24a771	-0.16079499
221	0x3c5de9c8	0.013544507
222	0xbd9af2be	-0.07565831
223	0xbcbb698b	-0.022877475
224	0xbd7434bb	-0.0596206
225	0xbcc83ec8	-0.024443999
226	0xbe511bdb	-0.20420782
227	0x3c6efcca	0.014586637
228	0xbd9b02da	-0.07568903
229	0x3e3fe513	0.18739729
230	0xbe30c765	-0.17263563
231	0xbdae1b7d	-0.08501337
232	0x3de839a3	0.11339118
233	0xbd0a1dc9	-0.03371981
234	0x3dcd8b7c	0.1003637
235	0x3e6d5270	0.23175979
236	0x3d530ed3	0.05152781
237	0x3e6ac29f	0.22925805
238	0x39523192	0.00020045627
239	0x3e5dad28	0.21648085
240	0xbd52421b	-0.051332574
241	0x3d9525d5	0.072826065
242	0xbe25335f	-0.16132878
243	0x3deead50	0.116541505
244	0x3daea3a8	0.08527309
245	0x3e986d0c	0.29770696
246	0x3dbf99d9	0.09355516
247	0x3c3f3584	0.011670474
248	0x3e75028c	0.23926753
249	0x3cac62ea	0.02104326
250	0xbd73a700	-0.059485435
251	0x3c6d0fae	0.01446907
252	0xbe112025	-0.14172418
253	0x3d57fa6b	0.05272905
254	0x3e57af11	0.21062876
255	0xbb93ac2a	-0.0045066075

net_layers.0.bias f4 [62]
0	0x3d25ebad	0.04050796
1	0x3d1e19f4	0.03859897
2	0x3b819a36	0.003955151
3	0x3db36642	0.087597385
4	0xbcc300ca	-0.023804087
5	0x3dcd45bc	0.100230664
6	0xbb1ea4c5	-0.0024207097
7	0xbbd5b230	-0.0065214857
8	0xbb76b528	-0.0037644599
9	0xbd9b96cc	-0.075971216
10	0xbd6acadb	-0.057322364
11	0xbd41fd9d	-0.047361005
12	0x3d962f31	0.0733322
13	0xbdc9b781	-0.09849454
14	0xbd375224	-0.04475607
15	0x3d245aab	0.04012553
16	0xbdca2387	-0.098700576
17	0x3d84d60d	0.064861394
18	0xbdc07b39	-0.09398503
19	0x3ce25033	0.027626133
20	0x3d8fb7ed	0.07017503
21	0xbd93d11b	-0.07217618
22	0x3cf60896	0.030033391
23	0x3d573787	0.05254319
24	0xbd8992d2	-0.06717457
25	0xbdc33993	-0.09532466
26	0x3ce6236c	0.028093062
27	0xbde2c776	-0.110732004
28	0x3dd329ba	0.10310693
29	0xbe00f161	-0.12592079
30	0xbdb58628	-0.08863479
31	0xbd1f4e6a	-0.03889314
32	0xbdbc4405	-0.09192661
33	0xbda45e7d	-0.08025835
34	0xbc6ed704	-0.014577631
35	0x3deee064	0.11663893
36	0x3dae751c	0.085184306
37	0x3cb6e0c6	0.022323977
38	0x3da18342	0.078863636
39	0x3db37e84	0.08764365
40	0x3dd81e96	0.10552709
41	0xbb67dbab	-0.0035378735
42	0xbdb90577	-0.090342455
43	0x3d320c0a	0.043468513
44	0x3cf4301a	0.029808093
45	0x3d20a51a	0.039219953
46	0x3b9f4648	0.004860673
47	0x3d8ed3a9	0.06973965
48	0x3def878e	0.11695777
49	0xbce0c50b	-0.027437707
50	0xbd9ea42d	-0.07746158
51	0x3d9d9420	0.07694268
52	0x3cff903e	0.03119671
53	0xbd26332c	-0.040576145
54	0xbb6b27e8	-0.003588194
55	0xbd0191c1	-0.031633142
56	0xbd96a007	-0.073547415
57	0x3ca94c51	0.020666273
58	0x3d575e1d	0.052579988
59	0x3d87b70b	0.066267096
60	0x3d528a9e	0.051401727
61	0x3db6e4e6	0.08930378

net_layers.1.weight f4 [4, 62]
0	0x3e6f7863	0.23385768
1	0x3eb57c1c	0.3544625
2	0x3e44879b	0.19192354
3	0x3ee83148	0.453501
4	0x3e384ac3	0.1799727
5	0x3e232aa1	0.1593423
6	0x3e85d2c9	0.2613738
7	0x3e8f1d2a	0.27951938
8	0x3c2c112b	0.01050214
9	0xbdc74095	-0.09729115
10	0xbe980d75	-0.29697767
11	0xbea77cfe	-0.3271255
12	0xbdc480ef	-0.09594905
13	0xbe90a6f2	-0.2825237
14	0x3e2593de	0.16169688
15	0x3e0b47de	0.13601634
16	0x3e665e78	0.22496974
17	0xbbe574e8	-0.0070024617
18	0x3d7cebc0	0.061748266
19	0xbe698594	-0.22804862
20	0x3d709265	0.058733363
21	0x3dc8d145	0.0980554
22	0xbdfe75c7	-0.12424808
23	0xbe2b7abe	-0.16746041
24	0xbeb4a80a	-0.35284454
25	0x3e31e537	0.17372595
26	0xbea7c822	-0.32769877
27	0xbcb9cbe3	-0.022680229
28	0xbd18c2f7	-0.037295308
29	0x3e39f84e	0.18161127
30	0xbc25f5aa	-0.010129372
31	0xbe85c0a6	-0.26123542
32	0x3ef9cb3b	0.48787865
33	0x3d4f066c	0.050543234
34	0x3caffa4b	0.021481654
35	0x3ec2a731	0.38018182
36	0xbe7c895a	-0.2466177
37	0xbd2f334f	-0.04277354
38	0xbe574c34	-0.21025163
39	0xbd678c4a	-0.056530274
40	0xbc8ff0ae	-0.01757082
41	0xbb8c71a7	-0.0042860094
42	0xbe36ce11	-0.17852046
43	0xbd0bb83e	-0.034111254
44	0x3eb2ef0d	0.34948006
45	0x3c4ebce3	0.012618276
46	0x3eaaccf8	0.33359504
47	0x3e8df53c	0.2772616
48	0x3eac69c3	0.3367444
49	0x3e3d7197	0.18500362
50	0x3f09f2ce	0.53886116
51	0x3e666430	0.22499156
52	0x3bbeba97	0.005820583
53	0x3ea03464	0.3128997
54	0x3e8be22e	0.27321
55	0xbe569dfa	-0.20958701
56	0xbe7e2a98	-0.24820936
57	0xbe4652dd	-0.19367547
58	0xbe91e6af	-0.2849631
59	0x3cedc64b	0.029025218
60	0x3f092d76	0.5358499
61	0x3e6c9a99	0.2310585
62	0x3e23e02a	0.1600348
63	0xbe411a8c	-0.18857783
64	0x3eb640bf	0.35596272
65	0x3eaf7900	0.34272003
66	0x3e49aa4a	0.19693866
67	0x3e522682	0.20522502
68	0x3e3ebac0	0.18625927
69	0x3e639ba1	0.22227336
70	0x3d75134b	0.059832852
71	0xbd07b8bb	-0.033135157
72	0xbdfed1d1	-0.12442363
73	0xbe0d8b27	-0.13822614
74	0x3e8c5b36	0.27413338
75	0x3dea399e	0.11436771
76	0xbe6a83b1	-0.22901799
77	0x3e8a9a63	0.27070913
78	0x3e51614b	0.2044727
79	0x3e66cffc	0.22540277
80	0xbe93aa4f	-0.28840873
81	0x3e9bcd7f	0.3043022
82	0x3e44c08a	0.19214073
83	0xbda1f201	-0.07907487
84	0x3ea9546a	0.33072215
85	0x3e7229c3	0.23648743
86	0xbce21ddf	-0.027602134
87	0x3e28b3da	0.16474858
88	0xbe15cc32	-0.14628676
89	0xbe4f8b07	-0.20267878
90	0x3de9c4ba	0.11414476
91	0x3e8a3f80	0.27001572
92	0xbb503615	-0.0031770517
93	0xbd737291	-0.05943543
94	0x3dbaf31b	0.091284
95	0xbe104fe9	-0.14092983
96	0xbecd86fc	-0.40142047
97	0xbdd01b0c	-0.10161409
98	0x3e887d31	0.26658013
99	0x3e04eaf2	0.1298025
100	0xbe71b6c1	-0.23604871
101	0xbed6239c	-0.41824043
102	0xbed10eca	-0.40831596
103	0xbea22589	-0.31669262
104	0xbd285608	-0.04109767
105	0xbea3848e	-0.3193707
106	0xbe53e62b	-0.20693271
107	0x3de58b03	0.11208155
108	0x3eaf096e	0.34186882
109	0x3cd77621	0.026301445
110	0xbe26763d	-0.16256042
111	0xbe2a2b04	-0.16617972
112	0x3da31936	0.07963793
113	0xbe9291ea	-0.2862695
114	0x3e85c8f6	0.26129884
115	0x3eca7cec	0.39548433
116	0xbe8554ee	-0.2604136
117	0xbe6b00d6	-0.22949538
118	0x3e6bc0ff	0.23022841
119	0xbe2821fb	-0.16419213
120	0xbe902dcd	-0.28159943
121	0xbe71f25b	-0.23627608
122	0xbe1606d0	-0.14651036
123	0xbca80400	-0.02050972
124	0xbce6c282	-0.02816892
125	0x3b89ea0c	0.0042088088
126	0x3d0eef7d	0.034896363
127	0x3e26876c	0.16262597
128	0x3e82fafe	0.25582117
129	0xbbfae3b8	-0.0076565407
130	0x3e38e048	0.18054307
131	0xbe8d5a31	-0.27607873
132	0x3ecd50a7	0.40100595
133	0xbeb83bb3	-0.35983047
134	0x3d833d34	0.06408158
135	0xbe01eabe	-0.12687203
136	0xbe890244	-0.2675954
137	0x3e247ff5	0.16064437
138	0x3de325d4	0.110911995
139	0x3e43bb35	0.19114383
140	0x3e877c48	0.26462007
141	0x3e72f156	0.23724875
142	0x3e6465e1	0.22304489
143	0x3e0ea251	0.13929106
144	0x3cd9bf0e	0.02658036
145	0xbc2b8d03	-0.0104706315
146	0x3e9131df	0.2835836
147	0xbea1a154	-0.31568396
148	0xbb63a884	-0.0034737894
149	0x3ed19b9b	0.4093903
150	0xbe396383	-0.18104367
151	0x3b3f0508	0.0029147286
152	0xbd0af23c	-0.03392242
153	0x3ea35a56	0.31904858
154	0x3e590a11	0.21195246
155	0xbe9b35e7	-0.30314562
156	0x3d2572d5	0.040392715
157	0x3df26332	0.11835326
158	0xbdb173a6	-0.08664636
159	0xbc38508e	-0.0112496745
160	0x3b8fa9ff	0.004384279
161	0xbe26a620	-0.16274309
162	0xbeba609a	-0.36401826
163	0x3e397ca0	0.18113947
164	0xbe1458ce	-0.14487001
165	0x3d149871	0.036278192
166	0xbc23565c	-0.00996932
167	0x3d7ecb7c	0.062205777
168	0x3ec4f629	0.38469055
169	0xbd949d62	-0.07256581
170	0xbe27bc42	-0.16380408
171	0x3e601150	0.21881604
172	0x3ec5c5eb	0.38627562
173	0xbd061523	-0.032735
174	0x3e7aebc7	0.24504004
175	0x3def1681	0.11674214
176	0xbdf3e652	-0.119091645
177	0x3e994055	0.29931894
178	0xbe9bdf69	-0.30443886
179	0xbdb2e52c	-0.08735117
180	0xbedee44c	-0.43533552
181	0x3dbc86bc	0.09205386
182	0x3e69becd	0.22826691
183	0xbdc7c9b1	-0.097552665
184	0x3f1c8c79	0.61151844
185	0xbd3bce78	-0.0458512
186	0x3d8349c2	0.064105526
187	0x3ecbd5d9	0.3981159
188	0x3e98d920	0.29853153
189	0x3da165c3	0.07880738
190	0xbc80a03e	-0.01570141
191	0xbe1657d8	-0.14681947
192	0x3e8b23fb	0.27175888
193	0xbe26ac70	-0.16276717
194	0x3ea36edc	0.31920516
195	0xbe43278e	-0.19058058
196	0x3e532d69	0.20622791
197	0x3e31b26c	0.17353219
198	0xbe00367c	-0.12520784
199	0xbda4b7ba	-0.080428556
200	0x3e0855b3	0.13313942
201	0x3cd24eb7	0.0256723
202	0xbe2ae320	-0.16688204
203	0x3e633be7	0.2219082
204	0xbd37d1ad	-0.044877697
205	0xbea52eb0	-0.32262182
206	0xbe808be6	-0.25106734
207	0xbea64637	-0.32475445
208	0xbe5b00c6	-0.21387014
209	0xbdfe15d5	-0.12406508
210	0x3dd85ad8	0.10564202
211	0x3ec7a3b8	0.38992095
212	0xbe2db0a9	-0.16961922
213	0xbe346fb0	-0.1762073
214	0xbe0e25e4	-0.13881642
215	0xbe27b65f	-0.16378163
216	0xbcc52dc9	-0.024069684
217	0xbe2c3f09	-0.16820921
218	0x3e46be87	0.19408618
219	0xbd29da3e	-0.041467898
220	0xbe64ca46	-0.22342786
221	0x3e8dc0b0	0.2768607
222	0x3e856b8a	0.26058608
223	0xbed7e3e7	-0.42166063
224	0xbc8d82bc	-0.017274253
225	0xbdf86aaf	-0.12129723
226	0x3d82a486	0.063790366
227	0xbe0c0fda	-0.13677922
228	0x3cced197	0.025246425
229	0x3de7acb1	0.11312235
230	0xbb751497	-0.0037396306
231	0x3e0b7455	0.13618596
232	0xbdec5097	-0.11538809
233	0x3ef9dc22	0.4880076
234	0x3e33b746	0.17550382
235	0x3e871c2a	0.26388675
236	0x3de8794c	0.113512605
237	0xbdbd7017	-0.09249895
238	0x3e850372	0.2597919
239	0x3e82130a	0.2540515
240	0xbca7a6e7	-0.020465327
241	0xbdade9f5	-0.084918894
242	0xbeac1309	-0.33608273
243	0x3e7dde22	0.24791768
244	0xbd58eb97	-0.05295905
245	0x3cf2f873	0.029659485
246	0x3e14e179	0.14539136
247	0x3e4c610a	0.19958892

net_layers.1.bias f4 [4]
0	0xbcf8c423	-0.030366963
1	0x3ba50a49	0.0050366265
2	0x3daec061	0.08532787
3	0x3d36d891	0.044640128
