dialogue_manager/model/weights/trained_modelMODELDCOMPOSITE0.0.pt (torch_old, 3001 bytes, 2 tensors)

net_layers.0.weight f4 [6, 100]
0	0x3df06db2	0.11739673
1	0x3e16b4fb	0.14717476
2	0x3de8c72c	0.11366114
3	0x3c80d194	0.015724935
4	0x3e439a1f	0.19101761
5	0xbbab1720	-0.0052212626
6	0x3c524128	0.012832917
7	0x3c8677e0	0.016414583
8	0xbda40773	-0.08009233
9	0x3e3d1b47	0.18467437
10	0xbd7efec3	-0.06225468
11	0x3e4e3f31	0.20141293
12	0xbd36142d	-0.044452835
13	0x3d3ee5fe	0.046606056
14	0xbd846466	-0.06464462
15	0x3e1e0884	0.15432936
16	0x3d7b2ab2	0.061320014
17	0x3c44cdc0	0.012011945
18	0x3e3298fc	0.17441171
19	0xbdb17c1a	-0.086662486
20	0x3d8d5a65	0.06902007
21	0x3e28ea24	0.16495568
22	0xbd862f05	-0.06551937
23	0x3e12f696	0.14351878
24	0x3d9b2fe1	0.075774916
25	0xbd6ee6e3	-0.05832566
26	0xbc28d958	-0.010305725
27	0x3d7ac535	0.061223228
28	0x3d89c205	0.067264594
29	0xbaec0d40	-0.001800932
30	0x3db01dc0	0.08599424
31	0xbd0b91a0	-0.034074426
32	0x3c8a8f96	0.01691417
33	0xbba310f6	-0.004976387
34	0xbcae6b8c	-0.021291517
35	0xbd45eed8	-0.048323482
36	0x3daeee3b	0.085415326
37	0x3db553e9	0.08853895
38	0xbd7b63a3	-0.061374318
39	0x3c4cbd28	0.01249627
40	0xbd8b257a	-0.067942575
41	0x3dc27fcb	0.09497031
42	0xb93ec961	-0.00018194832
43	0xbdcb67f0	-0.09931934
44	0xbc027204	-0.007961754
45	0x3d1b4e92	0.037916727
46	0xbd4f1d80	-0.050565243
47	0xbdc5bc58	-0.09655064
48	0x3cac0254	0.020997204
49	0xbb075960	-0.0020652637
50	0xbda54055	-0.08068911
51	0x3c9136b8	0.017726287
52	0xbdbb35ef	-0.091411464
53	0xbb1b81a0	-0.0023728386
54	0x3dbb88d1	0.09156955
55	0x3d66f0de	0.056382053
56	0xbd380f33	-0.04493637
57	0x3d9b9725	0.07597188
58	0x3d344c12	0.04401786
59	0xbdc86488	-0.097848
60	0xbd3eda17	-0.046594705
61	0xbbccbda0	-0.006248191
62	0xbdbcd26f	-0.092198245
63	0xbd80cd6a	-0.062891796
64	0x3d906671	0.07050789
65	0x3b097c60	0.0020978674
66	0xbd92cabb	-0.07167574
67	0x3cfb5d64	0.03068418
68	0x3d146da2	0.036237366
69	0x3d2fc2de	0.04291045
70	0x3d6dc6d2	0.058050938
71	0x3d540342	0.05176092
72	0x3d5bb69e	0.053640954
73	0xbd164cb0	-0.03669423
74	0x3d1d5982	0.03841544
75	0x3bd8ac00	0.006612301
76	0x3cf3bd84	0.029753454
77	0x3d23891e	0.039925687
78	0x3d8069a1	0.06270147
79	0x3dc4e681	0.09614278
80	0xbd46d430	-0.0485422
81	0xbdb3585d	-0.08757088
82	0xbce74f2c	-0.028235994
83	0xbdc23465	-0.0948265
84	0xbd8d5623	-0.06901195
85	0xbcb90638	-0.022585973
86	0x3db238bf	0.0870223
87	0xbdaa152e	-0.08304821
88	0x3cb46ac8	0.022023574
89	0xbda4e4fd	-0.080514885
90	0xbd6c2d2a	-0.05766026
91	0x3cf35a1c	0.029706053
92	0xbccad148	-0.024757996
93	0xbdb4ff9f	-0.08837818
94	0x3d39f28a	0.04539732
95	0x3c6879d0	0.014189199
96	0xbd167224	-0.036729947
97	0x3d7e17fa	0.062034585
98	0x3d4c6502	0.049901016
99	0x3d280438	0.04101965
100	0xbe2fc4dd	-0.17164941
101	0xbe1f2ade	-0.15543696
102	0xbe35cd17	-0.17754017
103	0x3dc82427	0.097725205
104	0xbda7aae7	-0.08186894
105	0x3da20e97	0.07912939
106	0x3d9f2f5f	0.07772707
107	0xbd3d0140	-0.04614377
108	0x3d2d4226	0.042299412
109	0x3d59951a	0.05312071
110	0x3d2f2722	0.04276193
111	0x3e17d29c	0.14826435
112	0x3d0e640e	0.03476339
113	0xbc6773b0	-0.014126703
114	0x3d770f86	0.06031754
115	0x3d8f15e6	0.06986599
116	0xbd2b3057	-0.041794147
117	0x3cb93e54	0.022612728
118	0x3e8ddfe6	0.27709883
119	0x3d6a5b42	0.057215936
120	0x3dd290d7	0.10281532
121	0x3cf2f579	0.029658066
122	0x3c57b070	0.013164625
123	0xbc6fb049	-0.014629432
124	0xbd3519ca	-0.044214047
125	0x3cddfb44	0.027097352
126	0xbac1bf80	-0.0014781803
127	0x3c8fd18e	0.017555978
128	0xbcde0b98	-0.027105138
129	0xbd75577d	-0.05989789
130	0x3e12a9b1	0.14322545
131	0xbc9aed4c	-0.01891198
132	0xbd11c3f3	-0.035587262
133	0x3d8f5239	0.069981046
134	0x3cb2e7ac	0.021838985
135	0xbc45e055	-0.012077411
136	0x3d53b296	0.051683985
137	0xbd461cfd	-0.04836749
138	0xbdb148ef	-0.08656489
139	0x3b4d9f60	0.0031375512
140	0x3c7dbf10	0.015487447
141	0x3d62c1f2	0.055360742
142	0x3ce2d9cc	0.027691744
143	0xbdbd85ef	-0.092540614
144	0x3dab30ae	0.08358894
145	0xbdab0cb3	-0.083520316
146	0xbdc0ab2d	-0.09407649
147	0xbc075955	-0.0082610445
148	0x3bae2620	0.0053146034
149	0x3daa0415	0.0830156
150	0xbcade140	-0.021225572
151	0xbd862732	-0.06550445
152	0xbcc97d00	-0.024595737
153	0x3c677218	0.014126323
154	0x3dafbaa8	0.08580524
155	0x3b2d49c0	0.0026441664
156	0x3dd7a4a0	0.105294466
157	0xbca42dac	-0.02004131
158	0x3cb9ea40	0.022694707
159	0x3d6c964e	0.05776053
160	0xbd441b77	-0.047877755
161	0x3d3f1e9a	0.046660043
162	0x3d37e39e	0.044894807
163	0x3c8d8898	0.017277047
164	0x3b615640	0.0034383684
165	0xbcb20bac	-0.021734081
166	0xbccd0b80	-0.025029898
167	0x3d9f14a5	0.077676095
168	0xbd57fd37	-0.05273172
169	0x3c498ec0	0.012302101
170	0x3d68fcba	0.056881644
171	0xbc83206c	-0.01600667
172	0x3d49004e	0.049072556
173	0x3cf7e494	0.030260362
174	0x3d2a16e2	0.04152573
175	0x3d5cc3c2	0.053897627
176	0x3d856335	0.06513063
177	0x3d5a6902	0.0533228
178	0x3db99a83	0.09062674
179	0xbc3fafd8	-0.011699639
180	0xbd12576a	-0.035727896
181	0xbd8c0fe2	-0.06838967
182	0x3cebb304	0.028771885
183	0x3d32a532	0.043614574
184	0xbd001f8c	-0.031280085
185	0x3cadd894	0.021221437
186	0x3d9df949	0.07713563
187	0x3d109922	0.03530229
188	0x3ac33200	0.001489222
189	0x3d9cc97d	0.07655618
190	0xbc7b2368	-0.015328266
191	0xbd9cdea2	-0.07659651
192	0x3aa16f40	0.001231648
193	0x3b74c4a0	0.0037348643
194	0xbd28491a	-0.04108534
195	0xbce33a40	-0.027737737
196	0xbda9c35d	-0.08289216
197	0xbced0060	-0.028930843
198	0x3d903ac3	0.07042458
199	0xbcd234b5	-0.025659898
200	0x3ef681cd	0.48145905
201	0x3f1ec11b	0.62013406
202	0x3f027a84	0.50968194
203	0x3d62ea92	0.055399485
204	0x3f2cf650	0.67563343
205	0x3dac6193	0.08417048
206	0x3da42add	0.08015988
207	0x3d2b9a8e	0.04189544
208	0xbc4822c0	-0.012215316
209	0x3d57a3b7	0.052646365
210	0x3db0ce19	0.0863306
211	0x3ebdc538	0.37064528
212	0xbcc694ec	-0.024240933
213	0xbc1f6d58	-0.009730659
214	0xbcb4b8a0	-0.022060692
215	0x3dc499bc	0.09599635
216	0x3da2ce93	0.07949557
217	0xbce497ac	-0.027904354
218	0x3e624ed3	0.22100382
219	0x3c8197c0	0.01581943
220	0x3d5fd625	0.054647584
221	0x3bfc741d	0.0077042715
222	0x3d58715a	0.052842475
223	0x3e2f3790	0.17111039
224	0x3d61928a	0.05507139
225	0x3d437082	0.047714718
226	0x3dc39da3	0.09551551
227	0xbb83d7f3	-0.004023546
228	0x3cff4a64	0.031163402
229	0xbdbecd7a	-0.09316535
230	0x3e2346a0	0.1594491
231	0x3d4919a2	0.04909671
232	0x3b04b9e1	0.0020252394
233	0xbdaea78f	-0.08528053
234	0xbba962e0	-0.0051692575
235	0x3d635bb4	0.055507377
236	0xbd7fe89d	-0.062477697
237	0x3c3a8918	0.011385225
238	0xbd46ee6a	-0.048567213
239	0xbdaa386b	-0.08311542
240	0xbdb7fb1a	-0.08983441
241	0xbdcba435	-0.099434294
242	0x3e0685b5	0.13136943
243	0xbc414580	-0.011796355
244	0x3d5768d2	0.0525902
245	0x3d821899	0.06352348
246	0xbda04123	-0.07824924
247	0x3da6aa53	0.081379555
248	0x3cf0837c	0.029359572
249	0xbd2ab593	-0.04167707
250	0xbc1c10c0	-0.009525478
251	0x3dc61a59	0.09672994
252	0xbcd3ac08	-0.025838867
253	0x3ccf22ec	0.025285207
254	0xbccade54	-0.024764217
255	0xbcea4538	-0.02859746

net_layers.0.bias f4 [6]
0	0x3e219d71	0.15782715
1	0x3f48b131	0.7839537
2	0x3f2e9fee	0.68212783
3	0x3e97c15b	0.29639706
4	0x3f2c3677	0.67270607
5	0x3e4b77ed	0.19869967
