dialogue_manager/model/weights/trained_modelLIST_SAMPLEMODELDCOMPOSITE0.0NORMAL.pt (torch_old, 23906 bytes, 4 tensors)

net_layers.0.weight f4 [62, 88]
000000 eb 3d 57 3d 3e 77 23 be e5 d5 bd bd 45 76 15 3e
       0.052549284 -0.15963456 -0.09269313 0.14595897
000010 f8 01 e2 bd de dd 06 be 04 54 1e be e2 18 4b 3d
       -0.11035532 -0.13170573 -0.15461737 0.049584277
000020 87 80 a5 3d 49 0e d8 be 46 b6 0e 3d b4 f2 45 be
       0.08081155 -0.421984 0.0348418 -0.19330865
000030 15 f5 bf bd 07 63 ad bd df 56 2b be f8 1a 2f 3d
       -0.093729176 -0.084661536 -0.16732357 0.04275033
000040 c2 9f c1 bd 96 af 1b 3d ed a4 6a bc 4b 8e dd bd
       -0.094542995 0.03800925 -0.014321548 -0.10818156
000050 7e 75 ef 3d 91 12 cd bd 0a 2f e2 bd 8c e1 92 be
       0.11692332 -0.10013307 -0.11044128 -0.28687704
000060 c7 f7 b6 3d ab c1 4b be 5c 2d 3d 3d 8f 40 f1 bd
       0.089339785 -0.19898097 0.046185836 -0.11779892
000070 5e 94 23 3e 13 40 12 3e 42 1b f9 3d e1 19 2e be
       0.15974566 0.14282255 0.12163402 -0.1700206
000080 87 56 b2 bd d0 86 1b bd 44 24 37 be f0 21 10 be
       -0.0870791 -0.037970364 -0.17884928 -0.14075446
000090 3e c8 14 3e d4 d0 ce bd 1c e4 57 3d 6b 5b 80 be
       0.14529511 -0.100984246 0.052707776 -0.25069746
0000a0 29 d3 22 3e a5 84 1d be c6 75 7c 3e d3 bc f1 bc
       0.15900864 -0.15382631 0.24654302 -0.029508984
0000b0 72 7b 20 3e af 91 d5 3c bf 62 eb 3d e4 cd 3b 3e
       0.1567209 0.026070444 0.11493444 0.1834026
0000c0 03 d9 0f 3e 0c 7f 72 bc 53 e8 a9 bb 96 a8 e3 3c
       0.14047627 -0.014800798 -0.005185166 0.027790349
0000d0 1b 7d a0 3d 66 70 b8 3d dd 20 bb 3e 8a cf 76 3e
       0.07836362 0.09005813 0.3654851 0.24102607
0000e0 d0 ee 67 bd a4 7e 95 3e 8c 90 4f be 11 f2 67 3d
       -0.056624234 0.29198182 -0.20269984 0.056627337
0000f0 f2 9b 61 bd ba 5f e0 3c 1d 22 8b 3d 73 66 6d bd
       -0.05508036 0.027389396 0.06793616 -0.05795903
000100 48 04 d9 3d 18 d0 91 3d 81 dd 32 be eb 21 82 3e
       0.1059652 0.07119769 -0.1746731 0.25416502
000110 a7 48 a9 3d 6a 65 bc 3d 5b f0 75 3c f8 39 a7 3e
       0.082658105 0.09199031 0.0150109185 0.32661414
000120 01 f2 ef bd 78 29 43 3e c6 da 90 bd 73 fe ac bd
       -0.117160805 0.19058788 -0.07072978 -0.0844697
000130 79 c2 72 3c d6 e4 d8 bd 61 df 69 be d9 14 2c be
       0.014816874 -0.10590522 -0.22839119 -0.16804828
000140 cf dc f5 3d 5d 6d 04 3d ed 7c fd 3d 6f bb 62 3e
       0.120050065 0.03233086 0.12377343 0.22141813
000150 ef 10 7b bd 06 96 14 3e af 9b f6 bd 5e 3d d2 3d
       -0.061295446 0.14510354 -0.12041413 0.10265611
000160 f3 15 b5 bd 06 20 04 be 9e 2f d5 3d 94 85 7c 3d
       -0.08842077 -0.12902841 0.10409473 0.061650828
000170 f2 ef 99 3d 7a 33 20 be 6c ab 03 bd 73 ae 42 be
       0.07516469 -0.15644637 -0.032145903 -0.1901186
000180 bd 7b 3d 3e c0 e9 98 bd 2d c4 30 3e 48 76 01 be
       0.18504234 -0.07466459 0.17262335 -0.12642777
000190 fe 02 d6 3d 3d b9 e3 bd 82 49 20 be 34 9a 54 bd
       0.104497895 -0.11119316 -0.15653041 -0.051904872
0001a0 d6 4b 17 be 08 9e 70 bd 18 79 d5 bc 91 e0 4a 3e
       -0.14775023 -0.05874446 -0.026058719 0.19812228
0001b0 7a 51 c2 3d 79 9f 32 3e 37 8a ce bd d7 3a 09 3e
       0.09488197 0.17443646 -0.10084956 0.13401352
0001c0 4d b6 9a bd d0 c8 bb bd 93 22 23 be d9 a2 2e 3e
       -0.07554302 -0.09169161 -0.15931158 0.17054309
0001d0 df 37 42 3e e0 9f 84 bd ea fe bb 3d 20 14 79 bd
       0.18966626 -0.06475806 0.091794804 -0.06081021
0001e0 14 07 55 3d 9d 9b de bd ed 1d 4a be 68 62 67 bd
       0.052008703 -0.10869525 -0.19737978 -0.056490332
0001f0 1d a0 3e be a8 d3 d3 bc c6 76 92 bd cd cc 0a be
       -0.18615766 -0.025857762 -0.071515605 -0.13554688
000200 b2 90 27 be 42 d5 a8 3d 59 cb 47 3e 00 5c 31 bc
       -0.1636379 0.08243801 0.19511165 -0.010825157
000210 c0 4e 18 bd 60 9e ca 3b 10 15 fd bd 23 62 02 3e
       -0.037184477 0.0061834306 -0.12357533 0.12732749
000220 da 29 0e be 54 ea 27 3d 64 0e 72 3d 54 c7 15 3d
       -0.13883153 0.040994957 0.059095755 0.036567047
000230 57 15 9e bd aa 1d 94 bd 90 b3 c4 bd 14 e1 8f bd
       -0.07718914 -0.072322205 -0.09604561 -0.07025352
000240 46 e5 e2 3d b2 fa c4 3d e9 ed 17 3e 78 65 40 3d
       0.11078887 0.09618129 0.1483685 0.04697177
000250 ad c0 33 be 86 d3 19 be 0a 67 ec 3d a8 e1 3d bd
       -0.17553969 -0.15022096 0.11543091 -0.04635778
000260 b0 48 92 bd 92 6a 14 be 52 c5 1f be 00 4d b8 bc
       -0.0714277 -0.14493778 -0.15602615 -0.022497654
000270 da 8c 93 bd fb d8 28 3e dd 7d c0 bd 87 48 f0 bd
       -0.072046 0.16489021 -0.093990065 -0.117325835
000280 59 a4 07 3e b4 77 4d 3d 10 52 94 bc d0 8c 4d 3c
       0.13246287 0.050162986 -0.018105537 0.012545779
000290 70 41 99 3c 4a 28 f4 3d 59 57 0b 3e 75 22 14 be
       0.01870796 0.11921747 0.13607539 -0.1446627
0002a0 e0 ea a6 bd a0 b0 b5 bd 3d a8 f3 bd 52 1d f5 3d
       -0.081502676 -0.08871579 -0.11897323 0.11968483
0002b0 5b 33 03 3e 38 2a 23 3d 9f c9 48 3e 65 49 47 3e
       0.1281256 0.039835185 0.19608162 0.19461592
0002c0 b4 09 23 3e 10 b3 e2 3c 7a 2c 6f 3d f1 48 ec bc
       0.1592167 0.027673274 0.058392026 -0.028843375
0002d0 74 25 95 bd 20 a6 29 3d 7c d1 02 3d 00 d2 92 bd
       -0.07282534 0.041418195 0.03193806 -0.071689606
0002e0 f0 c9 48 bd bc d4 99 bd 9b 26 1e be d0 46 ed bd
       -0.049020708 -0.07511279 -0.15444414 -0.11585772
0002f0 43 39 69 be 7b c3 03 be b9 80 29 be ef 00 33 be
       -0.2277575 -0.12867539 -0.1655301 -0.17480825
000300 67 24 1f be f1 65 90 be 2e 35 b8 bd 85 f9 87 be
       -0.1554123 -0.28202775 -0.08994518 -0.26557556
000310 af 02 98 3d 2e 19 10 be 66 b0 fd bd 17 20 3e be
       0.07422387 -0.14072105 -0.12387161 -0.18566929
000320 66 91 5d 3c 75 f5 76 be e2 f4 18 bd 27 3e 34 be
       0.013523435 -0.24117072 -0.037342913 -0.17601834
000330 fa ef 95 3e 48 e3 97 3c 1c 1f 02 3e aa 37 90 bd
       0.2928465 0.018540993 0.1270718 -0.07041867
000340 24 78 6f 3e 98 9c cf ba 5f 1b 50 3c 55 6e 67 3d
       0.23385674 -0.0015839515 0.012701838 0.056501705
000350 7d 22 33 3e 3c fb d5 3d d1 96 ec 3d 78 95 48 be
       0.17493625 0.1044831 0.115522034 -0.19588268
000360 70 40 bf bd 8d 11 0b bd 4f d3 e8 3d 1c d5 f9 bd
       -0.09338462 -0.033952285 0.11368429 -0.121988505
000370 a6 f5 e6 3d d8 ac 17 3e dd 11 b3 bc 6a 82 88 be
       0.112773225 0.14812028 -0.021859104 -0.26661998
000380 47 b2 03 be 44 cc 56 bc bb 36 ef bd 13 17 3f 3d
       -0.12860976 -0.013110224 -0.11680361 0.046652865
000390 c7 43 01 3e 88 f3 fc bd e1 b5 fe 3d 23 b1 a4 3d
       0.12623511 -0.123511374 0.124370344 0.08041599
0003a0 09 a1 1d be f1 ec 31 be 46 1c da 3d 3a c3 db 3d
       -0.15393461 -0.17375542 0.10649924 0.10730596
0003b0 a7 30 3c 3c 94 94 75 bd 80 19 a1 3b 0d bc 0d 3e
       0.011486209 -0.05995615 0.00491637 0.13841267
0003c0 71 8f 0a 3e 08 3f 25 bd 5c e2 6a 3d 84 46 89 3d
       0.13531281 -0.040343314 0.05734478 0.06702903
0003d0 7f b2 31 3e 26 73 17 3e 77 33 05 be 98 08 a6 3d
       0.17353247 0.1479002 -0.13007914 0.08107108
0003e0 e7 86 12 bd a6 97 db bb 04 df bd 3d b6 bf b6 bd
       -0.035773184 -0.0067014275 0.092710525 -0.08923285
0003f0 28 10 83 be 94 93 0e 3e f1 ec 31 be df 9c df 3d
       -0.25598264 0.13923484 -0.17375542 0.10918593

net_layers.0.bias f4 [62]
000000 c7 54 95 3d 47 78 a4 bd 3f 91 86 bc 23 be 85 bd
       0.072915606 -0.080307536 -0.01642668 -0.06530406
000010 b8 ec 31 bb 55 24 11 3d 5e 14 86 3d d3 83 1a 3d
       -0.0027149152 0.03543504 0.065468535 0.037723374
000020 71 1e 17 3d e0 3a b4 3c 75 37 84 3c 1d 2e a9 bd
       0.036894266 0.02200073 0.016139725 -0.082607485
000030 44 d5 89 bd 0d bf 4d 3d 54 79 8d bd e9 8d bb bd
       -0.0673013 0.05023103 -0.06907907 -0.091579266
000040 31 7d 59 3d aa 4f b3 bd ec 1f a9 bd 5e 1e b3 bd
       0.053097907 -0.08755429 -0.08258042 -0.087460265
000050 ce db 0b bd 43 90 46 bd 81 ab 2d bd aa bd 28 bd
       -0.03414517 -0.048477422 -0.042399887 -0.041196503
000060 db 87 c4 3d 14 9f 2f 3b a1 45 7b 3d fc 3b 57 bd
       0.09596225 0.0026797699 0.0613457 -0.05254744
000070 70 1c 03 bb 50 f8 ac 3c 24 18 bd 3c 5b da 8e 3d
       -0.0020005964 0.021114498 0.0230828 0.06975242
000080 c0 74 61 3c 25 98 8a bd ba 44 9b 3d ae 80 bb bb
       0.0137607455 -0.067673005 0.07581468 -0.005722127
000090 6b 36 84 bc 1f 11 ce bd f0 51 87 bd 29 9b 8e 3d
       -0.01613923 -0.10061859 -0.06607425 0.06963188
0000a0 60 79 19 bd 1b 21 ef 3b aa 18 8f 3a 82 41 97 3d
       -0.037469268 0.0072976477 0.0010917385 0.073855415
0000b0 29 e8 76 bc 75 27 98 bd de 1a 03 3c d7 59 d4 3d
       -0.01507 -0.07429401 0.008002011 0.10368698
0000c0 d9 69 bd 3d 88 44 a2 3d dd a5 a1 3d 97 af 84 3d
       0.092487045 0.079232275 0.07892964 0.064788036
0000d0 1b bc 99 3d 95 cb 47 bd 54 cb c9 bb 55 a6 f8 bc
       0.075065814 -0.048778135 -0.006158272 -0.03035275
0000e0 d0 1a 3b 3c 4d 66 a7 3d bd 87 20 bc 1f 74 cf bd
       0.011419967 0.08173809 -0.0097979875 -0.1012957
0000f0 6b 8b 17 3c 5a 41 00 3d
       0.009249548 0.031312324

net_layers.1.weight f4 [4, 62]
000000 f5 db 0c 3f 6e c8 02 3e 08 17 3a 3e 9e e5 e5 be
       0.5502313 0.1277177 0.18172848 -0.44901747
000010 7e 8e 19 3e 72 b7 2d be 35 df 34 be b7 5d 35 3d
       0.14995763 -0.1696451 -0.17663272 0.044278827
000020 bf 53 53 be 7e 4e e6 3d 4b 9f ae 3b 69 9e af bc
       -0.20637415 0.1124544 0.005329048 -0.02143784
000030 a7 5a 16 3e 43 bf bb be 8c c2 98 be ea 58 82 3e
       0.14683019 -0.3666936 -0.29835927 0.2545846
000040 f9 d5 05 3e 87 f9 c3 bd 10 f9 40 bd f3 a6 14 be
       0.13069905 -0.09569078 -0.047112525 -0.14516811
000050 41 c7 88 be 59 19 67 be 7b c6 ef bd bb 4a ef 3c
       -0.2671452 -0.22568263 -0.11707779 0.029210439
000060 96 fe ac 3e 4f 76 08 3e 55 e9 65 3e 44 b7 d0 3d
       0.33787984 0.13326381 0.2245229 0.10191205
000070 25 92 39 be fc 10 32 3d dc 0d c6 be fb 11 82 3e
       -0.18122156 0.04347323 -0.3868245 0.25404343
000080 18 98 55 bd 95 eb 97 be 1a 68 f8 be 22 93 32 be
       -0.052147 -0.29671922 -0.48516923 -0.17438939
000090 17 f2 5c be 4f a4 d6 3c ec e9 e6 3d 8e bc 9d 3e
       -0.21576725 0.026201395 0.11275086 0.30807918
0000a0 7a 13 9d bd 90 e9 a5 3d b0 54 40 3e e9 65 3c 3b
       -0.076697305 0.08101189 0.18782306 0.0028747267
0000b0 4e f6 77 3e 40 e4 6a 3c 67 75 91 3e 3d a5 92 3e
       0.24215052 0.014336646 0.28409883 0.28641692
0000c0 9a 1e 83 bc 48 7b 75 3d f6 bf 3a be 6b 44 5b ba
       -0.016005803 0.059932023 -0.1823729 -0.0008364382
0000d0 d4 13 4a be a0 11 3f 3e 20 6e 44 3e 09 eb 63 be
       -0.19734126 0.18659067 0.19182634 -0.22257628
0000e0 54 0e a7 3e 0e 92 83 3e 56 aa a6 3e ec 88 c3 3d
       0.3262812 0.25697368 0.3255183 0.095476
0000f0 19 c8 61 3d d4 f9 80 be db 5d 0b be 1e 79 1c 3e
       0.05512247 -0.25190604 -0.13610022 0.15280578
000100 02 17 08 be 1b 2a 49 be 63 a8 af 3d b6 56 80 be
       -0.13290027 -0.19644968 0.08577039 -0.25066155
000110 86 4e 3a bd 41 f3 7c be 75 1a 22 3e 9b 17 4d 3e
       -0.045485042 -0.24702169 0.15830405 0.20028536
000120 0f a4 55 3c 45 01 01 be bd cc a6 3e 3f ea 9e bd
       0.013039603 -0.1259814 0.32578078 -0.07759523
000130 2d dd 6a bc c4 be 54 be 2d cb 9c bd c5 6a b4 3e
       -0.014334959 -0.20775896 -0.0765594 0.3523771
000140 87 97 7a 3e e4 40 85 be 18 cb 54 be 05 3a 80 be
       0.24471866 -0.2602607 -0.20780599 -0.25044265
000150 b5 ed a6 3e a1 64 98 3e fd 61 a1 3d 33 b3 df 3d
       0.3260323 0.29764274 0.07880018 0.109228514
000160 09 ce 81 be 56 8b 59 bd 72 3f a5 be 19 fe cd 3e
       -0.25352505 -0.053111397 -0.32274967 0.40232924
000170 53 e2 c6 bc 30 11 41 3e ab 83 6a be 86 fa 8d be
       -0.024277842 0.18854213 -0.2290179 -0.27730197
000180 b3 ff 9d be 17 e3 ce be a7 b8 92 3e 51 af c6 3e
       -0.30859146 -0.4040763 0.28656504 0.3880563
000190 82 e8 3b be fd 0a 82 be e8 8b 68 3e 31 e5 b0 be
       -0.18350413 -0.25399008 0.2270962 -0.3454986
0001a0 83 59 92 be e3 ae a3 3e e2 4f b5 bb 7c e0 89 3e
       -0.28583917 0.31969365 -0.0055332044 0.2692908
0001b0 dc e6 5e 3d 56 11 8d 3e e3 8a 8a 3e 24 b3 ca be
       0.054419383 0.2755229 0.27059087 -0.39589798
0001c0 e7 f8 89 3e e3 c6 d5 3e f5 cc 97 be 06 14 8d 3d
       0.2694771 0.417533 -0.29648557 0.06888585
0001d0 ed 4f 9f be 48 a5 82 3e 5d 8f a8 be a5 64 28 be
       -0.31115666 0.25516725 -0.32921878 -0.16444643
0001e0 4e ec 03 3f af 1b e3 3e fe fa 94 be ff 1f 2d 3e
       0.5153245 0.44357058 -0.29097742 0.16906737
0001f0 0d eb 2c 3f 7e 68 dc bd 6a 40 d1 3e b0 4b c0 be
       0.6754616 -0.10762118 0.40869457 -0.37557745
000200 00 15 fe 3e ad d2 10 bd 1c e7 05 3e 34 e7 1e 3c
       0.49625397 -0.035357166 0.13076442 0.009698678
000210 2a dd a4 3d bd 9d 41 3e c2 54 8d be 1a dc 9c be
       0.08049996 0.18907829 -0.27603728 -0.30636674
000220 d9 eb 78 be 68 1b ce be 81 0f 70 3c ff 16 1a bd
       -0.24308719 -0.40255284 0.014652134 -0.037619587
000230 e4 90 12 bd b6 bd 74 3e 09 f6 35 be f7 9e 59 be
       -0.03578271 0.23900494 -0.17769636 -0.21252047
000240 8a e5 4d bd fe ff 9e 3e 09 3a 1e be 44 fe 9c be
       -0.050267734 0.31054682 -0.15451826 -0.3066274
000250 fa 11 65 3c 16 d8 81 3e 16 16 1e be 14 a7 71 3e
       0.013981337 0.25360173 -0.15438113 0.23598891
000260 48 5b 64 be 6c 81 25 bd 46 fd 34 be 80 81 8a 3e
       -0.22300446 -0.04040663 -0.17674741 0.27051926
000270 ea 73 27 3e 49 14 86 be c3 3d 89 be a2 8e 4d be
       0.16352811 -0.2618735 -0.26804933 -0.20073941
000280 a3 62 30 3e 44 39 8d be c0 10 92 bb 4f 58 7b 3e
       0.17225127 -0.27582753 -0.004457563 0.24545406
000290 67 56 20 3e 11 3a a1 3e 72 fd fe bd 64 a4 a5 3d
       0.1565796 0.31489614 -0.124506846 0.08087996
0002a0 b7 99 d7 3e e5 cb d6 3d e9 27 65 3e 44 dd 74 be
       0.42109463 0.104881085 0.22378506 -0.23912531
0002b0 2b 1d 0f bd 49 f9 38 be 44 bd 8e be 01 5f c7 bd
       -0.034939926 -0.18063845 -0.27878773 -0.097349174
0002c0 61 41 3d be 1d 83 57 3e bc ef 7d 3d 83 df a1 be
       -0.18481971 0.2104611 0.061996207 -0.31615838
0002d0 fd 27 e0 bc 26 a3 ae bd c6 01 64 3d 54 af fc 3c
       -0.027362818 -0.08527212 0.055665754 0.030845322
0002e0 42 90 49 3e 16 c0 59 bd a2 6a 13 3f ac a3 82 3e
       0.19683936 -0.053161703 0.57584584 0.25515497
0002f0 c4 38 cd 3e 6f e6 f5 be b2 f0 c0 3e d5 19 e2 bb
       0.4008237 -0.4802737 0.37683636 -0.006900052
000300 b1 5d a0 3e 42 9e 9c 3e 1a 1f 0b 3d c4 1c 99 bd
       0.3132148 0.3058949 0.033965208 -0.0747619
000310 ac 04 d3 3d ac f5 c2 bc 1c 96 6c be a7 a0 a2 bc
       0.103036255 -0.023798786 -0.23104137 -0.019851996
000320 ad 6b c3 3b 73 d1 56 be f7 0b de be da e2 23 bd
       0.0059637637 -0.20978336 -0.43368503 -0.040011264
000330 56 40 a4 3e 29 d0 89 bd 6c 17 38 be 73 3d 67 be
       0.32080334 -0.067291565 -0.17977685 -0.22582035
000340 51 f1 6d 3d 0c 73 9c 3d 87 05 fc bd 77 3d 78 bb
       0.058091465 0.07639131 -0.12305742 -0.0037878433
000350 ad 95 c3 bd e1 a2 16 3f fb 62 58 3d 89 d5 94 bd
       -0.09550033 0.58842283 0.05282877 -0.07267291
000360 2e ba 04 be 7d 04 88 be 0c 32 df 3d 74 96 ff 3d
       -0.12961647 -0.26565924 0.108982176 0.124798685
000370 da 3a 5c be df 38 a4 3e f9 2f 6c be 1a ce 1b 3e
       -0.21506825 0.3207464 -0.23065175 0.1521534
000380 20 db 9d bc 61 8a 74 be 8a 78 38 be 03 03 25 3e
       -0.019269526 -0.23880912 -0.18014732 0.1611443
000390 1f 77 b8 3d e2 81 47 bd 66 7a bb 3e ad f6 4f be
       0.090070955 -0.04870785 0.3661682 -0.20308943
0003a0 ea b5 95 3e a7 57 20 be e3 d8 29 3e c0 75 11 3e
       0.29240352 -0.15658437 0.16586642 0.14205074
0003b0 e9 f2 8b be ee 53 12 be a7 49 08 be c2 ed 97 3d
       -0.27333763 -0.14289829 -0.13309346 0.074183956
0003c0 ff 1d 33 be ce ba 89 3e 20 d8 80 3e 3c dc 85 bd
       -0.17491911 0.26900333 0.2516489 -0.06536147
0003d0 73 95 80 3d 18 56 db 3d c1 bd dc bc ae bb 30 be
       0.06278505 0.107097805 -0.02694595 -0.17259094

net_layers.1.bias f4 [4]
000000 2f 74 84 bd 44 23 f9 3d 4c 24 b0 bc 62 50 a0 3d
       -0.06467473 0.121649295 -0.021501683 0.07827832
