dialogue_manager/model/weights/trained_modelLIST_SAMPLESAMPLEDCOMPOSITE0.0.pt (torch_old, 23982 bytes, 4 tensors)

net_layers.0.weight f4 [62, 88]
0.14486654 -0.005657721 0.05929552 -0.17797329 0.15727705 0.066494785 0.1648466 -0.086487934
-0.17724666 0.08000807 0.100514844 0.1696872 -0.08989914 -0.27610445 0.1651462 -0.14554237
0.113065094 -0.09584505 -0.1459859 -0.166709 0.01589065 0.07112903 -0.02423886 -0.20833246
0.08034144 -0.042813044 0.032268662 0.17116699 0.019964837 -0.21531236 -0.100093625 -0.0064795874
0.15368511 0.19014123 -0.19333182 -0.051644016 -0.2231802 -0.11102933 -0.05640012 -0.05966765
-0.1314488 0.17727445 -0.17321943 -0.1763358 -0.09350186 -0.1418639 0.101825476 0.06771126
0.10976595 0.07791151 0.12296829 -0.058204312 -0.1773409 0.07587736 -0.17237246 -0.05221121
-0.1930604 0.08699201 0.12336813 -0.1000129 0.07954264 -0.036727313 -0.00060432305 0.18956769
0.1584542 0.2122924 -0.066554934 0.045019377 -0.15151502 0.30540204 0.014753464 -0.030746609
-0.107468225 0.110802956 0.13864072 0.12979418 -0.05901991 -0.14932904 0.026839864 0.0811005
-0.047981717 -0.059736583 -0.08369014 0.16868922 -0.039760113 0.043840036 -0.06927173 -0.034753896
0.00029947038 -0.054435134 -0.11319475 0.05840717 -0.23889948 0.1415529 -0.05320445 0.03446791
-0.06277077 0.011043061 -0.17216973 0.03874247 0.024652282 0.060803592 0.11117965 -0.058912214
0.1115908 -0.21817505 0.11660789 -0.063973986 -0.0072769974 -0.1709547 0.11321948 -0.12444907
-0.24939989 0.11335058 0.2316621 -0.19592483 -0.06784199 -0.09173787 0.12963772 -0.033880934
0.031608257 -0.05352739 -0.14317568 -0.2695603 0.1223898 -0.02882112 0.15200904 0.039989546
-0.18856044 -0.03021673 -0.112018615 0.0876109 -0.1904069 0.0037082103 0.059230927 0.17175667
0.100413986 0.14158829 0.14077103 0.032397255 0.20583922 0.100987114 -0.010642477 -0.032679588
-0.034361176 0.08905537 0.050995376 0.11066958 -0.15719166 0.17717567 -0.054059133 0.06473333
0.18816708 -0.16047294 0.045201883 0.1155749 -0.070760325 0.1720574 0.17191823 0.22893277
-0.03308681 0.06267659 0.0135456 -0.17030264 -0.1144015 0.20173658 0.08333988 0.04107492
-0.040545415 0.13492018 0.026946396 0.13251922 0.20196378 0.0486732 -0.1553016 0.14750145
0.18013655 0.15506282 -0.124941416 -0.042678904 0.068908334 0.12400874 0.115953796 -0.036487404
-0.13961047 0.10584584 0.12189618 -0.17668465 0.1740261 -0.24665214 -0.10436525 -0.1137113
0.14910951 -0.13779946 0.00893618 -0.035436314 -0.15836945 0.068250224 0.05169616 -0.050652955
0.00023580791 0.14749247 -0.20517902 -0.17681046 0.010276681 0.025950009 0.012775487 0.023955539
-0.14576644 -0.16632839 -0.086740896 -0.09256511 0.045990903 -0.1456075 -0.010463033 0.10834915
-0.22604074 -0.13567878 -0.051162813 -0.105581254 0.12802312 0.08599112 -0.19407344 0.088550396
0.15514559 -0.021012852 0.0903997 0.23677343 0.16398245 -0.12494741 0.123126306 0.2409479
0.08927552 0.098777324 -0.14724402 0.106176525 0.14828582 0.09671636 -0.083738014 -0.025324354
-0.050246764 -0.15329659 -0.08721211 -0.08944942 0.090597145 0.043048415 0.13479781 -0.05459881
0.20199676 0.051665716 -0.09244612 0.1531122 -0.00045235755 0.10639366 -0.033774693 0.20702024
00000000: e557 143e 6764 b9bb dcdf 723d a13e 36be
00000010: 3c0d 213e 6b2e 883d 8ccd 283e 9620 b1bd
00000020: 2680 35be 45db a33d bada cd3d 7bc2 2d3e
00000030: 0a1d b8bd 905d 8dbe 161c 293e 0f09 15be
00000040: ac8e e73d 694a c4bd 547d 15be c4b5 2abe
00000050: 1c2d 823c 19ac 913d 9390 c6bc 1b55 55be
00000060: 0e8a a43d bb5c 2fbd 252c 043d 6646 2f3e
00000070: 4c8d a33c d87a 5cbe e3fd ccbd b852 d4bb
00000080: a15f 1d3e 62b4 423e c7f8 45be ad88 53bd
00000090: 5a89 64be 5863 e3bd d003 67bd 1166 74bd
000000a0: 849a 06be 6f87 353e 6f60 31be 5f91 34be
000000b0: e77d bfbd c544 11be e089 d03d 33ac 8a3d
000000c0: f8cc e03d 1290 9f3d ccd6 fb3d a567 6ebd
000000d0: da98 35be 9765 9b3d 6882 30be 6cdb 55bd
000000e0: a0b1 45be de28 b23d 6ea8 fc3d 90d3 ccbd
000000f0: 40e7 a23d 616f 16bd 6f6b 1eba 081e 423e
00000100: d141 223e 2e63 593e f44d 88bd 3d66 383d
00000110: c126 1bbe a85d 9c3e 83b8 713c 50e0 fbbc
00000120: 4d18 dcbd a9ec e23d d5f7 0d3e c4e8 043e
00000130: dcbe 71bd b6e9 18be 46df db3c 0518 a63d
00000140: 7a88 44bd 59ae 74bd bc65 abbd debc 2c3e
00000150: 80db 22bd 9c91 333d 56de 8dbd 1a5a 0ebd
00000160: 3c02 9d39 60f7 5ebd a6d2 e7bd 5b3c 6f3d
00000170: 11a2 74be 3ef3 103e e9ec 59bd 392e 0d3d
00000180: f68d 80bd f4ed 343c 434d 30be 6db0 1e3d
00000190: 95f3 c93c 300d 793d 28b2 e33d ef4d 71bd
000001a0: b889 e43d 4869 5fbe 1ed0 ee3d cb04 83bd
000001b0: e173 eebb c00e 2fbe 9ddf e73d 27df febd
000001c0: af62 7fbe 5924 e83d d438 6d3e 85a0 48be
000001d0: bef0 8abd 10e1 bbbd c0bf 043e bcc6 0abd
000001e0: a977 013d 893f 5bbd a59c 12be cf03 8abe
000001f0: 81a7 fa3d 451a ecbc 42a8 1b3e 14cc 233d
00000200: fd15 41be 1389 f7bc 046a e5bd 586d b33d
00000210: 07fa 42be 7205 733b 219c 723d fbe0 2f3e
00000220: d9a5 cd3d 85fc 103e 4826 103e fcb2 043d
00000230: 84c7 523e 55d2 ce3d c95d 2ebc 08db 05bd
00000240: 4ebe 0cbd a962 b63d 87e0 503d bca6 e23d
00000250: daf6 20be 8a6d 353e 1c6d 5dbd e892 843d
00000260: dfae 403e 0553 24be 9c25 393d 88b2 ec3d
00000270: caea 90bd d12f 303e 550b 303e 5a6d 6a3e
00000280: 0986 07bd 965c 803d 5dee 5d3c d163 2ebe
00000290: 554b eabd 0994 4e3e 19ae aa3d 2d3e 283d
000002a0: f312 26bd 8428 0a3e b0be dc3c 1eb3 073e
000002b0: 98cf 4e3e 8d5d 473d 6207 1fbe 9f0a 173e
000002c0: b775 383e cac8 1e3e 49e1 ffbd 13d0 2ebd
000002d0: d01f 8d3d 4bf8 fd3d 2f79 ed3d d173 15bd
000002e0: 0cf6 0ebe b4c5 d83d b4a4 f93d d2ec 34be
000002f0: e633 323e 6192 7cbe 73bd d5bd 78e1 e8bd
00000300: 2ab0 183e 4d1b 0dbe 0e69 123c ab25 11bd
00000310: 9a2b 22be c6c6 8b3d 5abf 533d 7979 4fbd
00000320: 3443 7739 4408 173e 731a 52be cd0d 35be
00000330: 865f 283c 1d95 d43c 4750 513c 683e c43c
00000340: cc43 15be fd51 2abe 36a5 b1bd c792 bdbd
00000350: f560 3c3d 221a 15be 246d 2bbc 29e6 dd3d
00000360: 3977 67be 61ef 0abe 1990 51bd fc3a d8bd
00000370: 7e18 033e 1d1c b03d 30bb 46be e959 b53d
00000380: 7cde 1e3e 2523 acbc 7a23 b93d bc74 723e
00000390: 04eb 273e 6de4 ffbd a529 fc3d 0cbb 763e
000003a0: 15d6 b63d c44b ca3d 23c7 16be 1473 d93d
000003b0: 3dd8 173e 3a13 c63d d67e abbd 0575 cfbc
000003c0: 8dcf 4dbd c8f9 1cbe 439c b2bd 4231 b7bd
000003d0: ff8a b93d 8953 303d 7008 0a3e 00a3 5fbd
000003e0: 3dd8 4e3e 6e9f 533d 6454 bdbd 72c9 1c3e
000003f0: 672a edb9 ebe4 d93d 5557 0abd 1dfd 533e

net_layers.0.bias f4 [62]
0.0782168 -0.0066527436 0.043458648 -0.0012805794 0.120566025 0.06037367 -0.098337896 -0.04539636
0.034496732 -0.01860229 0.035761043 0.12112918 -0.048021346 0.07695717 0.071449205 0.0016872316
0.005867487 -0.04423649 0.00015821103 -0.09750482 0.054681864 0.056350894 -0.07341581 0.072877295
0.060092676 0.04818801 -0.017840466 -0.033986963 0.08132614 0.019274816 0.0792915 0.05248244
0.08409341 0.051692683 -0.031641763 -0.063142195 0.0061085206 0.07482686 0.01153192 -0.098924026
-0.013078458 -0.051971316 0.08421635 -0.0034957237 0.09947516 -0.024693435 0.045558285 0.044228055
-0.0205736 0.043705545 -0.046342496 0.061052993 -0.10123617 -0.027556572 0.03403702 -0.058291983
-0.022947805 0.07485134 -0.039015222 0.018847331 -0.031189784 0.10752658
00000000: 2130 a03d 42ff d9bb b201 323d 1dd9 a7ba
00000010: 52eb f63d 624a 773d 6165 c9bd 89f1 39bd
00000020: 724c 0d3d d463 98bc 2c7a 123d 9312 f83d
00000030: 08b2 44bd b99b 9d3d f653 923d 1926 dd3a
00000040: 0c44 c03b 5231 35bd 73e5 2539 9bb0 c7bd
00000050: 17fa 5f3d 32d0 663d 075b 96bd b140 953d
00000060: bd23 763d ca60 453d 2b26 92bc ea35 0bbd
00000070: 528e a63d 38e6 9d3c 9563 a23d d4f7 563d
00000080: 2a39 ac3d b5bb 533d cb9a 01bd b250 81bd
00000090: fc29 c83b d33e 993d 61f0 3c3c ae98 cabd
000000a0: 0747 56bc e0df 54bd 9f79 ac3d 8318 65bb
000000b0: a2b9 cb3d e349 cabc 539b 3a3d 7a28 353d
000000c0: f789 a8bc 9604 333d a1d1 3dbd b412 7a3d
000000d0: e954 cfbd 52be e1bc 676a 0b3d 93c3 6ebd
000000e0: 09fd bbbc a94b 993d 6dce 1fbd b865 9a3c
000000f0: b881 ffbc e536 dc3d

net_layers.1.weight f4 [4, 62]
-0.022048486 0.27921638 -0.17619613 0.058333438 0.25624964 0.002879272 -0.014538224 -0.10556806
0.0067770616 0.24227141 -0.086332805 -0.1528013 -0.1822895 -0.05033559 0.24088939 0.23759842
0.18575078 0.28729457 -0.14489864 -0.29850867 0.18504481 0.018441098 0.19612072 0.2879208
0.34682122 0.053255387 -0.27814075 0.11052093 0.25506583 0.19202188 0.0053368257 -0.11413656
0.114003114 0.07749486 0.010136752 -0.016646268 -0.10656784 -0.015501744 -0.437686 -0.20261423
0.17405312 0.287482 0.17174323 -0.12623408 -0.18031746 0.17275272 -0.09300531 -0.06321785
-0.1614648 0.041015252 0.031425096 0.031266578 -0.2285102 0.15218617 0.0882894 -0.12869142
0.24486025 0.39845738 -0.13042477 0.04390168 -0.4409669 0.13105729 0.2255925 0.28923735
0.23186329 -0.21461353 0.03900977 0.29859218 -0.29946598 -0.08629492 0.24136811 0.011371703
-0.21461391 0.24827033 -0.08944948 -0.2978903 0.101347804 0.09217918 0.22656886 0.2141588
0.40669978 0.11772615 -0.20530175 0.24975643 0.3495478 0.4276962 -0.079289876 0.056836836
0.060167674 0.11145091 0.2824838 -0.120985135 -0.2190852 0.16034304 -0.21839377 0.044591747
0.23418206 0.20130016 -0.25084612 0.22706844 -0.007695583 -0.12182757 0.435345 -0.1169186
0.10571953 -0.27452424 -0.052916758 0.13457236 0.2949485 -0.30652708 -0.22603965 -0.29374802
0.12926655 -0.26047456 0.038604744 0.03552436 0.13707015 -0.43105328 -0.31371602 0.14611422
0.210477 0.11846915 -0.09155059 -0.14608979 0.017924882 0.069614485 -0.11563817 -0.06158126
0.28271994 -0.25023112 -0.2765914 -0.11760635 -0.15160826 0.27946943 -0.043274175 0.007208768
0.34956518 0.09724109 -0.1855651 0.1987875 -0.22175288 0.18656123 0.3383131 0.06972473
-0.17792867 -0.0072847083 -0.30425644 -0.008583232 0.2811737 -0.34348753 0.051652905 -0.050016046
0.16519932 0.16543594 0.2487732 -0.11538466 -0.04985858 0.16829185 0.057136785 0.06537358
0.05379096 -0.13487297 -0.24629553 0.20562589 0.22746046 0.521065 -0.052283984 -0.23349524
0.39110738 0.20172799 0.30192575 -0.122493766 -0.32571915 0.3084738 -0.25327057 0.17126612
-0.22393359 -0.01900304 -0.13792518 0.080669135 -0.08927729 -0.24968462 -0.09383528 0.17518286
-0.4434474 -0.14602193 0.0042722197 0.2585299 0.30337834 0.1513193 0.1630892 -0.16629101
0.035645347 -0.15692562 -0.061464783 0.13718744 -0.21019924 0.040667392 0.061355885 -0.033858288
0.075726055 -0.0041925297 0.16444825 0.2263718 0.054714248 0.07261828 -0.044642467 -0.18000157
0.05921165 -0.27178636 0.47463995 -0.4128532 -0.3996903 0.17024007 -0.2637359 -0.032807376
0.18416156 0.05722923 0.12074222 0.05931658 0.1487331 0.028807282 0.24828127 0.03846944
-0.4634498 -0.028956095 0.2773424 0.11120019 0.0067086886 -0.2210955 -0.11321832 -0.042419955
0.093824156 -0.19380935 -0.3811088 -0.12458959 0.013171725 0.0050499476 -0.14260367 -0.26373574
-0.10107775 0.17937955 0.065672986 0.021922212 0.16084816 -0.006694438 -0.451781 0.30692604
00000000: 079f b4bc 73f5 8e3e c26c 34be 0bef 6e3d
00000010: 2733 833e 2bb2 3c3b bb31 6ebc 1134 d8bd
00000020: 1d12 de3b ff15 783e 41cf b0bd f277 1cbe
00000030: 19aa 3abe b12c 4ebd b5ab 763e 004d 733e
00000040: 7435 3e3e 4618 933e 4f60 14be 21d6 98be
00000050: 637c 3d3e c911 973c dfd3 483e 5b6a 933e
00000060: 8d92 b13e 5222 5a3d 7768 8ebe cc58 e23d
00000070: fd97 823e 62a1 443e 8ae0 ae3b 6ec0 e9bd
00000080: 777a e93d a0b5 9e3d 9f14 263c c15d 88bc
00000090: 3d40 dabd 07fb 7dbc 6118 e0be 1b7a 4fbe
000000a0: fb3a 323e d730 933e 75dd 2f3e 8243 01be
000000b0: 24a5 38be 17e6 303e 9179 bebd 5c78 81bd
000000c0: 0757 25be 9cff 273d 9ab7 003d 6211 003d
000000d0: 94fe 69be b1d6 1b3e 13d1 b43d afc7 03be
000000e0: a5bc 7a3e 9b02 cc3e 128e 05be 3fd2 333d
000000f0: 6ac6 e1be e233 063e b801 673e eb16 943e
00000100: 926d 6d3e a6c3 5bbe b5c8 1f3d 13e1 983e
00000110: 9b53 99be 64bb b0bd 3429 773e 6150 3a3c
00000120: c0c3 5bbe 943a 7e3e 4a31 b7bd 1485 98be
00000130: 708f cf3d 70c8 bc3d ab01 683e 724c 5b3e
00000140: f43a d03e 681a f13d 9f3a 52be 26c0 7f3e
00000150: eef7 b23e fffa da3e bb62 a2bd becd 683d
00000160: 6172 763d 6040 e43d b7a1 903e 0ec7 f7bd
00000170: df57 60be f730 243e 9ea2 5fbe d6a5 363d
00000180: 6ccd 6f3e a121 4e3e e76e 80be a184 683e
00000190: 3b2b fcbb bc80 f9bd 8ae5 de3e 0573 efbd
000001a0: 7b83 d83d 718e 8cbe 3ebf 58bd 56cd 093e
000001b0: 7d03 973e 1ef1 9cbe f076 67be 2466 96be
000001c0: 735e 043e ec5c 85be 0220 1e3d fe81 113d
000001d0: 1e5c 0c3e 04b3 dcbe 639f a0be f79e 153e
000001e0: 4887 573e f49f f23d e07e bbbd 9098 15be
000001f0: 34d7 923c 0a92 8e3d b4d3 ecbd a23c 7cbd
00000200: abc0 903e 4b1e 80be 639d 8dbe 99db f0bd
00000210: 323f 1bbe 9e16 8f3e 4340 31bd 8737 ec3b
00000220: 35fa b23e 5626 c73d c704 3ebe f38e 4b3e
00000230: 3013 63be e809 3f3e 6037 ad3e d7cb 8e3d
00000240: ef32 36be 90b4 eebb 80c7 9bbe afa0 0cbc
00000250: 00f6 8f3e 99dd afbe ff91 533d a0dd 4cbd
00000260: 032a 293e 0a68 293e 67be 7e3e cb4e ecbd
00000270: 8338 4cbd b354 2c3e 4308 6a3d 95e2 853d
00000280: e953 5c3d 241c 0abe e534 7cbe 988f 523e
00000290: 65eb 683e 8464 053f bb27 56bd 6019 6fbe
000002a0: 3a3f c83e c891 4e3e 0396 9a3e 03de fabd
000002b0: a9c4 a6be 47f0 9d3e aeac 81be 6360 2f3e
000002c0: d94e 65be 43ac 9bbc 423c 0dbe dc35 a53d
000002d0: 03d7 b6bd 53ad 7fbe b62c c0bd 2363 333e
000002e0: 8a0b e3be c686 15be fafd 8b3b 085e 843e
000002f0: 6854 9b3e 72f3 1a3e db00 273e 3148 2abe
00000300: db00 123d 1cb1 20be 7fc2 7bbd dd7a 0c3e
00000310: 783e 57be da92 263d 4f50 7b3d fdae 0abd
00000320: 4316 9b3d 7d61 89bb 1f65 283e 02ce 673e
00000330: 0c1c 603d e5b8 943d 05db 36bd 5552 38be
00000340: ea87 723d 9527 8bbe 0204 f33e 7f61 d3be
00000350: 35a4 ccbe 6a53 2e3e 6408 87be 0761 06bd
00000360: d994 3c3e 3269 6a3d b247 f73d f1f5 723d
00000370: 7d4d 183e 40fd eb3c 723d 7e3e 2292 1d3d
00000380: 4b49 edbe 5535 edbc d3ff 8d3e edbc e33d
00000390: 8fd4 db3b dc66 62be 02df e7bd 8cc0 2dbd
000003a0: e126 c03d f575 46be b120 c3be d428 ffbd
000003b0: 38ce 573c 087a a53b b206 12be 5f08 87be
000003c0: da01 cfbd 46af 373e 8f7f 863d 3696 b33c
000003d0: 61b5 243e 045d dbbb d74f e7be 6925 9d3e

net_layers.1.bias f4 [4]
0.025842374 -0.016673055 -0.05667531 0.057376873
00000000: 63b3 d33c ee95 88bc 5f24 68bd 0304 6b3d
