dialogue_manager/model/weights/trained_model0.6.pt (torch_old, 2977 bytes, 2 tensors)

net_layers.0.weight f4 [6, 99]
0	0x3d972bc6	0.07381396
1	0xbd600252	-0.054689713
2	0xbd814115	-0.063112415
3	0x3ce03824	0.02737052
4	0xbd745a7e	-0.059656613
5	0x3dc8f235	0.09811822
6	0x3dad0099	0.084473796
7	0xbcef53b0	-0.02921471
8	0xbc9c0de8	-0.0190496
9	0x3d13a52f	0.036046203
10	0x3da804ae	0.082040176
11	0x3d9eddd7	0.07757156
12	0xbc7f79d4	-0.015593011
13	0x3dad36cb	0.084577166
14	0x3da6f536	0.08152239
15	0xbd970cc8	-0.07375485
16	0x3dda7e1e	0.10668586
17	0x3dbfb22b	0.09360155
18	0x3cd74da5	0.026282141
19	0xbbe8f030	-0.0071087107
20	0x3ce2815c	0.027649574
21	0xbc028958	-0.007967316
22	0xbcc058d6	-0.02347986
23	0x3cb350a3	0.021889037
24	0x3d6b70e4	0.057480708
25	0x3d1981fa	0.03747747
26	0xbbaec0a4	-0.005333023
27	0xbd835f56	-0.06414668
28	0xbd430f31	-0.04762191
29	0xbdbbdfb0	-0.091735244
30	0xbd731c5b	-0.059353214
31	0xbd2aa948	-0.041665345
32	0x3d9d3fa0	0.07678151
33	0xbda66694	-0.08125034
34	0xbda194b0	-0.07889688
35	0xbcacf14c	-0.021111153
36	0xbd5ad9ab	-0.05343024
37	0xbcaa39c4	-0.020779498
38	0x3d45826c	0.048220083
39	0x3cebe8b9	0.028797494
40	0x3d40a101	0.047028545
41	0x3d4bd682	0.049765117
42	0xbda051f6	-0.07828133
43	0xbbaf8ac0	-0.0053571165
44	0x3d0a1142	0.033707865
45	0x3c46a1e1	0.012123556
46	0x3d6b4d78	0.057446927
47	0xbd676580	-0.056493282
48	0x3dc0f7de	0.09422277
49	0xbcb5c1d0	-0.022187144
50	0x3d97ab6a	0.074057415
51	0x3dcbd8f0	0.09953487
52	0xbd6687a6	-0.05628171
53	0x3d4dc4d2	0.05023653
54	0xbc8da7e9	-0.01729198
55	0xbd837c22	-0.06420161
56	0x3cb2ce2b	0.021826824
57	0x3d83ec6e	0.0644158
58	0x3c8a2904	0.01686526
59	0x3c11d7b4	0.008901525
60	0xbc53ef0b	-0.01293541
61	0x3d2132b6	0.039355002
62	0x3c901de7	0.017592384
63	0xbca4bc2d	-0.02010926
64	0xbd8aa206	-0.06769185
65	0x3ca89ac8	0.020581618
66	0xbd744468	-0.05963555
67	0xbcb0cf30	-0.02158317
68	0xbc5e7fb3	-0.013580251
69	0xbcd824d1	-0.026384743
70	0x3cfa622a	0.030564386
71	0xbdb64293	-0.08899417
72	0x3db6e015	0.08929459
73	0xbd1cce7b	-0.038282853
74	0x3c16cbe8	0.0092038885
75	0x3d0a4d72	0.033765264
76	0x3d2fc668	0.042913824
77	0xbbdc8ba0	-0.006730512
78	0xbb644127	-0.0034828873
79	0x3da98d47	0.082789
80	0x3da0c1a4	0.07849434
81	0xbd8f7743	-0.07005169
82	0x3b06508e	0.0020494792
83	0x3daaebc1	0.08345748
84	0xbd5956b3	-0.0530612
85	0x3d9aac45	0.07552389
86	0xbdac29e2	-0.08406426
87	0xbd198163	-0.03747691
88	0x3ccd6192	0.02507094
89	0x3d44248a	0.04788641
90	0x3d72a9bf	0.059243914
91	0x3db7370f	0.089460485
92	0xbcec8115	-0.028870145
93	0xbd94902b	-0.0725406
94	0xbd73592e	-0.05941122
95	0xbda4adb1	-0.080409415
96	0xbdade886	-0.08491616
97	0x3bf0c990	0.007348247
98	0x3db6b1b5	0.08920614
99	0x3dd363c7	0.103217654
100	0x3db7c0c9	0.08972318
101	0x3d3fb1c7	0.0468004
102	0xbdcd9dcb	-0.10039862
103	0x3c9a71e6	0.01885314
104	0x3c8cae38	0.017172918
105	0x3cb4b124	0.022057123
106	0xbd9c8ca9	-0.07644016
107	0xbd94f841	-0.07273913
108	0xbd8e1c03	-0.069389366
109	0xbd2a8223	-0.041628014
110	0x3d4e70c2	0.050400503
111	0xbccd2ec5	-0.025046716
112	0x3b0a1b40	0.0021073371
113	0x3da30088	0.07959086
114	0xbd94bfb8	-0.0726313
115	0x3d3906b7	0.04517242
116	0x3da49755	0.08036677
117	0xbd619c20	-0.055080533
118	0x3d6ac5c2	0.057317503
119	0xbc063e38	-0.008193545
120	0x3d732341	0.059359793
121	0x3d7ac292	0.061220713
122	0x3dbdfba1	0.0927651
123	0xbccc6c29	-0.024953919
124	0xbd9e1c72	-0.07720269
125	0xbd97f66d	-0.07420049
126	0x3c52db37	0.012869648
127	0xbd2ff02b	-0.04295365
128	0xbdbb06ca	-0.09132154
129	0x3d91653e	0.070993885
130	0x3d5d3f76	0.0540156
131	0xbdbc48b3	-0.09193554
132	0x3d3b69e2	0.045755275
133	0x3c17ae35	0.009257843
134	0x3c478f08	0.012180097
135	0x3d447df0	0.047971666
136	0xbd99acf8	-0.07503694
137	0xb9c297bc	-0.00037115614
138	0x3d9b4afa	0.0758266
139	0xbd8a44f9	-0.06751437
140	0xbd6460d5	-0.05575641
141	0x3c94d6c7	0.01816882
142	0x3d7af51a	0.061268903
143	0xbd9c29e0	-0.076251745
144	0xbd8b0701	-0.06788445
145	0xbd7af7d0	-0.06127149
146	0xbcf07c98	-0.029356286
147	0x3dc66a29	0.09688217
148	0xbdb5a608	-0.088695586
149	0x3d9322bf	0.07184362
150	0xbdc0e5a1	-0.09418798
151	0xba13b807	-0.0005635027
152	0xbcec813c	-0.028870218
153	0x3aa32ce3	0.001244929
154	0x3c5596b0	0.013036415
155	0x3dbd2011	0.09234632
156	0xbd847d56	-0.064692184
157	0x3db8b629	0.09019119
158	0xbaee2026	-0.001816754
159	0xbcffc552	-0.03122202
160	0x3d5832ae	0.052782707
161	0x3cfdf1b1	0.030999037
162	0x3d5c7a8f	0.05382782
163	0xbd3c0ece	-0.045912556
164	0x3d05106e	0.03248637
165	0xbc9fa8cf	-0.019489674
166	0x3bb2a1d0	0.0054514185
167	0xba2da13d	-0.00066234526
168	0x393bdb7e	0.00017915477
169	0xbca2c666	-0.019869994
170	0x3d642292	0.05569703
171	0x3a731e10	0.0009274194
172	0xbda85eb6	-0.0822119
173	0x3d09be3d	0.03362869
174	0x3d4f070b	0.050543826
175	0xbd97db9d	-0.07414935
176	0x3dc5ecbd	0.09664295
177	0xbdb84e80	-0.08999348
178	0x3d3921c2	0.04519821
179	0x3d85ff01	0.06542779
180	0xbd6b930a	-0.057513274
181	0xbb7e1409	-0.0038769266
182	0xbbedb0e0	-0.007253751
183	0x3db1101d	0.086456515
184	0x3d085f82	0.03329421
185	0xbda3c98f	-0.079974286
186	0xbd8005ef	-0.06251132
187	0xbd4a2e9e	-0.049360864
188	0xbc26ca50	-0.010180071
189	0x3c8c1151	0.0170981
190	0x3cf2957c	0.029612295
191	0x3d6a4b2a	0.05720059
192	0xbb88c150	-0.0041734353
193	0xbdabfadc	-0.08397457
194	0x3d002a6a	0.03129045
195	0x3d895999	0.067065425
196	0xbd9e2bcc	-0.07723197
197	0xbc9b3fc4	-0.018951304
198	0xbce19867	-0.027538491
199	0xbc271802	-0.010198595
200	0x3dc8908c	0.09793195
201	0xbcc42cb4	-0.023947097
202	0x3c104d75	0.00880753
203	0x3dab3c49	0.08361108
204	0x3dba7fbd	0.091063954
205	0x3d3cd75e	0.046103828
206	0x3dccdb81	0.100028045
207	0xbd125967	-0.035729792
208	0x3ca987cd	0.020694638
209	0x3dc94ba1	0.09828878
210	0xbc795462	-0.015217872
211	0x3d58784e	0.052849106
212	0x3dcd8ecd	0.10037003
213	0x3b957a11	0.0045616706
214	0x3dd75738	0.105146825
215	0xbd44acaa	-0.048016228
216	0x3e0243d9	0.12721194
217	0xbceb2e58	-0.028708622
218	0x3d39d02e	0.04536455
219	0x3d11a19c	0.035554513
220	0xbd1b66bf	-0.037939783
221	0xbd8a3532	-0.067484275
222	0xbd82e554	-0.06391397
223	0xbda2a007	-0.07940679
224	0x3bb67643	0.005568297
225	0xbce98b40	-0.028508782
226	0xbca410cd	-0.020027542
227	0x39085c00	0.00013004243
228	0x3d6b5a53	0.057459187
229	0xbd37020a	-0.04467968
230	0xbd8e23dd	-0.06940434
231	0x3dd547c5	0.104140796
232	0x3b86a1e6	0.0041086553
233	0x3d95e27b	0.07318588
234	0x3db9c76b	0.09071239
235	0xbd4d04bf	-0.050053354
236	0xbd8e338e	-0.06943427
237	0xbd88dbeb	-0.06682571
238	0x3ccde528	0.025133684
239	0xbd834f0c	-0.06411561
240	0x3aea7c39	0.0017889804
241	0xbd9055ca	-0.07047613
242	0x3daafcd1	0.08349002
243	0xbd287cbb	-0.041134577
244	0x3ddb47ba	0.1070704
245	0x3cf3a5c7	0.029742135
246	0x3c9aa6f5	0.01887844
247	0xbd88cec1	-0.0668006
248	0xbd89d6c1	-0.06730414
249	0xbdb8c54d	-0.09022007
250	0x3d6b63c2	0.057468183
251	0x3dbbb679	0.09165663
252	0xbdab4a96	-0.083638355
253	0xbd99275c	-0.0747821
254	0xbc229d29	-0.009925165
255	0x3dc02ad5	0.093831696

net_layers.0.bias f4 [6]
0	0x3da73d39	0.08165974
1	0x3da1cdd0	0.07900584
2	0x3db59565	0.08866385
3	0x3dcf42dc	0.10120174
4	0x3da98349	0.08276994
5	0x3d964623	0.07337596
