dialogue_manager/model/weights/trained_modelLIST_SAMPLEMODELRGC0.0MISS.pt (torch_old, 23908 bytes, 4 tensors)

net_layers.0.weight f4 [62, 88]
0	0x3dabd384	0.08389953
1	0x3e20d41f	0.15705918
2	0x3e1cc67a	0.15310088
3	0xbe2b5243	-0.16730599
4	0x3e1a90be	0.15094277
5	0x3e1155c6	0.14192876
6	0xbddc477e	-0.107558236
7	0xbde929a3	-0.11384895
8	0x3e4cb1ff	0.19989775
9	0x3d9d6b32	0.076864615
10	0xbe14becc	-0.14525908
11	0x3e61ccc1	0.22050764
12	0x3dbc5151	0.091951974
13	0x3e00d5fc	0.12581629
14	0xbe373a33	-0.17893295
15	0x3c899676	0.016795378
16	0x3e4f2423	0.20228629
17	0x3e15993a	0.14609233
18	0x3d446e70	0.047956884
19	0x3e53a2ea	0.20667616
20	0xbe16c6b2	-0.14724234
21	0x3e2feadc	0.17179435
22	0x3dde1903	0.10844614
23	0x3c2ace03	0.010425094
24	0x3e1b294c	0.15152472
25	0x3e0cfd0e	0.13768408
26	0x3d190dc8	0.03736666
27	0x3e1ace2f	0.15117715
28	0xbdff2ab0	-0.12459314
29	0x3d637432	0.055530734
30	0xbe105f27	-0.14098798
31	0x3d96b318	0.07358378
32	0xbd4164b0	-0.047215164
33	0x3dbb6958	0.09150952
34	0xbe521df8	-0.20519245
35	0x3e013cf6	0.12620911
36	0xbccc0459	-0.024904417
37	0x3d8d76c2	0.06907417
38	0x3c6bd49e	0.014393954
39	0xbdd78717	-0.10523813
40	0xbdb43436	-0.08799021
41	0xbd1f8f61	-0.038955096
42	0xbd48fc12	-0.049068518
43	0x3dc81c3c	0.0977101
44	0x3e1233b1	0.14277531
45	0x3d54ce1a	0.051954366
46	0x3e1d1cbd	0.15342994
47	0xbc84bef2	-0.016204331
48	0xbe229f2b	-0.1588103
49	0xbc48e948	-0.01226265
50	0xbd85a162	-0.06524922
51	0x3e241709	0.16024412
52	0x3d97fbcc	0.07421073
53	0xbe0bafea	-0.13641325
54	0xbe3378a6	-0.17526492
55	0x3c39e821	0.011346848
56	0x3de9cab7	0.11415618
57	0xbe356e27	-0.17717801
58	0x3e3aa75a	0.18227902
59	0xbe26e499	-0.1629814
60	0xbe4deafe	-0.20109174
61	0xbdb13824	-0.08653286
62	0xbe3b1858	-0.18271005
63	0x3e518a8a	0.20463005
64	0x3dfe9a62	0.1243179
65	0xbe2a44ff	-0.16627882
66	0x3ca9d55d	0.020731622
67	0xbdbcef4c	-0.0922533
68	0x3e575063	0.21026759
69	0xbe2bd788	-0.16781437
70	0xbd90375b	-0.07041808
71	0x3d91fe9a	0.071286395
72	0xbc335774	-0.010946143
73	0xbe4b374a	-0.1984531
74	0xbe165164	-0.14679486
75	0xbdd0f888	-0.102036536
76	0xbe121390	-0.14265275
77	0xb9a5fa6c	-0.0003165783
78	0xbdf76b45	-0.12081007
79	0xbe096c0c	-0.13420123
80	0x3e0ec80f	0.13943504
81	0x3dc3c585	0.09559158
82	0x3e065583	0.13118558
83	0xbdd6a561	-0.10480762
84	0x3dc40634	0.09571496
85	0xbe35afeb	-0.17742889
86	0xbcb8e877	-0.022571785
87	0xbd593b48	-0.05303505
88	0x3e5e42cc	0.21705168
89	0x3d50151c	0.05080138
90	0xbc75b319	-0.0149963135
91	0x3de3940e	0.111122236
92	0xbb137a93	-0.002250348
93	0x3de66ed2	0.11251606
94	0x3ddae94d	0.1068903
95	0x3e255e2d	0.16149206
96	0x3ddc9daf	0.10772263
97	0x3db7c23e	0.08972596
98	0xbdd27d8a	-0.10277851
99	0x3d42cf6c	0.047561094
100	0x3de92933	0.11384811
101	0x3e3dd3f9	0.18537892
102	0x3dfd85e5	0.12379054
103	0xbe3db27b	-0.18525116
104	0xbe264175	-0.16235907
105	0xbdab270a	-0.083570555
106	0xbd9d994d	-0.076952554
107	0xbe31f266	-0.17377624
108	0x3da05b6a	0.07829936
109	0x3e353012	0.17694119
110	0xbe168046	-0.1469737
111	0x3e8b8306	0.272484
112	0x3ddfa8a2	0.10920836
113	0xbe019ac0	-0.12656689
114	0xbace4238	-0.0015736287
115	0x3dbf0470	0.09327018
116	0x3d7f2d92	0.06229932
117	0x3d76afa0	0.060226083
118	0x3cc5acc2	0.024130229
119	0xbc1a4c4e	-0.0094176065
120	0xbd6c61cf	-0.057710465
121	0xbc71b429	-0.014752426
122	0x3e00c00d	0.12573262
123	0x3e7c6c99	0.24650802
124	0xbe66b220	-0.22528887
125	0x3d876e98	0.06612891
126	0x3e153f89	0.14575018
127	0x3dd92e12	0.1060449
128	0xbd89791b	-0.06712552
129	0xbddd43c0	-0.10803938
130	0xbe908989	-0.2822993
131	0xbdf58e35	-0.119900145
132	0x3de62820	0.11238122
133	0x3e2d59da	0.16928807
134	0x3df62361	0.12018467
135	0x3db23cbc	0.087029904
136	0x3dc904fd	0.098154046
137	0x3d67b509	0.056569133
138	0xbdf9d0d5	-0.12198035
139	0xbd9a0f72	-0.07522477
140	0x3d9bf86a	0.076157406
141	0xbe1df7b2	-0.1542652
142	0xbe1debf6	-0.15422043
143	0x3d5ce59f	0.05392992
144	0xbe102379	-0.14076032
145	0xbd84f860	-0.06492686
146	0x3dd2bfae	0.10290466
147	0xbd25665f	-0.04038083
148	0x3e4c3aa0	0.19944239
149	0xbe7a93dd	-0.24470468
150	0xbe6d7f49	-0.23193087
151	0xbe596850	-0.21231198
152	0x3d7d13b5	0.061786372
153	0xbd9e265c	-0.0772216
154	0xbe1cf752	-0.1532872
155	0xbd05cbea	-0.03266517
156	0x3dc85119	0.09781093
157	0xbb8b6feb	-0.004255285
158	0xbd3c7c7c	-0.046017155
159	0xbc8d2616	-0.017230075
160	0xbdd15a30	-0.1022228
161	0xbe6c2cd1	-0.23063971
162	0xbdc6f6bf	-0.09715032
163	0x3d9f6781	0.07783414
164	0x3e47ba3b	0.19504635
165	0xbd98de59	-0.074642844
166	0x3e3a3052	0.18182495
167	0xbd2dbb22	-0.042414792
168	0xbd0bbbf1	-0.03411478
169	0x3e368b40	0.17826557
170	0x3d3e0bc7	0.04639795
171	0xbbaffc64	-0.0053706635
172	0x3cfebc6a	0.031095702
173	0xbe13066c	-0.14357919
174	0x3e06f62e	0.13179848
175	0x3bb09160	0.005388424
176	0xbde8078d	-0.11329565
177	0xbd56c098	-0.052429765
178	0xbd044442	-0.03229166
179	0x3d03cae2	0.032175906
180	0x3da47e12	0.080318585
181	0xbdd8d3b4	-0.10587254
182	0xbe41479d	-0.18874975
183	0xbe6f84d1	-0.23390509
184	0xbcc598b1	-0.02412066
185	0xbd1b34f4	-0.037892297
186	0xbcf6cc0f	-0.0301266
187	0x3ddaea5f	0.10689234
188	0x3dac7f6b	0.084227405
189	0xbd00dafc	-0.03145884
190	0xbe194a63	-0.14969783
191	0x3d4b2077	0.049591508
192	0x3e005f88	0.12536442
193	0xbe59f270	-0.21283889
194	0x3e194b41	0.14970113
195	0xbe460689	-0.1933843
196	0x3e1c9109	0.15289702
197	0xbe69d78d	-0.22836132
198	0x3dfa0972	0.12208833
199	0x3c867338	0.016412362
200	0xbdf2d53a	-0.11857076
201	0x3d9d4ce5	0.07680682
202	0x3cec5783	0.028850323
203	0x3e14bf25	0.14526041
204	0xbe5f8825	-0.21829279
205	0x3cbdfa6b	0.023190698
206	0x3e23920a	0.15973678
207	0x3d112663	0.035437
208	0xbdbe803e	-0.09301804
209	0xbc4f37e8	-0.012647606
210	0xbe367d3b	-0.17821209
211	0x3d5499ae	0.051904373
212	0x3d31a7ba	0.043372847
213	0x3df459cd	0.11931191
214	0x3ce81137	0.028328521
215	0x3dc4d25e	0.09610437
216	0xbe0e09c8	-0.13870919
217	0x3d03f6d8	0.03221783
218	0xbd0a9a8d	-0.033838797
219	0x3e20a265	0.15686949
220	0x3dca697a	0.09883399
221	0x3c955402	0.018228535
222	0xbd25d659	-0.04048762
223	0x3e08b960	0.13351965
224	0xbe4c3798	-0.19943082
225	0xbd621fa0	-0.05520594
226	0x3dd7a05e	0.105286345
227	0xbe0c68c6	-0.13711843
228	0x3e67e15b	0.2264456
229	0xbdede45e	-0.11615823
230	0xbe2d282c	-0.16909856
231	0x3daeddd4	0.08538404
232	0xbe3b2099	-0.18274154
233	0xbd8d8c75	-0.06911556
234	0xbd873ca6	-0.06603365
235	0x3d4cde6f	0.050016817
236	0x3ddb7fa0	0.10717702
237	0x3e647d95	0.2231353
238	0x3e5e06d1	0.21682288
239	0x3d2848d5	0.041085083
240	0xbcfcf1d9	-0.03087704
241	0x3e34888f	0.17630218
242	0x3e559417	0.20857273
243	0x3e3d756a	0.18501821
244	0x3dee5756	0.11637752
245	0x3e656085	0.224001
246	0xbe2ff9b0	-0.17185092
247	0x3c8e660a	0.01738264
248	0x3c91fabf	0.01781976
249	0xbe030c72	-0.12797716
250	0x3e1a742c	0.15083379
251	0x3dd6cf78	0.1048879
252	0x3db9e34c	0.090765566
253	0x3e7bbf61	0.24584724
254	0xbb93aa1e	-0.0045063635
255	0xbdc48259	-0.09595174

net_layers.0.bias f4 [62]
0	0xbdb852ed	-0.09000192
1	0x3d97061b	0.073742114
2	0x3de20f40	0.11038065
3	0xbc3625a8	-0.011117376
4	0xbddf1104	-0.10891917
5	0x3d5b9b77	0.05361506
6	0x3daca23d	0.08429382
7	0xbd8be33a	-0.068304494
8	0xbd2b5b74	-0.041835263
9	0xbd330091	-0.043701712
10	0x3dca683b	0.09883162
11	0x3ddbd00c	0.10733041
12	0xbbdc0b84	-0.00671524
13	0x3c920f87	0.01782967
14	0x3da81d38	0.08208698
15	0xbcef607c	-0.029220812
16	0xbb7bf62d	-0.0038446293
17	0xbd38d5d9	-0.045125816
18	0xbb3f1da9	-0.0029161966
19	0xbc0a0860	-0.008424848
20	0x3ce6fbf4	0.028196312
21	0xbd905c61	-0.0704887
22	0x3dff83a2	0.12476279
23	0x3cd756e6	0.026286554
24	0x3ca77ef4	0.020446278
25	0xbcfb8e96	-0.030707639
26	0x3c6ccb72	0.014452802
27	0xbda18a11	-0.07887662
28	0xbc8065a0	-0.015673459
29	0xbd20ae23	-0.03922857
30	0x3cee9fec	0.029128991
31	0x3cd10c25	0.025518486
32	0x3da4c01c	0.080444545
33	0xbd9b42b8	-0.07581085
34	0xbde99467	-0.114052586
35	0x3d19a997	0.03751525
36	0x3da84eff	0.08218192
37	0x3ca4d969	0.0201232
38	0xbda0805d	-0.07836983
39	0x3d782421	0.06058133
40	0xbdb9ca1a	-0.09071751
41	0xbdc9ca5d	-0.09853051
42	0xbdb6c29b	-0.08923837
43	0x3d175617	0.036947336
44	0xbd9f1bd9	-0.077689834
45	0xbd85b3c8	-0.06528431
46	0xbdc80b18	-0.09767741
47	0x3dfde68f	0.12397491
48	0x3b9694fa	0.004595396
49	0xbd18e07e	-0.037323467
50	0xbc65baf3	-0.014021623
51	0x3aafd70b	0.0013415528
52	0x3ded6573	0.115916155
53	0xbdafd8fd	-0.08586309
54	0x3bd92061	0.0066261743
55	0x3d5040fa	0.050843216
56	0x3dc9012f	0.09814679
57	0xbd5767aa	-0.052589096
58	0x3d4faaac	0.050699875
59	0x3c311ae7	0.010809637
60	0x3d065a42	0.03280092
61	0xbc7b2de6	-0.015330767

net_layers.1.weight f4 [4, 62]
0	0xbd36c19a	-0.044618227
1	0xbe869cea	-0.2629159
2	0x3ea04210	0.31300402
3	0xbe67c61e	-0.2263417
4	0xbe68b31d	-0.22724576
5	0x3e22d605	0.15901954
6	0x3e41fb88	0.18943608
7	0x3eaa6890	0.332829
8	0xbc2027ae	-0.009775085
9	0x3e7b24e8	0.24525797
10	0x3e99c98e	0.30036587
11	0x3c96ecf2	0.018423531
12	0x3d6a87d4	0.057258442
13	0xbe3277c4	-0.174285
14	0x3e145aaf	0.14487718
15	0xbed16bd8	-0.4090259
16	0x3dde5dc3	0.108577274
17	0xbe34c6b4	-0.17653924
18	0xbe805b69	-0.2506974
19	0xbeb4e430	-0.35330343
20	0x3e35f193	0.17767935
21	0xbe6840af	-0.22680925
22	0xbeb949e7	-0.36189196
23	0xbe920e63	-0.285266
24	0xbe7159a0	-0.23569345
25	0x3e35c8aa	0.17752329
26	0x3e86ff54	0.26366675
27	0x3dfeea7e	0.124470696
28	0x3cec4a8b	0.028844139
29	0xbea8366a	-0.32854015
30	0xbe85ce90	-0.26134157
31	0x3e440098	0.19140851
32	0xbe2a3154	-0.1662038
33	0x3db9bb64	0.09068945
34	0xbe9c73e3	-0.30557165
35	0xbd30bfcf	-0.043151673
36	0x3e021daf	0.12706636
37	0xbe32ba58	-0.17453897
38	0xbdcfd048	-0.10147148
39	0xbe416130	-0.1888473
40	0xbeaa3503	-0.3324357
41	0x3d628502	0.055302627
42	0x3e40c13b	0.18823712
43	0xbe4cb44c	-0.19990653
44	0x3e5ec0e0	0.21753263
45	0x3b1af84c	0.0023646532
46	0x3eb7bd77	0.35886738
47	0x3e670f4c	0.22564429
48	0x3e2d35b4	0.16915017
49	0xbe107d5d	-0.14110322
50	0x3e47fab4	0.1952923
51	0x3e8b99c9	0.27265766
52	0xbbaa0f39	-0.005189803
53	0xbc29e999	-0.010370635
54	0x3e1cf670	0.15328383
55	0xbe07185a	-0.13192883
56	0x3e6ce1f1	0.23133065
57	0xbe8b5ac2	-0.2721768
58	0xbda102e9	-0.07861883
59	0x3e0692ca	0.13141933
60	0x3e1a50fe	0.15069959
61	0xbe96c278	-0.29445243
62	0x3d94b334	0.07260743
63	0xbe5a29ee	-0.21305057
64	0x3c9cfe16	0.019164126
65	0xbe10d16d	-0.1414239
66	0xbe2f0e6d	-0.17095347
67	0x3e9cbfa2	0.30614954
68	0x3d60fcd8	0.05492863
69	0x3ad01522	0.0015875439
70	0x3e8113ae	0.25210327
71	0xbeb555c3	-0.35416993
72	0x3cce4e48	0.025183812
73	0x3ea807f7	0.32818577
74	0xbe4f9982	-0.20273402
75	0x3e1cea51	0.1532376
76	0x3d36aef8	0.044600457
77	0xbea8aaa3	-0.32942685
78	0x3e1e58b5	0.15463527
79	0x3dbf31d8	0.09335679
80	0xbed2c8d9	-0.4116886
81	0xbe0efeb6	-0.13964352
82	0x3e4b5981	0.19858362
83	0x3e98a7af	0.29815432
84	0xbef26760	-0.47344494
85	0xbe4a0d08	-0.19731534
86	0x3d911f31	0.070860274
87	0x3e6f8b77	0.23393045
88	0x3e2ea1b0	0.17053866
89	0x3eb80482	0.3594094
90	0xbcbe1cae	-0.023207035
91	0x3e0af761	0.1357093
92	0x3ea192c4	0.31557286
93	0xbe58f12e	-0.21185753
94	0xbe936243	-0.28785905
95	0xbe5f5d14	-0.2181285
96	0xbe171938	-0.14755714
97	0x3df10ecb	0.117704
98	0x3d55f674	0.05223699
99	0xbedcdc88	-0.43137002
100	0xbe408b7c	-0.18803209
101	0x3e950504	0.2910539
102	0xbe49f45b	-0.1972212
103	0x3eb12eb4	0.34605944
104	0x3c8ef26b	0.017449578
105	0xbd34be5b	-0.04412685
106	0x3e739e51	0.23790862
107	0x3eaf6621	0.34257606
108	0x3eb84f07	0.35997793
109	0xbdab73a3	-0.08371665
110	0xbec97c42	-0.39352614
111	0x3da90c89	0.08254344
112	0xbe92fc1e	-0.28707975
113	0xbe0c8c2c	-0.13725346
114	0xbeb0a926	-0.3450405
115	0x3ea83baa	0.3285802
116	0xbeaa27f9	-0.33233622
117	0x3e944cc1	0.2896481
118	0xbca0b7b9	-0.019618856
119	0x3e622673	0.2208498
120	0x3e62cf5f	0.22149418
121	0x3e44ca9f	0.19217919
122	0x3e0b0a87	0.13578235
123	0x3e095757	0.13412224
124	0xbe9a453f	-0.30130956
125	0xbe22c55d	-0.158956
126	0x3d2c9c36	0.04214116
127	0xbe269f90	-0.16271806
128	0x3d30cc5f	0.043163653
129	0xbea32b0f	-0.3186879
130	0xbe58b75d	-0.21163698
131	0x3e94be69	0.2905152
132	0x3ea1e1be	0.3161754
133	0xbd09bb01	-0.033625606
134	0x3d5fac87	0.054607894
135	0xbd52bd08	-0.051449805
136	0x3e876454	0.26443732
137	0x3e1258b0	0.14291644
138	0xbd8d0fa0	-0.06887746
139	0xbe4b95c3	-0.19881348
140	0x3c6213bc	0.01379865
141	0xbe3feb30	-0.1874206
142	0x3c2bc965	0.010485028
143	0xbca31d0e	-0.019911315
144	0x3d33f222	0.043932088
145	0x3d767df3	0.06017871
146	0xbe5d5a3f	-0.21616457
147	0xbe0b1873	-0.13583545
148	0xbea582cd	-0.32326356
149	0x3e34394b	0.1759998
150	0xbeb3d475	-0.3512303
151	0xbe0343b1	-0.12818791
152	0x3e3627b2	0.1778858
153	0x3e803f98	0.25048518
154	0xbed4cf8f	-0.41564605
155	0x3df15f00	0.11785698
156	0xbd50e443	-0.050998937
157	0x3e893c26	0.26803702
158	0x3e7ca03d	0.24670501
159	0xbe597078	-0.2123431
160	0x3e29896d	0.1655633
161	0xbcb63038	-0.02223979
162	0xbe484532	-0.19557646
163	0x3d8e179a	0.069380954
164	0x3dba2622	0.090893045
165	0x3bb9e3d5	0.0056729116
166	0x3e15fcb8	0.14647186
167	0xbec4773c	-0.3837222
168	0xbe46b5fc	-0.19405359
169	0x3e8c6ee9	0.27428368
170	0x3e6eec68	0.2333237
171	0x3d83e4cd	0.06440125
172	0x3ec098ef	0.3761668
173	0x3e2faf6c	0.17156762
174	0x3eeea54d	0.4661049
175	0x3b94030b	0.0045169643
176	0xbe6116d8	-0.2198137
177	0xbdb13548	-0.08652741
178	0xbe63bdd4	-0.22240382
179	0xbdd217a0	-0.10258412
180	0x3ec8f56e	0.39249748
181	0xbe46048e	-0.19337675
182	0x3e5f95ea	0.21834531
183	0xbe29bd7f	-0.16576193
184	0x3e96221a	0.29322892
185	0x3daf6f76	0.08566181
186	0x3e23195f	0.15927647
187	0xbe7e036d	-0.24805994
188	0xbb870074	-0.004119927
189	0x3d13c5d1	0.036077324
190	0xbe487322	-0.1957517
191	0xbe516bc3	-0.20451264
192	0x3ddc7c16	0.10765855
193	0xbe2602e3	-0.16212039
194	0x3ec16731	0.3777404
195	0x3e364ac6	0.17801961
196	0x3e87dfdb	0.26537976
197	0x3e63d594	0.22249442
198	0xbe414b8a	-0.18876472
199	0xbda29e02	-0.07940294
200	0x3e4b67a0	0.19863749
201	0xbd35d396	-0.044391237
202	0x3ec1940f	0.37808272
203	0xbd85dc1a	-0.06536122
204	0xbdfc6bc4	-0.12325242
205	0xbd2cf9bc	-0.042230353
206	0xbe5545a3	-0.20827346
207	0x3e4cd474	0.2000292
208	0x3e8cd9a8	0.2750981
209	0xbe57ac44	-0.21061808
210	0xbe57cb91	-0.21073748
211	0x3e6becb3	0.23039512
212	0xbe99e0ce	-0.30054325
213	0xbe8844b1	-0.26614907
214	0x3eb133cc	0.3460983
215	0xbd6b0dce	-0.057386212
216	0xbec5dc8b	-0.38644823
217	0xbe6cba6b	-0.23117988
218	0xbdab9a8e	-0.08379088
219	0x3e27cdde	0.16387126
220	0xbe2df58c	-0.169882
221	0xbe84f40b	-0.2596744
222	0x3d92221c	0.07135412
223	0xbe8a9c05	-0.27072158
224	0xbe7bf9d6	-0.24607024
225	0x3da5d086	0.08096413
226	0xbe9bf8b2	-0.30463177
227	0x3cc1557f	0.023600338
228	0xbdda9ae2	-0.10674073
229	0xbea77b7f	-0.32711408
230	0x3e67c4d3	0.22633676
231	0x3e3047e8	0.1721493
232	0x3e12714e	0.14301035
233	0x3e26a316	0.1627315
234	0xbd79e01a	-0.061004736
235	0x3d530626	0.051519535
236	0x3ebb5c5d	0.36593905
237	0x3e60e3bb	0.21961872
238	0x3e6b9f6d	0.23010035
239	0xbd9a95b6	-0.07548086
240	0x3bdcf8d6	0.0067435307
241	0x3e70ed5d	0.23528047
242	0x3e599324	0.21247536
243	0xbe58fab9	-0.21189393
244	0xbdb580c9	-0.088624544
245	0xbd92fc1c	-0.07176992
246	0xbe537cc5	-0.20653065
247	0xbe8f0259	-0.2793148

net_layers.1.bias f4 [4]
0	0xbd7f7911	-0.062371317
1	0xbd998155	-0.07495371
2	0x3d120178	0.035645932
3	0xbcbab3a3	-0.022790736
