dialogue_manager/model/weights/trained_modelLIST_SAMPLEMODELCONSERVATIVE0.0NORMAL.pt (torch_old, 23906 bytes, 4 tensors)

net_layers.0.weight f4 [62, 88]
000000 00 35 26 bd 0a 35 c7 bd 48 dc d2 3d ff d1 e6 3d
       -0.04057789 -0.09726913 0.102959216 0.11270522
000010 58 91 ef bd 83 5a b2 3c 5a 45 19 3e 40 3f 42 3e
       -0.11697644 0.021771675 0.14967862 0.1896944
000020 4e 47 12 3d 4d 70 28 3e d7 f7 0d bd 50 f4 95 3c
       0.035712533 0.1644909 -0.034660187 0.018304974
000030 75 a6 4b 3e d8 1c 5e 3e 14 f9 09 3e 4d 40 4c be
       0.19887717 0.2169069 0.13473922 -0.19946404
000040 4b 68 b4 3d 97 f3 07 be 24 33 bd bd 46 0a b5 3c
       0.08808955 -0.13276516 -0.0923827 0.022099625
000050 cb 8a cf 3d e7 b2 22 be 67 f8 85 3e b2 17 76 3e
       0.101338945 -0.15888558 0.26166078 0.24032477
000060 8f 2d 5f 3e 12 18 1c 3e 84 b0 e5 bd b0 94 36 3e
       0.21794723 0.15243557 -0.11215308 0.17830157
000070 7a bf 87 3d fd a7 84 3d d2 22 4a bb 64 fc 95 3d
       0.06628318 0.06477354 -0.0030843508 0.0732353
000080 cb e0 12 3d a8 32 2a be 6e 98 7a 3d bc da 4e 3e
       0.03585891 -0.16620886 0.061180525 0.20200628
000090 82 ea 87 3d b0 d8 26 3e 92 a8 c4 3d 66 50 d4 3c
       0.06636526 0.16293597 0.09602465 0.025917243
0000a0 b5 ff 99 3d 34 44 8d be 75 65 1f 3d cd d7 ad bd
       0.07519475 -0.27591097 0.038915116 -0.08488426
0000b0 4b 83 3d bd c5 4a b8 3d 96 52 00 3e 25 27 cd bd
       -0.04626779 0.08998636 0.12531504 -0.10017232
0000c0 65 87 02 be d3 4a e4 3d 13 45 97 3d 9c 23 5a bd
       -0.12746961 0.11147084 0.07386222 -0.053256616
0000d0 0f 0d d8 bd 54 d2 5e bd 16 4b 94 bd 1b f6 0e be
       -0.10549366 -0.054399803 -0.07240884 -0.1396107
0000e0 13 65 e6 3d 85 92 09 be 08 a9 7c be 4f 14 0f be
       0.11249747 -0.13434799 -0.24673855 -0.13972591
0000f0 11 c0 b3 3d d4 70 d1 3d 42 9e 31 be c4 57 16 be
       0.08776868 0.102265984 -0.17345527 -0.14681917
000100 a5 f4 86 3d d4 76 31 3e c4 d6 98 3c df 86 78 be
       0.06589631 0.17330486 0.018657096 -0.24270199
000110 f0 be 55 3e 6c 7d 3c be 58 43 a2 bc f6 53 a3 be
       0.20873618 -0.1840722 -0.019807503 -0.31899995
000120 88 49 0c be 6e c8 38 3d 43 1c 08 3e a9 49 81 3d
       -0.13699925 0.04511302 0.13292031 0.06312878
000130 f1 0d 50 3e 73 c8 e1 3d 62 25 d3 bd 24 42 a7 3d
       0.20317818 0.11024561 -0.103098646 0.08166912
000140 fe 35 e0 bd aa eb 27 be cc 65 ce 3d 41 69 4d be
       -0.10947798 -0.16398492 0.1007801 -0.20059682
000150 36 cd 0c bd 02 86 58 bd ad 1f d2 bd cc bf 00 bd
       -0.034375392 -0.052862175 -0.10259948 -0.03143291
000160 3c 33 2e be 87 a1 b6 bd 6a b1 87 bd 8c 1f b2 3d
       -0.17011732 -0.08917528 -0.06625636 0.08697423
000170 26 b9 3b bc 08 1b 80 3d 26 4b f0 bd 6e 49 ff 3c
       -0.011457717 0.06255156 -0.117330834 0.031162944
000180 5a e4 10 3c e1 a6 42 be bc aa 67 be 20 b2 4d be
       0.008843506 -0.19008972 -0.22623724 -0.2008748
000190 1c c3 fa 3d 2e 59 97 bd 09 9a 6a bd fa 05 cd bd
       0.122442454 -0.073900566 -0.057275806 -0.100109056
0001a0 a7 ae f6 bd 2e 6b c6 bc c1 69 d4 bd 60 6e cc bd
       -0.12045031 -0.02422103 -0.103717335 -0.0998199
0001b0 cc da 4a bd 37 31 6e be 89 4f 7c bd 63 09 77 be
       -0.049525067 -0.23260961 -0.061599288 -0.24124674
0001c0 26 44 83 3e 4c a0 f2 3d 7c 07 48 be 2e bf d6 3c
       0.2563793 0.118469805 -0.19534105 0.026214208
0001d0 62 4d 27 3e 69 7d cd bd 00 a1 49 3d cc c9 97 3d
       0.16338113 -0.10033686 0.049225807 0.074115366
0001e0 ce 9d 47 be 87 d9 6b be 91 dc 97 bd 00 72 83 bd
       -0.19493791 -0.23032199 -0.074151166 -0.06418228
0001f0 d1 06 14 3e a1 be cc 3d 24 84 8a 3e 99 30 60 be
       0.14455725 0.09997297 0.2705394 -0.21893539
000200 35 98 3e 3e d8 56 b6 3c 3c d7 2c be a3 b6 31 be
       0.1861275 0.022258207 -0.1687898 -0.17354827
000210 9c 15 48 3c 5a c4 dc bc 77 a0 6d bd 36 67 06 3c
       0.012212183 -0.026949096 -0.05801436 0.008203318
000220 c7 95 4d 3d 19 ff f3 3a 66 91 35 3c 42 3b 6f 3b
       0.050191667 0.0018615454 0.011082029 0.0036503826
000230 3c 33 4d 3c 13 be 3c bd b3 1b 54 3d 57 49 b3 bd
       0.012524422 -0.046079706 0.05178423 -0.08754223
000240 3e e2 07 be 78 94 05 be 21 1b 8b bd e6 f4 80 be
       -0.13269898 -0.13044918 -0.06792284 -0.25186843
000250 c0 02 4e 3e d7 6c 99 bd c3 68 82 be 02 a5 d9 3d
       0.20118237 -0.07491463 -0.25470552 0.10627176
000260 50 f5 19 3e de fc d3 bd 5c 93 9e bd 2e cc 39 be
       0.15034986 -0.10350965 -0.0774295 -0.18144295
000270 73 9a ac bd 9a bd e4 bd c0 9f 7e bc 29 32 82 be
       -0.08427896 -0.11168976 -0.015541017 -0.25428894
000280 bd da 04 be 25 d6 24 be 1f 2b 31 bd 17 48 35 be
       -0.12974067 -0.16097315 -0.043254014 -0.17703281
000290 ad 61 15 be 9e 66 d8 bd 1d a8 d6 3d a9 62 0c be
       -0.14588042 -0.10566448 0.10481284 -0.13709511
0002a0 ba 30 19 be e9 f3 04 3e 73 4f 4c 3e 33 c9 bd bd
       -0.14959994 0.1298367 0.19952182 -0.09266891
0002b0 d4 85 f7 bd 06 e3 dc 3c 63 28 13 be 94 85 21 bd
       -0.120860726 0.026963722 -0.14370875 -0.03943403
0002c0 65 4f 0e bd 50 58 ac bd f7 48 24 3d 4a 9f d2 3d
       -0.034743685 -0.08415282 0.040108647 0.10284288
0002d0 bc 81 58 3d 47 7b 7e be e9 16 9e 3d 58 a9 83 bd
       0.0528581 -0.24851714 0.077192135 -0.06428784
0002e0 6e 5a 74 3e 2d 0c 49 bd f2 f3 2b be b4 3f 99 bb
       0.23862621 -0.049083877 -0.16792277 -0.0046767835
0002f0 aa 69 59 bd 11 d6 36 3e ac 09 0e 3e 68 0d 04 3e
       -0.053079285 0.17855097 0.13870877 0.12895739
000300 be 99 ea bc 1a 64 6f be 5f c7 09 be 1e 89 a6 bd
       -0.028637763 -0.2337803 -0.1345496 -0.08131622
000310 e0 a7 b8 3d c2 77 b0 3d 32 8b 16 3e 66 51 e4 3d
       0.090163946 0.08616592 0.14701536 0.11148338
000320 35 5f 41 3d ab e8 01 be 77 19 16 be 24 a5 e1 3d
       0.047209937 -0.12686412 -0.14658152 0.11017826
000330 5c 18 e0 3d 5e 83 5e 3c f2 0b 2c 3e 23 35 7f be
       0.10942146 0.013581125 0.16801432 -0.24922614
000340 36 0c 66 3c dc a1 be bd b9 95 6f 3e 21 3c 6f bc
       0.014040997 -0.09308216 0.23396958 -0.014601738
000350 2e 61 fa 3d f9 eb 81 bd 8c fa 36 be 9c 4b 2a 3e
       0.12225567 -0.06343836 -0.17869014 0.16630405
000360 f8 58 e8 bd c0 36 5c be 6e 96 95 bd ae 62 c6 3c
       -0.113450944 -0.2150526 -0.07304083 0.024216976
000370 03 64 c4 b9 07 4e a0 3d 9e d8 32 bd 37 bd b4 bd
       -0.00037458548 0.078273825 -0.043663613 -0.08825152
000380 cb 20 61 3d 15 2d 63 3e 91 64 b2 3d 00 4b 8e bd
       0.054962914 0.22185166 0.08710588 -0.06947899
000390 13 d6 1f 3e d6 09 0a be 1d 99 72 3d 51 c0 7e 3d
       0.15609007 -0.13480315 0.05922805 0.062195126
0003a0 90 be e9 bd d9 39 72 bd 12 9f 35 bc e1 39 1a be
       -0.114133 -0.0591372 -0.011085289 -0.15061142
0003b0 40 6d 8f 3d d7 6e b8 bd bf 2b fc 3d 51 47 ef bb
       0.0700326 -0.09005516 0.123130314 -0.0073022027
0003c0 9b 39 57 bc 7e 6f ef bd d1 ac b4 3d 4b 2b 0f bd
       -0.013136293 -0.11691187 0.088220246 -0.034953397
0003d0 c2 70 4a 3d 5f 1c c8 3c 94 f2 ba bd 71 92 0f be
       0.04942394 0.02442759 -0.09128299 -0.14020707
0003e0 73 49 08 be a4 95 68 bc 47 89 4b 3d 77 52 17 3e
       -0.13309269 -0.014195833 0.049691465 0.14777552
0003f0 f6 be 90 3d b1 99 be bd cc 0a 1a be 31 0b b4 3d
       0.07067673 -0.09306658 -0.15043181 0.08791197

net_layers.0.bias f4 [62]
000000 f3 f7 42 3b 73 ae 7a 3d 7c 64 9f 3d 00 a7 10 3d
       0.002974984 0.061201524 0.07782838 0.035315514
000010 90 48 9a bd 27 48 28 bd 62 b9 88 bd 28 a2 e3 3d
       -0.075333714 -0.041084435 -0.06675984 0.11114913
000020 1a 9b 13 bc 58 1c c0 3d 87 09 7d 3d 38 75 df 3d
       -0.009009147 0.09380406 0.061776664 0.109110296
000030 ab 39 05 3a 7b 73 36 bd fa de 61 3c af c7 8c bd
       0.00050821406 -0.044543725 0.013786072 -0.06874024
000040 80 9c 75 bd fc 1e 04 3c 5a 41 a4 bd ad 93 89 bd
       -0.059963703 0.008064028 -0.08020277 -0.0671762
000050 83 7f bf 3d d1 ea 8d 3d 47 5e 89 3c 3c d2 a3 bc
       0.09350493 0.06929553 0.016768588 -0.019997708
000060 17 52 68 3d 0a b7 d3 bd 4a dc bd bd 85 53 d6 bd
       0.056718912 -0.10337646 -0.092705324 -0.10465149
000070 d9 86 c2 3d d0 4a 22 bd 33 3f d9 3c 82 ed f3 bc
       0.094983764 -0.039622128 0.026519394 -0.029776338
000080 f0 31 9c 3a 40 6f bb 3d 46 12 95 3d 7f 8d 04 3d
       0.0011916738 0.09152079 0.07278876 0.032361504
000090 4b 28 04 3e 81 a2 ce 3c 65 b1 97 bd 0f 10 13 bd
       0.12905996 0.025223972 -0.07406882 -0.035903987
0000a0 98 e1 1e bd 55 51 48 bd 23 1c a9 bc 82 49 34 bd
       -0.03878936 -0.04890569 -0.0206433 -0.044015415
0000b0 9d 16 cd 3d 9d 8b 68 3d 71 1f cc 3d 34 18 b5 bc
       0.10014079 0.05677377 0.099669345 -0.022106268
0000c0 ad f4 64 bc 19 af cd 3d d2 1c cf 3d 45 cd 42 bd
       -0.013974351 0.10043163 0.10112919 -0.04755904
0000d0 4e c1 81 bd e0 f9 ae 3d f7 7e d1 3d 80 6b 99 ba
       -0.06335698 0.085437536 0.10229295 -0.0011705011
0000e0 39 cc e8 bc 44 16 2a 3d 42 4d 90 bd 16 ff e8 bd
       -0.028417693 0.04152514 -0.07045986 -0.11376779
0000f0 1e 25 27 3d bd 58 42 bc
       0.040806882 -0.011861977

net_layers.1.weight f4 [4, 62]
000000 92 69 f4 bd dc 37 d7 bd 23 1c a9 be f4 07 6d 3e
       -0.119341984 -0.10508701 -0.3302928 0.23147565
000010 f4 92 34 be 15 ac b5 bd 94 e2 d2 3d 69 49 1b 3e
       -0.17634183 -0.08870713 0.102971226 0.15164723
000020 9a fa 6c be 7b 07 57 3e e7 4f f0 3d b0 e8 15 3e
       -0.23142472 0.20998947 0.1173399 0.14639544
000030 69 17 d5 be a0 13 8d 3d 93 83 94 3d 09 7a 16 3e
       -0.41619423 0.06888509 0.07251658 0.1469499
000040 80 5e 79 3d b6 ae 42 be a6 7e 59 be 96 56 d4 bd
       0.060881138 -0.1901196 -0.21239719 -0.103680775
000050 d8 85 60 3e 57 62 fe 3d 34 4e 95 3e 92 1d b2 3c
       0.21926057 0.124211006 0.29161227 0.021742616
000060 6f 7f 06 be ce 54 c9 be 34 89 03 be af c7 92 be
       -0.1313455 -0.39322513 -0.12845308 -0.28667971
000070 1f 6a 80 3e d8 fa b5 3e bb 84 cb be 4f ef a5 bd
       0.25080964 0.3554294 -0.39749703 -0.08102285
000080 79 cd 54 3d 3c fe 7d bd d2 74 f2 3b b2 a1 b0 3e
       0.051953766 -0.062010035 0.00739918 0.34498364
000090 6a 16 3a 3e db e9 43 bd 9b 84 d1 3d 48 1b 95 bc
       0.18172613 -0.047830444 0.102303706 -0.018201485
0000a0 f4 fe 71 be d3 02 85 be 10 f5 c9 3e c8 40 37 bd
       -0.23632413 -0.25978717 0.3944478 -0.044739515
0000b0 a9 85 65 3e 0b 2d 5b bd cf 19 87 bc b4 33 ff 3d
       0.22414269 -0.053509753 -0.016491799 0.124610335
0000c0 f7 5b b2 3e 5b f9 94 3e 00 c3 b6 bb 76 a0 97 3e
       0.3483579 0.29096493 -0.005577445 0.2961461
0000d0 d8 c5 92 be 08 a7 85 bd 40 30 f0 3d 89 ba b7 be
       -0.28666568 -0.06525999 0.11727953 -0.35884503
0000e0 03 7a 6e 3e 2d f7 6e be 20 f5 00 3e e3 a5 1a be
       0.23288731 -0.23336478 0.12593508 -0.15102343
0000f0 42 4f d5 3d 60 46 2d be 4b 8e 14 be 95 6d 9d be
       0.10415508 -0.16921377 -0.14507405 -0.30747667
000100 3e da a6 be 00 99 2d bd 00 dc 46 be 07 53 9b bc
       -0.3258838 -0.04238224 -0.19419861 -0.018960489
000110 62 d2 b4 bc e4 2d fc bd f3 c9 51 3e 61 21 ca 3d
       -0.022072975 -0.123134404 0.20487194 0.09869648
000120 b9 68 d1 3d 11 af 40 3e a0 c4 83 3e d1 b0 96 be
       0.102250524 0.18816783 0.2573595 -0.29431775
000130 4a 6a 43 3e c1 a2 3f 3d f0 3d 6d 3e be ba 63 3e
       0.19083515 0.046786074 0.23168159 0.22239205
000140 fa 6d b3 bd 95 c6 8f 3e 04 bb 1b be 91 c0 b4 bd
       -0.08761211 0.28081194 -0.1520806 -0.088257916
000150 4f e8 33 3d 03 a0 f4 3e 3f 18 af be 0a 59 b7 be
       0.04392272 0.4777833 -0.34198186 -0.3581012
000160 e4 4b 17 be ec f9 79 3e a0 60 5b 3e 0d 44 0d be
       -0.14775044 0.24411744 0.21423578 -0.1379549
000170 c2 2e 4f 3e 45 8f 87 3d 32 13 92 be 76 6a ce bd
       0.2023268 0.06619123 -0.2853027 -0.100788996
000180 ca ca f1 bd 99 e4 89 3e f6 fe 6e be ee be 4f be
       -0.11806257 0.2693222 -0.23339447 -0.20287678
000190 b6 ee 85 3e 2f 97 30 be f8 b3 d3 bd de 2f 47 3e
       0.26158684 -0.17245172 -0.10337061 0.19451854
0001a0 30 03 a5 3e 00 f3 00 3c 2e 07 95 3e a2 02 47 be
       0.32228994 0.007870436 0.2910704 -0.19434598
0001b0 dd ec c7 be 8a 49 78 be a0 65 e6 3d a2 70 f1 3d
       -0.390479 -0.24246803 0.11249852 0.11789061
0001c0 f5 17 b4 be 44 33 a4 3e 80 2b 79 bb 50 d4 75 3e
       -0.35174528 0.32070363 -0.0038020313 0.24006772
0001d0 27 a5 89 3e ae d6 a4 3d ca b4 9e 3e 6c f9 f8 3d
       0.26883814 0.080487594 0.30997306 0.121569484
0001e0 d7 48 8b bd e6 96 67 bd 79 a3 9f 3e b4 aa bb 3d
       -0.068010025 -0.056540392 0.31179407 0.091634184
0001f0 ea 2e ae be 32 6c 0c bb 01 6f 97 3d 27 7a a6 3d
       -0.34020168 -0.0021426794 0.07394219 0.081287675
000200 a0 08 6f 3c 61 d9 2f bd b6 34 81 3e 7c 72 8d 3e
       0.014589459 -0.042931918 0.25235528 0.27626407
000210 f3 48 f4 3d 21 24 45 bd cb 37 7c be a3 32 e0 3d
       0.119279765 -0.04813016 -0.24630658 0.10947158
000220 f2 db 93 be 6b 24 b8 be 1d d2 6d be 1b d6 28 3d
       -0.28878742 -0.35965285 -0.23224683 0.041219812
000230 4e 07 35 3e bd 5d 8f be 20 d1 84 3e 25 ef 04 3e
       0.17678568 -0.28001204 0.259408 0.12981851
000240 91 9b b6 3e 1d 54 28 3e 07 b1 ad 3e fb 50 11 be
       0.35665563 0.16438337 0.33924124 -0.14191048
000250 a1 1e 97 be 4c 35 9b 3d a9 71 16 3e 14 c8 0c 3e
       -0.29515556 0.07578525 0.14691795 0.13748199
000260 bf 69 89 3e 20 7d d0 3c d2 c6 ed be fb 67 33 3e
       0.2683849 0.02545029 -0.4644075 0.17520134
000270 7a e2 03 3d 1c e5 0f 3e 80 69 58 bc 81 c2 2c be
       0.032198407 0.14052242 -0.013208747 -0.16871072
000280 30 00 b3 bd 65 e8 44 3c b1 45 0b be d1 c5 f8 bc
       -0.0874027 0.012018298 -0.13600804 -0.030367764
000290 60 30 6a 3c b0 a0 0c be e5 c3 d6 3e cc ba 35 be
       0.01429376 -0.13733172 0.4194633 -0.17747039
0002a0 d7 0c 8e 3b 13 d6 18 3e a1 13 30 3c e4 d0 93 be
       0.0043350267 0.14925413 0.010746867 -0.28870308
0002b0 56 50 b3 3c 8f 60 74 3e 7c fa 0e be c6 8a 99 3e
       0.021888893 0.23864959 -0.1396274 0.29988688
0002c0 74 25 95 3d fc e0 34 3e 80 4e b9 3e f1 2d c2 be
       0.07282534 0.1766395 0.36192703 -0.37925676
0002d0 b0 7e ba 3e 70 31 53 be 54 c7 3f 3e 47 76 d9 3d
       0.3642478 -0.20624328 0.18728381 0.10618263
0002e0 59 05 a4 bd 1b 7b de 3d 2e ab 30 bd 82 94 da 3d
       -0.080088325 0.10863324 -0.043132 0.10672857
0002f0 85 b1 1b 3e d0 e7 2f be 09 ec a1 3d df ea a6 be
       0.15204437 -0.17178273 0.07906348 -0.32601067
000300 4a 7d 45 be 46 61 a4 be cf dd 4c 3e 3e 37 92 be
       -0.19286075 -0.32105464 0.20006488 -0.2855777
000310 41 0d 66 be 6f f4 88 3e b2 27 97 be ac 70 96 be
       -0.22465993 0.26748988 -0.29522473 -0.29382837
000320 9e 9d 5a be 5f 85 17 3f f4 fd 07 be 29 16 f7 3d
       -0.21349189 0.59187883 -0.13280469 0.120647736
000330 80 4d 3d bd d5 10 81 be 8d b8 90 3e ef 86 99 3e
       -0.046216488 -0.25208154 0.282658 0.2998576
000340 6f 05 89 bd 14 c3 25 3e 90 6a de 3d 19 27 b1 bd
       -0.066904895 0.16187698 0.10860169 -0.086500354
000350 16 f1 7c 3d b6 1b 47 3e 81 af 81 3e 35 30 86 3e
       0.061753355 0.19444165 0.2532921 0.26208654
000360 9a d5 9d bd 00 bf 90 be aa 51 20 3e 28 bb 35 be
       -0.07706757 -0.2827072 0.15656152 -0.17747176
000370 c8 59 38 be 4c b1 7a 3e 54 7d 5a be 32 5b 8f bc
       -0.18002999 0.24481696 -0.21336871 -0.01749954
000380 a1 85 ad 3e 53 9f 8e 3e 98 02 2e 3d 47 ea ae be
       0.33891013 0.2785593 0.042482942 -0.34163114
000390 17 05 7a 3e 48 85 48 3d b2 4c 1b 3e 02 21 48 3d
       0.24416004 0.048955232 0.15165976 0.048859604
0003a0 de 87 94 3e 6c dd 5a be 1e 13 3b bc b4 7f 85 be
       0.29009908 -0.21373528 -0.011418132 -0.26073992
0003b0 94 72 b1 be 4e c9 27 3e 1f 6f 99 be a9 e9 77 bc
       -0.3465773 0.16385385 -0.2996759 -0.0151313925
0003c0 44 cb 25 be 2a 9e d6 be 2d bc 85 3e e7 f1 f5 bd
       -0.16190821 -0.41917545 0.2612013 -0.1200903
0003d0 46 d6 82 3e c0 a9 04 3e 43 4f 07 3e 67 bb 71 3d
       0.25554103 0.1295538 0.1321383 0.05901661

net_layers.1.bias f4 [4]
000000 e4 ff 65 bd 20 ba c2 bc d9 19 c2 3d 1c 5d 25 3a
       -0.05615224 -0.023770392 0.09477586 0.0006308125
