dialogue_manager/model/weights/trained_modelLIST_SAMPLEMODELDCOMPOSITE0.0MISS.pt (torch_old, 23906 bytes, 4 tensors)

net_layers.0.weight f4 [62, 88]
0	0x3bd446cc	0.006478166
1	0xbc6f4600	-0.014604092
2	0xbd56fd2c	-0.052487537
3	0x3e76fd1f	0.24119996
4	0x3e787890	0.24264741
5	0xbd3b6c3e	-0.045757525
6	0x3e105b2d	0.14097281
7	0x3e383252	0.17987946
8	0x3cdb603e	0.02677929
9	0x3da6ded7	0.08147972
10	0x3e19a599	0.15004577
11	0x3e219a64	0.15781552
12	0xbe27b85c	-0.16378921
13	0x3e0985b3	0.13429908
14	0x3d47846a	0.048710264
15	0x3e86c1ab	0.26319632
16	0x3e26a462	0.16273645
17	0x3e8cf673	0.27531776
18	0xbd5b78b8	-0.053581923
19	0x3dd12fe2	0.10214211
20	0xbe34bac0	-0.17649364
21	0x3e909115	0.2823569
22	0x3e6b82e6	0.22999153
23	0x3e8393e2	0.25698763
24	0x3df44b58	0.11928433
25	0x3e3eaeca	0.18621364
26	0x3db21143	0.08694699
27	0x3f1cf5d4	0.61312604
28	0xbde52434	-0.11188546
29	0x3d645398	0.055743784
30	0xbda574c9	-0.080789156
31	0x3e71864a	0.23586383
32	0xbda816ce	-0.08207475
33	0x3d9136bb	0.07090517
34	0x3df2878f	0.11842262
35	0x3eaf0427	0.34182855
36	0xbe152548	-0.14565003
37	0xbd16df7b	-0.03683422
38	0x3dc62769	0.09675486
39	0x3d4452fb	0.0479307
40	0xbc34ec76	-0.011042705
41	0x3e6cb58d	0.23116131
42	0xbc49a170	-0.012306556
43	0x3db46f84	0.088103324
44	0xbdbc3b97	-0.09191053
45	0xbd00a650	-0.031408608
46	0x3e272178	0.16321361
47	0xbe01548e	-0.12629911
48	0x3e11c2aa	0.14234415
49	0xbe13e126	-0.14441356
50	0xbdd798c5	-0.10527185
51	0xbdc323d9	-0.09528322
52	0xbe08b18c	-0.13348979
53	0xbea17bf2	-0.31539875
54	0xbe458677	-0.19289576
55	0xbe49ecea	-0.19719282
56	0x3e08ebe4	0.13371235
57	0xbe41bb39	-0.18919076
58	0xbe31f01a	-0.17376748
59	0xbe5102dc	-0.20411247
60	0x3ccb6483	0.024828201
61	0xbeb12585	-0.34598938
62	0xbcae743a	-0.021295656
63	0xbde65fd2	-0.11248745
64	0xbe0fc2c6	-0.14039144
65	0xbd684f61	-0.056716327
66	0x3db301d4	0.08740583
67	0x3d2b5aec	0.041834757
68	0x3e18dbff	0.14927672
69	0x3c13738b	0.008999716
70	0xbde49130	-0.11160505
71	0xbe425bdf	-0.18980359
72	0xbd9517b6	-0.07279913
73	0xbe8b3c1f	-0.27194306
74	0x3ccf1750	0.025279671
75	0xbe9e5131	-0.3092132
76	0x3d999dd3	0.07500806
77	0xbe3c0fbc	-0.18365377
78	0x3d4d788f	0.0501638
79	0xbd854bed	-0.06508622
80	0x3e307910	0.17233682
81	0xbda7df52	-0.08196892
82	0x3d925815	0.071457066
83	0x3e32f215	0.1747516
84	0x3da50dec	0.08059296
85	0xbcbcd35a	-0.023049999
86	0x3e5c76e4	0.21529728
87	0x3dc7a4a2	0.09748198
88	0xbdd78cb3	-0.10524883
89	0x3e2e0495	0.16993935
90	0xba65a96e	-0.0008760904
91	0xbe33af60	-0.17547369
92	0xbdfb96fc	-0.12284657
93	0xbd1aa625	-0.037756104
94	0xbd3ac7ba	-0.04560063
95	0xbdfef656	-0.124493286
96	0xbd86dae4	-0.06584719
97	0xbe1a4cfb	-0.15068428
98	0x3cbb69e3	0.02287764
99	0x3dc7dd21	0.09758974
100	0x3d54c51d	0.051945794
101	0x3d84f400	0.06491852
102	0x3e29b637	0.16573416
103	0xbdc520a4	-0.09625366
104	0x3e25ee20	0.16204119
105	0x3d0b428a	0.033999003
106	0xbdc795b7	-0.09745353
107	0xbcb0221d	-0.021500641
108	0xbce243a8	-0.027620152
109	0x3dd7accf	0.105310075
110	0xbd6d819c	-0.057984933
111	0x3c9c3fa6	0.019073319
112	0xbc8cd96c	-0.017193519
113	0x3d096f22	0.03355325
114	0x3e168e83	0.14702801
115	0xbe09337f	-0.1339855
116	0x3d5b6fc4	0.053573385
117	0xbe4711cd	-0.19440384
118	0x3c84f414	0.016229667
119	0xbc50b0f0	-0.012737498
120	0xbe37eae3	-0.17960696
121	0x3e250967	0.16116868
122	0xbd2409fe	-0.04004859
123	0xbdcc3a85	-0.09972099
124	0x3e168707	0.14699946
125	0xbe0c2523	-0.13686042
126	0x3e5014ab	0.20320384
127	0xbe4333ed	-0.19062777
128	0x3c78adf2	0.015178191
129	0xbc9ac54a	-0.018892903
130	0xbe2368fa	-0.15958014
131	0x3d1b2a58	0.03788218
132	0x3e1f9ec5	0.1558791
133	0x3df43a5e	0.11925195
134	0xbd9d0ee3	-0.07668855
135	0xbe00ec5c	-0.12590164
136	0x3e31b003	0.173523
137	0xbe4ebd89	-0.2018949
138	0xbc01ce8e	-0.007922782
139	0xbd73bc85	-0.059505958
140	0x3db54d30	0.08852613
141	0xbd055b3e	-0.03255772
142	0x3d8c2d3b	0.068445645
143	0x3b2ad258	0.0026065316
144	0xbdb72b34	-0.08943787
145	0xbe084b7e	-0.13310048
146	0x3e25ea4e	0.16202661
147	0xbcbdf3e1	-0.02318758
148	0x3ddcf1b3	0.10788288
149	0xbe64c820	-0.22341967
150	0x3e4b9ace	0.19883272
151	0xbe38934e	-0.18024942
152	0xbe38a739	-0.1803254
153	0xbcd21bd3	-0.025648033
154	0x3d9edf91	0.07757486
155	0xbb82de66	-0.003993797
156	0x3e075427	0.13215695
157	0xbe9649b2	-0.293531
158	0x3e1110e0	0.14166594
159	0x3d333267	0.04374924
160	0xbc998fbd	-0.018745298
161	0xbd11f2ed	-0.035632063
162	0xbe26f90c	-0.16305941
163	0xbdf1b63c	-0.118023366
164	0xbd4b9df0	-0.049711168
165	0xbdc2969d	-0.095013835
166	0xbd040fbc	-0.032241568
167	0x3e138b01	0.14408495
168	0x3bfe52b3	0.0077613234
169	0x3e20e224	0.15711266
170	0xbdcb2f48	-0.099211276
171	0xbe530d80	-0.20610619
172	0x3ce60421	0.02807814
173	0xbe1ed918	-0.15512502
174	0xbc08251f	-0.008309632
175	0xbdbe73fd	-0.09299467
176	0x3e00ad37	0.12566076
177	0x3e3a93bb	0.18220417
178	0xbd588348	-0.052859575
179	0xbdfd9740	-0.12382364
180	0xbdae63d7	-0.08515137
181	0x3e2e0f03	0.16997914
182	0x3d4b2698	0.049597353
183	0x3e3d0ff9	0.18463124
184	0xbd884a50	-0.06654799
185	0x3c7fa460	0.015603155
186	0x3d7e7cbc	0.062130675
187	0x3df75baa	0.120780304
188	0xbe1ab2b2	-0.1510723
189	0x3c18cca0	0.00932613
190	0xbe2dc677	-0.1697024
191	0x398a5600	0.00026385486
192	0xbd8a2c44	-0.06746724
193	0xbdd68130	-0.10473859
194	0x3d6b21a4	0.05740513
195	0x3cbcd8f0	0.023052663
196	0xbd9e624a	-0.07733591
197	0xbe0911a0	-0.1338563
198	0xbdc401d0	-0.09570658
199	0xbe4b88ef	-0.19876455
200	0x3e006959	0.12540187
201	0xbe489e8f	-0.19591735
202	0xbe46eb03	-0.19425587
203	0xbba9b9a0	-0.005179599
204	0xbd9eae8d	-0.07748137
205	0xbd6506b4	-0.055914596
206	0x3e0b1c41	0.13584997
207	0x3e41b485	0.18916519
208	0x3db21c42	0.08696796
209	0x3e1e00f5	0.15430053
210	0x3daa2752	0.08308281
211	0x3d45e1c0	0.048310995
212	0xbccd1f68	-0.02503939
213	0xbe10cfa0	-0.14141703
214	0x3e407d05	0.18797691
215	0xbda91f67	-0.08257943
216	0x3d6937e4	0.056938067
217	0x3c8c9158	0.017159149
218	0x3e37edf1	0.17961861
219	0xbd343260	-0.043993354
220	0xbd2299e0	-0.039697528
221	0x3e10939b	0.14118807
222	0x3dba8176	0.09106724
223	0xbe07b356	-0.13252005
224	0xbe49ae5a	-0.19695416
225	0xbb276540	-0.0025542527
226	0xbe464508	-0.19362271
227	0x3c4aa7e0	0.012369126
228	0x3dee7bd6	0.116447136
229	0xbd7a9074	-0.061172917
230	0xbccbcc90	-0.024877816
231	0xbdcd1a40	-0.100147724
232	0xbd90ebaa	-0.07076199
233	0xbe22263a	-0.15834895
234	0xbcf56140	-0.029953599
235	0xbd7d1028	-0.061782986
236	0x3e144b87	0.14481936
237	0xbc906450	-0.017625958
238	0x3d037320	0.032092214
239	0x3c54f850	0.012998655
240	0x3e314ec1	0.17315198
241	0xbe1c9c03	-0.15293889
242	0x3e21d11d	0.15802427
243	0x3e3329ff	0.17496489
244	0xbde8f380	-0.11374569
245	0x3e44cf45	0.19219692
246	0x3e17de69	0.14830936
247	0x3e4a8b0b	0.19779603
248	0x3d7ccde4	0.06171979
249	0xbdff7f00	-0.12475395
250	0xbdbd1770	-0.09232986
251	0xbb61b280	-0.003443867
252	0x3e230905	0.1592141
253	0xbe162606	-0.14662942
254	0x3d5a41e4	0.053285494
255	0xbba61f40	-0.0050696433

net_layers.0.bias f4 [62]
0	0xbcc7b562	-0.024378482
1	0x3dbc1adf	0.09184813
2	0xbd0262e8	-0.031832606
3	0xbd1fb40f	-0.038990077
4	0x3d083383	0.03325225
5	0x3ca662f8	0.020310864
6	0x3d409937	0.047021117
7	0xbd883e00	-0.066524506
8	0x3d8e2d8f	0.06942283
9	0x3d093d97	0.033506002
10	0x3d11c81d	0.035591234
11	0x3dab881b	0.083755694
12	0xbd052b4f	-0.032512005
13	0xbd3c1dbf	-0.045926806
14	0xbd78d0ea	-0.06074611
15	0x3c1f2dd8	0.00971552
16	0x3d2e5a1d	0.042566407
17	0xbd83beef	-0.06432902
18	0x3cab5498	0.02091436
19	0xbdcd2b9c	-0.100180835
20	0x3d8f0e03	0.069850944
21	0x3acf3f93	0.0015811793
22	0x3dc72afc	0.097249955
23	0xbce974fb	-0.028498163
24	0x3d8ca09e	0.06866573
25	0xbd555364	-0.05208148
26	0x3ce887bc	0.028385036
27	0x3da49230	0.080356956
28	0x3dde4f0e	0.10854922
29	0xbddf6201	-0.10907365
30	0x3c367dcc	0.011138391
31	0x3dbd21ec	0.09234986
32	0xbc1de29b	-0.0096365465
33	0xba3879a4	-0.0007037169
34	0x3dab77ba	0.083724454
35	0xbbd67d0d	-0.006545669
36	0xbc914b07	-0.017735971
37	0x3d5918c8	0.05300215
38	0x3dcf5b81	0.10124875
39	0xbdbebce9	-0.093133755
40	0xbd45af7f	-0.04826307
41	0xbda1696a	-0.07881434
42	0xbdafb04c	-0.08578548
43	0x3bcc5e30	0.006236814
44	0x3daf68a5	0.08564881
45	0xbda058a8	-0.0782941
46	0x3d3a0610	0.045415938
47	0x3cc39bf7	0.02387808
48	0x3dc850c1	0.097810276
49	0x3dab7784	0.08372405
50	0xbc392e28	-0.011302508
51	0xbd85b356	-0.06528346
52	0x3b430a5e	0.0029760818
53	0x3b98e48d	0.0046659173
54	0x3dd411d4	0.10354963
55	0x3bde8b78	0.0067915283
56	0xbe0efaf7	-0.13962923
57	0x3b83d96c	0.0040237214
58	0xbbddb759	-0.0067662415
59	0xbd851f40	-0.06500101
60	0x3ba00b48	0.0048841573
61	0x3de10e02	0.10989

net_layers.1.weight f4 [4, 62]
0	0x39a5848d	0.0003157001
1	0x3ddf7b04	0.10912135
2	0xbe668952	-0.22513321
3	0x3ead1d72	0.33811527
4	0xbde22173	-0.11041536
5	0x3d01725e	0.03160321
6	0xbdbe6215	-0.092960514
7	0x3dfe6db3	0.12423267
8	0xbcf3943c	-0.02973377
9	0x3e120a11	0.14261653
10	0xbe11d7c1	-0.1424246
11	0x3e0fad46	0.14030942
12	0xbe540de1	-0.2070842
13	0xbd200734	-0.03906937
14	0xbeb0e491	-0.34549382
15	0xbd35dee8	-0.044402033
16	0x3d089af4	0.0333509
17	0x3dc13ade	0.09435056
18	0x3e5f585d	0.21811052
19	0x3e0828fb	0.13296883
20	0x3d083ad7	0.03325924
21	0xbe05b24f	-0.130563
22	0xbedfc176	-0.43702286
23	0x3d233f46	0.039855264
24	0x3aad19e0	0.0013206564
25	0xbe9ae041	-0.30249217
26	0x3d35253b	0.04422496
27	0x3ea50eed	0.3223795
28	0x3e8ff62e	0.28117508
29	0xbed269e5	-0.41096416
30	0xbe1e9a1a	-0.15488473
31	0xbe41a1d7	-0.18909393
32	0xbd2ab467	-0.04167595
33	0xbeca15df	-0.3946981
34	0xbe1e9052	-0.15484741
35	0xbc3bff36	-0.011474421
36	0xbcd6be11	-0.026213678
37	0x3e6cd55a	0.23128262
38	0x3e88767e	0.26652902
39	0xbb225f8d	-0.002477619
40	0xbe13d9ae	-0.14438507
41	0x3ea27abd	0.31734267
42	0x3e619a7f	0.22031592
43	0x3e6e6b88	0.23283207
44	0x3e165656	0.14681372
45	0x3e97e22e	0.2966475
46	0x3e800d1e	0.25010008
47	0x3e7f09da	0.24906102
48	0xbe4637cc	-0.19357222
49	0xbdb68777	-0.089125566
50	0xbde8fae2	-0.11375977
51	0x3cd13110	0.02553609
52	0xbdf0bf02	-0.11755182
53	0xbe3a7064	-0.18206936
54	0xbd594f9c	-0.053054437
55	0xbdcff9cc	-0.10155067
56	0xbec7f2f8	-0.39052558
57	0x3e17c6af	0.14821886
58	0x3e57e506	0.2108346
59	0x3cb95400	0.022623062
60	0x3e92c7b5	0.2866799
61	0xbea208bf	-0.31647298
62	0xbcd17d12	-0.025572333
63	0xbe459f98	-0.19299161
64	0xbd8338ca	-0.06407316
65	0xbe2e01a6	-0.16992816
66	0x3e821d98	0.25413203
67	0x3e9c767d	0.3055915
68	0x3ea24897	0.31696007
69	0x3e48bd37	0.1960343
70	0x3e357d13	0.17723493
71	0xbea4c93c	-0.3218478
72	0xbeacf0ec	-0.3377756
73	0x3eb22d3d	0.3480014
74	0x3d6df617	0.058096018
75	0xbec64fd0	-0.38732767
76	0xbe55fbba	-0.20896807
77	0x3dfb3a9c	0.12267038
78	0xbe9941b4	-0.2993294
79	0x3e9c1ea0	0.30492115
80	0xbca4df56	-0.020126026
81	0x3eb0f705	0.3456346
82	0xbea14ba3	-0.3150302
83	0xbe0904b9	-0.13380708
84	0x3d64bf34	0.055846408
85	0x3d8dccb8	0.06923813
86	0xbea9195e	-0.33027166
87	0xbe3cccdb	-0.18437521
88	0xbe728a69	-0.23685612
89	0xbd0175a8	-0.031606346
90	0xbe6f25fd	-0.23354335
91	0xbe8549c8	-0.26032853
92	0xbea06951	-0.3133035
93	0x3e30613b	0.1722459
94	0x3ead6cca	0.33872062
95	0xbe694083	-0.22778516
96	0xbccba0d8	-0.02485697
97	0x3dca4930	0.09877241
98	0x3e9bc46b	0.30423293
99	0x3d01cbef	0.031688627
100	0xbe1aaca0	-0.15104914
101	0xbe2435b6	-0.16036114
102	0xbec79b76	-0.38985795
103	0x3de191f8	0.110141695
104	0x3e546330	0.20740962
105	0x3d8e5aa8	0.06950885
106	0x3ea1d753	0.31609592
107	0x3e8ad2cb	0.27113947
108	0xbe9bdea0	-0.30443287
109	0xbc0dcf49	-0.008655378
110	0xbe4991c8	-0.19684517
111	0x3e7d3865	0.24728544
112	0xbe6e21e5	-0.23255117
113	0xbe0d1684	-0.1377812
114	0x3e28fdb2	0.16503027
115	0x3e76555a	0.24055997
116	0x3ea2ea42	0.3181935
117	0xbd160538	-0.03662607
118	0xbcdb3f5f	-0.026763616
119	0xbe764f2c	-0.24053639
120	0x3d77fe7a	0.060545422
121	0x3e19d754	0.15023547
122	0x3ec2753c	0.37980068
123	0x3e153734	0.1457184
124	0xbecaed98	-0.39634395
125	0xbe519d7a	-0.20470229
126	0x3e8e29bc	0.27766216
127	0x3efd7b06	0.49507922
128	0xbdaf4f8c	-0.08560094
129	0xbe4266fd	-0.189846
130	0x3e2e805a	0.1704115
131	0x3dd3f6cb	0.103498064
132	0x3db3452a	0.087534264
133	0x3e90be74	0.28270304
134	0x3dae7cca	0.085198954
135	0xbdc22598	-0.09479827
136	0xbee300f2	-0.4433666
137	0xbe3e9858	-0.18612802
138	0xbdd4a4ca	-0.103829935
139	0x3d52a218	0.051424116
140	0x3e8abc89	0.27096966
141	0xbe55b188	-0.20868504
142	0x3ebc7de7	0.36814806
143	0x3dbaf9f0	0.09129703
144	0xbde04116	-0.10949914
145	0xbe93026b	-0.28712782
146	0xbebb3450	-0.3656335
147	0x3e1def53	0.15423326
148	0xbded83ac	-0.1159738
149	0xbf14feb5	-0.5820115
150	0x3e2087a5	0.15676744
151	0x3e838730	0.25689077
152	0x3eb50c41	0.3536091
153	0x3e0d5269	0.13800968
154	0x3d4b3ab5	0.049616534
155	0x3e90856d	0.28226796
156	0xbe948c32	-0.2901321
157	0xbe9d1f24	-0.3068782
158	0x3ecd348f	0.40079162
159	0xbd987610	-0.07444394
160	0x3da4c378	0.08045095
161	0x3db41dcc	0.08794746
162	0xbdf617ed	-0.12016282
163	0xbebf3ca1	-0.37350944
164	0xbe4a4f20	-0.19756746
165	0x3f16c976	0.58901155
166	0xbe735f92	-0.23766926
167	0xbe6cf52a	-0.23140398
168	0x3dabbd32	0.083856955
169	0xbd8c51f6	-0.0685157
170	0x3e6fb58c	0.23409098
171	0x3c9930de	0.01870006
172	0x3e9954a8	0.299474
173	0x3e2b78bf	0.1674528
174	0xbec8e2d2	-0.3923555
175	0xbe83ffeb	-0.25781187
176	0xbcd4e79c	-0.025989346
177	0x3d060523	0.032719743
178	0x3e7e80c1	0.24853803
179	0xbd77b1ef	-0.060472425
180	0xbe9d4a56	-0.30720776
181	0x3ebc3900	0.36762238
182	0x3e8f409b	0.27978978
183	0xbe8c6d67	-0.27427217
184	0xbde48287	-0.111577086
185	0x3e877636	0.26457375
186	0xbebf4ab9	-0.37361696
187	0x3e32c968	0.17459643
188	0x3e7b34b0	0.24531817
189	0x3e80c436	0.25149697
190	0xbe9f4435	-0.31106725
191	0xbe771173	-0.2412775
192	0x3e11d149	0.14239992
193	0x3dda5eff	0.1066265
194	0xbdc6487a	-0.096817926
195	0x3e8257bc	0.2545756
196	0x3e3b70a5	0.18304689
197	0x3d86f45d	0.06589577
198	0xbedd3a50	-0.4320855
199	0xbe4dad80	-0.20085716
200	0x3e81773b	0.25286278
201	0xbe1237c0	-0.1427908
202	0xbe1be1f1	-0.15222909
203	0xbe98d598	-0.2985046
204	0x3e699b8c	0.22813243
205	0xbdb28614	-0.087169796
206	0x3cbb5c66	0.022871207
207	0xbef479fa	-0.4774931
208	0xbdd53cdb	-0.10411998
209	0x3e7b2c5b	0.24528639
210	0x3e2b2f27	0.16717206
211	0xbe97ebe5	-0.2967216
212	0x3c150fc9	0.009098002
213	0x3ec55e1c	0.38548362
214	0xbddb5251	-0.1070906
215	0xbe537171	-0.20648743
216	0xbcbc3da8	-0.022978619
217	0x3e1b6e88	0.15178883
218	0xbd3799fb	-0.04482458
219	0xbd080fd9	-0.03321824
220	0x3ebfad85	0.37437072
221	0xbdc39234	-0.095493704
222	0x3e86642c	0.262483
223	0x3eca211a	0.3947838
224	0x3e66de9b	0.22545855
225	0xbea45d41	-0.32102397
226	0xbe6b6d74	-0.22990972
227	0x3f0a66d2	0.5406314
228	0xbdf6d66d	-0.12052617
229	0x3e69bcb0	0.22825885
230	0xbe63e89c	-0.22256702
231	0x3e51d5cc	0.20491713
232	0xbe00d357	-0.1258062
233	0x3dcf686d	0.101273395
234	0xbdfd9bcd	-0.12383232
235	0x3df074c6	0.11741023
236	0xbee632f5	-0.44960752
237	0xbcd14f60	-0.025550544
238	0xbe1c7121	-0.1527753
239	0xbe2f5794	-0.17123252
240	0x3d7fbae7	0.062434103
241	0xbe5797ca	-0.21053997
242	0xbde7426f	-0.11291968
243	0x3dcee4e9	0.10102255
244	0x3cb96ba0	0.022634327
245	0x3e82b566	0.2552902
246	0x3c0abf93	0.008468526
247	0x3e8d414f	0.2758889

net_layers.1.bias f4 [4]
0	0x3da33de0	0.07970786
1	0xbd208823	-0.03919233
2	0xbdf73e6d	-0.12072454
3	0x3d83173d	0.06400917
