dialogue_manager/model/weights/trained_model0.7.pt (torch_old, 2977 bytes, 2 tensors)

net_layers.0.weight f4 [6, 99]
000000 98 28 97 3e e2 69 43 3d ad f6 33 3d ec a1 00 00
       0.29523158 0.0477084 0.04393642 5.8087e-41
000010 97 2b 03 3f c1 83 00 80 06 00 00 00 3d 29 00 00
       0.5123839 -4.7264e-41 8e-45 1.4794e-41
000020 da ab 00 80 38 95 00 00 c0 31 a9 1e 4b 29 ce bd
       -6.1649e-41 5.353e-41 1.7914147e-20 -0.1006647
000030 25 74 00 80 55 b6 00 80 16 ab 00 00 b0 9b 00 80
       -4.1665e-41 -6.5408e-41 6.1374e-41 -5.585e-41
000040 f8 61 00 00 0e 79 00 80 47 ae 04 3d 23 9d 00 80
       3.5145e-41 -4.3426e-41 0.032392766 -5.637e-41
000050 20 fe 23 be 3d 58 00 00 35 57 00 00 80 12 e8 bd
       -0.1601491 3.1654e-41 3.1284e-41 -0.113316536
000060 6d 82 00 80 d5 a4 00 00 96 55 00 00 d4 2a 00 80
       -4.6788e-41 5.913e-41 3.0702e-41 -1.5364e-41
000070 8d 86 00 00 cc 6e 00 80 b7 cc 50 28 f6 47 00 00
       4.8268e-41 -3.9746e-41 1.159071e-14 2.5815e-41
000080 c4 59 e8 bd 9d b5 00 80 4d 08 ff 36 47 8e 8b bd
       -0.113452464 -6.515e-41 7.6005585e-06 -0.068142466
000090 c4 bc 00 80 b8 7b 00 00 5d c9 b7 aa 39 0a 00 80
       -6.7716e-41 4.4382e-41 -3.2647054e-13 -3.667e-42
0000a0 e6 78 00 00 10 40 00 80 0e 08 00 80 54 7e 00 80
       4.337e-41 -2.2981e-41 -2.89e-42 -4.5318e-41
0000b0 47 8e 8b bd 63 af 00 80 6c 79 00 00 c6 e2 8c bd
       -0.068142466 -6.2917e-41 4.3558e-41 -0.06879191
0000c0 7c ad 00 80 d3 1a 00 80 3d 1d 00 00 7e 7d 00 80
       -6.2234e-41 -9.623e-42 1.0489e-41 -4.5018e-41
0000d0 ab 70 84 2b 80 1f 00 00 57 4d 00 80 37 57 00 00
       9.410436e-13 1.13e-41 -2.7744e-41 3.1287e-41
0000e0 c7 e2 8c bd 5a 62 00 80 0b 73 00 00 08 e0 3f bd
       -0.06879192 -3.5282e-41 4.127e-41 -0.046844512
0000f0 41 25 00 80 44 52 41 2e bb 53 00 80 be 33 00 80
       -1.3364e-41 4.3956186e-11 -3.0037e-41 -1.8562e-41
000100 1e 66 00 80 27 89 00 00 4b 54 00 80 69 8c 00 80
       -3.6633e-41 4.9201e-41 -3.0239e-41 -5.037e-41
000110 0b e0 3f bd 12 4b 00 00 8c 39 00 80 08 e0 3f bd
       -0.046844523 2.693e-41 -2.0644e-41 -0.046844512
000120 09 3d 00 00 76 8d 00 00 84 23 ba 29 d2 2e 00 80
       2.1895e-41 5.0747e-41 8.26622e-14 -1.6796e-41
000130 9d 96 00 00 e8 67 00 00 98 90 00 00 25 92 00 80
       5.403e-41 3.7275e-41 5.187e-41 -5.2427e-41
000140 08 e0 3f bd fd 98 00 00 72 44 00 00 09 e0 3f bd
       -0.046844512 5.4882e-41 2.4554e-41 -0.046844516
000150 dd 30 00 00 e0 c7 90 b4 87 17 00 80 e2 80 00 80
       1.7529e-41 -2.6967518e-07 -8.44e-42 -4.6234e-41
000160 c8 be 00 00 05 7b 00 80 98 72 12 b1 5a 00 be b7
       6.844e-41 -4.4131e-41 -2.1310935e-09 -2.2649929e-05
000170 08 e0 3f bd 86 ea 02 b0 d6 c1 00 80 8e 21 00 00
       -0.046844512 -4.7627e-10 -6.9535e-41 1.2037e-41
000180 3b 1a 00 00 ef 3e 00 80 42 73 00 00 71 cc a7 3e
       9.41e-42 -2.2576e-41 4.1347e-41 0.32773164
000190 80 da 77 3d 6e 91 09 3d 67 9d 8a 2e 54 22 08 3f
       0.060511112 0.03358596 6.303474e-11 0.5317738
0001a0 eb 42 00 00 64 41 00 80 e8 29 00 80 c4 76 00 80
       2.4006e-41 -2.3458e-41 -1.5033e-41 -4.2605e-41
0001b0 b9 0c 00 00 d6 71 24 b3 4a 04 6b bd 08 37 00 80
       4.564e-42 -3.828776e-08 -0.057377137 -1.9741e-41
0001c0 a9 86 00 80 ef 62 00 80 12 8d 00 80 ff 55 00 80
       -4.8307e-41 -3.549e-41 -5.0606e-41 -3.085e-41
0001d0 20 78 00 00 47 61 9f 3d b4 0a 0d 2b 3c 22 15 be
       4.3093e-41 0.07782226 5.0108116e-13 -0.1456384
0001e0 5d 05 00 00 5b 82 00 00 d0 3a b6 bd ad 84 00 80
       1.924e-42 4.6763e-41 -0.08897936 -4.7595e-41
0001f0 1a d6 66 23 6f c1 00 80 a8 29 00 80 0f 45 00 00
       1.2513663e-17 -6.9391e-41 -1.4943e-41 2.4774e-41
000200 05 23 00 80 33 58 4e 36 0c 07 00 00 f8 63 bb bd
       -1.2563e-41 3.074773e-06 2.528e-42 -0.09149927
000210 69 bd 00 00 6c 36 00 00 1f a9 86 bd 22 52 00 80
       6.7948e-41 1.9523e-41 -0.06575226 -2.9464e-41
000220 5e 1d 00 80 51 07 8b 2b 69 52 00 00 20 ad 00 80
       -1.0535e-41 9.878575e-13 2.9563e-41 -6.2106e-41
000230 f0 7f 00 00 02 70 00 00 fe 8f 00 80 20 a9 86 bd
       4.5895e-41 4.0181e-41 -5.1655e-41 -0.06575227
000240 38 f1 0e a6 b1 23 00 80 de b4 d1 bc a3 4b 00 80
       -4.959306e-16 -1.2804e-41 -0.02559894 -2.7133e-41
000250 b5 60 00 80 b0 a1 00 00 be 34 00 00 dd 5a 00 00
       -3.4692e-41 5.8003e-41 1.892e-41 3.2596e-41
000260 50 4d 00 00 5f a6 00 00 d7 1a 00 00 38 9c d1 bc
       2.7734e-41 5.9683e-41 9.628e-42 -0.025587186
000270 77 10 00 00 8f 10 00 80 46 60 dc ac 44 71 3a b3
       5.906e-42 -5.94e-42 -6.2634646e-12 -4.3409514e-08
000280 7c 18 00 80 e0 38 00 80 3c 7d 00 80 23 55 00 80
       -8.783e-42 -2.0403e-41 -4.4926e-41 -3.0541e-41
000290 ad e8 31 2d 75 b7 00 00 1a 45 00 80 c4 60 dc ac
       1.01129495e-11 6.5812e-41 -2.4789e-41 -6.2635192e-12
0002a0 e9 3a 00 80 e8 53 00 80 17 4c 00 80 1f 50 89 2c
       -2.1133e-41 -3.01e-41 -2.7296e-41 3.9026694e-12
0002b0 1e 43 00 80 83 1a 00 80 89 92 00 00 d9 21 00 80
       -2.4077e-41 -9.51e-42 5.2567e-41 -1.2142e-41
0002c0 22 86 00 80 28 7a 00 80 d9 41 00 00 f8 46 00 80
       -4.8118e-41 -4.3821e-41 2.3622e-41 -2.5459e-41
0002d0 06 61 00 00 41 9b 00 00 67 49 00 80 c2 bc 00 80
       3.4805e-41 5.5695e-41 -2.6332e-41 -6.7714e-41
0002e0 da 38 00 80 19 85 00 00 56 62 00 00 4f 26 00 80
       -2.0394e-41 4.7746e-41 3.5276e-41 -1.3743e-41
0002f0 72 9e 00 00 38 5f 00 00 37 16 00 00 05 45 00 80
       5.684e-41 3.4158e-41 7.969e-42 -2.476e-41
000300 94 24 00 00 d2 97 00 80 84 8e 00 00 bb 82 00 80
       1.3122e-41 -5.4463e-41 5.1125e-41 -4.6897e-41
000310 74 3d 00 00 0a 55 00 80 29 b2 c8 3e 78 9e b1 3e
       2.2045e-41 -3.0506e-41 0.39198425 0.34691215
000320 06 64 a1 3e 6b 1c 00 80 6a a2 9f 3f 4c 25 00 80
       0.31521624 -1.0194e-41 1.247144 -1.338e-41
000330 35 5c 00 80 d5 ba 00 00 26 67 00 80 09 33 00 00
       -3.3078e-41 6.7023e-41 -3.7003e-41 1.8308e-41
000340 4b 3a 00 00 8f 39 0c be ea 0c 83 19 46 4f 00 80
       2.0912e-41 -0.13693832 1.3550298e-23 -2.8438e-41
000350 26 42 00 00 95 45 00 80 9e 32 00 80 ac ad c9 b2
       2.373e-41 -2.4961e-41 -1.8158e-41 -2.3478457e-08
000360 e3 79 91 3d 85 69 00 80 62 a8 92 be d9 56 00 00
       0.07103326 -3.7853e-41 -0.2864409 3.1155e-41
000370 81 33 00 00 b8 f3 03 be 89 0a 00 00 44 22 00 00
       1.8476e-41 -0.1288594 3.78e-42 1.2292e-41
000380 bd a4 00 80 bc 23 00 00 bc bb 00 80 4c 69 00 00
       -5.9097e-41 1.2819e-41 -6.7346e-41 3.7773e-41
000390 45 68 8b 38 05 0b 00 00 e9 0b 11 be 24 57 00 80
       6.647458e-05 3.953e-42 -0.141647 -3.126e-41
0003a0 98 31 00 80 9d 6c de bd 82 82 00 00 de 79 00 00
       -1.7791e-41 -0.1086056 4.6817e-41 4.3718e-41
0003b0 83 14 00 80 e2 1c 00 00 0c d5 fa 32 25 bb 00 80
       -7.358e-42 1.0361e-41 2.9200713e-08 -6.7135e-41
0003c0 b6 38 00 00 a0 82 00 00 9d 6c de bd fe 09 00 80
       2.0344e-41 4.686e-41 -0.1086056 -3.585e-42
0003d0 1e 77 00 00 98 c2 c1 bd f0 29 00 80 08 ad 00 80
       4.2731e-41 -0.09460944 -1.5044e-41 -6.2072e-41
0003e0 ca 4f 00 80 b7 36 b7 b6 d2 58 00 80 79 f7 6a 38
       -2.8623e-41 -5.4601946e-06 -3.1863e-41 5.6020424e-05
0003f0 8c 48 00 80 54 04 b8 ad 97 c2 c1 bd b5 4b 00 80
       -2.6025e-41 -2.09203e-11 -0.09460943 -2.7159e-41

net_layers.0.bias f4 [6]
000000 d3 2d 03 3f f2 21 08 3f 17 e9 9f 3f 59 36 0a 3f
       0.512418 0.53176796 1.2493008 0.5398918
000010 d9 54 97 3f 3a 2b 0c 3f
       1.1822768 0.5475346
