dialogue_manager/model/weights/trained_modelXKCD0.7.pt (torch_old, 2977 bytes, 2 tensors)

net_layers.0.weight f4 [6, 99]
00000000: 499f 503e ea9c f13c 5a62 ff3c 821c 83b5
00000010: 9fc3 923e 48bc 6e38 ab2b 0000 cf80 0000
00000020: 8fb4 0080 7b2d 0000 a211 0000 7a8a 02bd
00000030: ad37 0000 9e44 0080 b85c 112d 7e95 0080
00000040: 5da5 0000 4b12 0080 6ca9 4d3d e783 0000
00000050: 856e 98bd 1a52 0080 dc17 0000 678b c7bc
00000060: b49f 0080 f14c 0080 197d 0080 fbea 3bb8
00000070: 7c5c 0000 d919 0080 5c32 3fbc 1489 0000
00000080: 8df3 32bc f813 bcb0 374c 0000 349c 83b3
00000090: de5d 0080 ff64 0000 1711 0080 e884 0000
000000a0: 04b3 0000 6452 0000 f8a4 0080 2c9c 0000
000000b0: 2478 82b3 5818 dcb8 9a70 c8a8 aebe 2ea8
000000c0: 0f9a a9b0 7d1e 0080 06bf 0000 cd63 0000
000000d0: d7a3 0080 9712 0000 cb29 0080 9a97 0000
000000e0: e7ba 2ea8 843c 0000 7622 3aa0 1254 0080
000000f0: 8a79 a5ae 897e 0000 ab8d 0000 a624 0000
00000100: 1bbd 77b8 d196 0000 a35a 0000 cae1 1b36
00000110: 8452 0080 5122 0080 cc17 0000 35ae 0080
00000120: e406 0080 a447 0080 f427 0080 f13a 0080
00000130: c668 0080 4054 0080 4b2a 0000 3b4f 0080
00000140: 1c58 0080 f837 0529 581c 0080 345f 0000
00000150: 6d51 0080 7aa2 0000 e39f 0080 8a4c 0080
00000160: 0e4c d2ad 0d3e 0000 4f78 0080 16aa 9d32
00000170: b897 0000 0c90 0080 c97a 0000 fde4 1739
00000180: 304b df26 b165 0000 c805 a2b7 8bd1 483e
00000190: 8d6b 1e3d fc44 473d 9826 0080 1b9f 9c3e
000001a0: 144f 0000 8189 0000 bf26 0000 2460 0080
000001b0: d16f 0000 8085 0000 7eae 58bc 607f 0080
000001c0: e61d 0000 a92b 0000 0703 0000 2a72 0080
000001d0: 6d4c 0080 046c 4d3d e0a5 0000 0dee 6fbd
000001e0: aaaa 0000 a71a 0080 3cbc 0dba 79ab 0080
000001f0: 886f 0080 6947 0080 fcb1 28b1 1665 0080
00000200: 89a2 0080 d0ec 2934 5112 0080 b6e7 24b9
00000210: d31b 0000 7d9f 0000 e129 cdb8 d08c 30b9
00000220: be95 0080 349a 0000 b78f 0080 6487 0080
00000230: ef5f 0000 a694 b22e c89c e332 2a21 eeb7
00000240: b16f 1629 9906 9ab5 73bb 78ae 00f6 acb2
00000250: 93a9 0000 4e82 0000 d54b 0080 16b9 0000
00000260: bd33 0080 c295 0080 2d40 0000 73b9 78ae
00000270: 6677 0080 fb54 0080 b3f8 70ac ed8f 0000
00000280: 1e31 0000 e93c 0080 e89c 0080 3952 0000
00000290: 6a1d 2fb3 d6c5 d0b2 b017 2a2a 53fa 70ac
000002a0: c12b 0080 9f7a 0080 82f8 70ac 8125 0080
000002b0: b102 0000 e946 0000 f776 0000 6a2a 0080
000002c0: 8f7c 0000 160d f2a9 7672 cf37 82f8 70ac
000002d0: c4ba 0000 34a4 0080 086f 0080 687b 0080
000002e0: 1143 8431 415b 0000 bb1a 0000 715c 0000
000002f0: a01b 0080 6b56 0000 4b40 0000 9368 0080
00000300: 3b99 0000 9464 0000 3a9c 0080 0348 0000
00000310: 9d2d 0080 f25b 0080 1abb c43e ffdc 7e3e
00000320: b173 633e 012a 0080 00bf 6f3f 2402 0080
00000330: cc1b 0000 a83e 1b2a b011 0000 dd07 0080
00000340: 6c03 0000 79d3 9ebd 8044 0000 120e 8db8
00000350: 54e9 c936 721e 0000 9981 4a2f a338 0080
00000360: c500 ca3d f01f e1b3 59ed 45be a88b 0080
00000370: 879a 0000 6d82 73bd ff5b 0000 8c76 0080
00000380: 833f 0000 62bc 0000 fc14 0000 a70b 0080
00000390: ce0a 18bd 29bd 0080 9eb4 17bd 2b43 0000
000003a0: 7d21 0080 6751 c6bc b9a3 0000 2cb1 94b4
000003b0: 4f00 0000 1e48 0080 681e 0080 9c0f 0000
000003c0: 264c 0080 4f79 0080 ca50 c6bc 00ff a231
000003d0: 6923 0000 e379 4cbc cec4 0080 b11f 0000
000003e0: bd64 0080 7d81 0000 dd2b 0080 f51c 0080
000003f0: ec9d 0000 426e 0080 e379 4cbc 7a6e 0929
0.20373262 0.029493768 0.031174827 -9.768557e-07 0.28664872 5.6918972e-05 1.5665e-41 4.6208e-41
-6.4772e-41 1.6315e-41 6.325e-42 -0.031870343 1.9973e-41 -2.4615e-41 8.262883e-12 -5.3628e-41
5.9321e-41 -6.562e-42 0.0502104 4.7318e-41 -0.07442955 -2.9452e-41 8.559e-42 -0.024358464
-5.729e-41 -2.7601e-41 -4.4877e-41 -4.4803117e-05 3.3177e-41 -9.272e-42 -0.011669721 4.9174e-41
-0.010922325 -1.3684476e-09 2.7341e-41 -6.128576e-08 -3.3673e-41 3.623e-41 -6.13e-42 4.7678e-41
6.4219e-41 2.9556e-41 -5.918e-41 5.6024e-41 -6.07545e-08 -0.00010494952 -2.2253294e-14 -9.700287e-15
-1.2340154e-09 -1.0937e-41 6.8526e-41 3.5802e-41 -5.8775e-41 6.669e-42 -1.4992e-41 5.4384e-41
-9.699468e-15 2.1709e-41 -1.5766215e-19 -3.0159e-41 -7.524921e-11 4.5392e-41 5.0821e-41 1.3147e-41
-5.9065507e-05 5.4103e-41 3.2514e-41 2.3228226e-06 -2.9601e-41 -1.231e-41 8.537e-42 -6.2494e-41
-2.472e-42 -2.57e-41 -1.4332e-41 -2.1144e-41 -3.7586e-41 -3.0223e-41 1.5172e-41 -2.8423e-41
-3.1608e-41 2.9580478e-14 -1.0168e-41 3.4152e-41 -2.921e-41 5.8286e-41 -5.7357e-41 -2.7457e-41
-2.3908011e-11 2.226e-41 -4.3159e-41 1.8354552e-08 5.4426e-41 -5.1674e-41 4.4047e-41 0.00014485787
1.5494113e-15 3.648e-41 -1.9314597e-05 0.19611184 0.038676787 0.048649773 -1.3845e-41 0.30590138
2.8368e-41 4.9327e-41 1.39e-41 -3.4489e-41 4.0112e-41 4.7891e-41 -0.013225196 -4.5694e-41
1.0726e-41 1.5662e-41 1.086e-42 -4.0954e-41 -2.7416e-41 0.05015184 5.9505e-41 -0.058576632
6.1223e-41 -9.561e-42 -0.0005406772 -6.1513e-41 -4.001e-41 -2.5617e-41 -2.454839e-09 -3.6263e-41
-5.8307e-41 1.5825503e-07 -6.57e-42 -0.00015726578 9.981e-42 5.7214e-41 -9.782962e-05 -0.00016837125
-5.3717e-41 5.5318e-41 -5.1555e-41 -4.8569e-41 3.4414e-41 8.120908e-11 2.6497574e-08 -2.8387254e-05
3.3403568e-14 -1.1475814e-06 -5.655516e-11 -2.0135303e-08 6.0832e-41 4.6745e-41 -2.7203e-41 6.6396e-41
-1.856e-41 -5.3723e-41 2.3022e-41 -5.6553384e-11 -4.2832e-41 -3.0485e-41 -3.4244107e-12 5.1631e-41
1.762e-41 -2.185e-41 -5.6287e-41 2.9496e-41 -4.0772115e-08 -2.4304352e-08 1.5107251e-13 -3.424501e-12
-1.5696e-41 -4.3988e-41 -3.4244e-12 -1.3454e-41 9.65e-43 2.5438e-41 4.2677e-41 -1.5215e-41
4.4683e-41 -1.0749229e-13 2.4729623e-05 -3.4244e-12 6.6999e-41 -5.8905e-41 -3.983e-41 -4.427e-41
3.84933e-09 3.2736e-41 9.589e-42 3.3162e-41 -9.91e-42 3.1001e-41 2.3064e-41 -3.7514e-41
5.4969e-41 3.608e-41 -5.6044e-41 2.5833e-41 -1.6363e-41 -3.2984e-41 0.38423997 0.24888991
0.22212102 -1.5068e-41 0.9365082 -7.68e-43 9.972e-42 1.3788504e-13 6.345e-42 -2.821e-42
1.228e-42 -0.07755179 2.4573e-41 -6.726025e-05 6.0174298e-06 1.0922e-41 1.8417835e-10 -2.0317e-41
0.09863428 -1.04831884e-07 -0.19328822 -5.0099e-41 5.5434e-41 -0.059450556 3.3002e-41 -4.2527e-41
2.2784e-41 6.7579e-41 7.528e-42 -4.18e-42 -0.03711968 -6.7858e-41 -0.037037484 2.4095e-41
-1.2013e-41 -0.024208738 5.8733e-41 -2.7696058e-07 1.11e-43 -2.5871e-41 -1.0908e-41 5.6e-42
-2.7317e-41 -4.3517e-41 -0.024208445 4.7438107e-09 1.2703e-41 -0.012480232 -7.06e-41 1.1369e-41
-3.6138e-41 4.6452e-41 -1.5735e-41 -1.0388e-41 5.6652e-41 -3.9553e-41 -0.012480232 3.0515934e-14

net_layers.0.bias f4 [6]
00000000: 6fce 923e 818d 9c3e 541b 713f fd81 963e
00000010: 38a4 6d3f cd4b 9b3e
0.2867312 0.3057671 0.94182324 0.29396048 0.928287 0.3033127
