dialogue_manager/model/weights/trained_modelSAMPLEDCOMPOSITE0.0.pt (torch_old, 3001 bytes, 2 tensors)

net_layers.0.weight f4 [6, 100]
00000000: 02a2 db3d 4f32 f43d 1474 b23d d410 aebc
00000010: f925 d83d b705 c93d 66a3 13bd 6011 ffbb
00000020: a231 2b3d 22f8 903e b381 983d 3fd0 553e
00000030: 00ac 0f3c 401a 47bb 7d47 24bd 6796 383e
00000040: 93b8 96bd d8ef 8dbc 9a55 433e 2cbb 9ebc
00000050: 0427 003e ff20 093e da27 263d e935 953c
00000060: 6a1a 5a3d e8ec c1bc ad7d 70bd 6036 57bb
00000070: da48 313d dfe1 c4bd 9cc1 193e fd4a 99bd
00000080: 06c1 a83d 0872 ca3c 820d 6c3d 9c62 7a3d
00000090: 185d b5bd 75d9 b43d 882b b3bc dc59 89bd
000000a0: 7802 9cbd 635a 813d 62f0 593d c05d 143c
000000b0: 199a 923d 2c64 d4bc f448 f5bc 2385 96ba
000000c0: aec3 9ebd 6a02 6c3d 52ff 433d 5257 663d
000000d0: b87b 94bc d36b 44bd 3b76 613c 202d b6bc
000000e0: 0c9b b93c 13b3 c4bd e07d 78bd b423 ad3c
000000f0: 38be a3bc 4b32 8f3d 7a5c a8bd 72e4 063d
00000100: 0002 a039 87bc 35bd 027c 98bd 035b 4ebd
00000110: 541a 97bc f36f bebd 76ab 05bd 30e8 9cbb
00000120: 4295 063d a131 a83d 40cd 8f3a 270c 953d
00000130: 7d60 2cbd 6bec a83d 9431 edbc 60d5 4c3b
00000140: bf38 8c3d 35e3 b53d 8cdf 06bd ba54 15bd
00000150: 386b b83c 109e 63bd ea93 8ebd 6003 2bbb
00000160: d361 a43d a87a dfbc d065 4c3c a584 9fbd
00000170: 5afe c4bd e6c5 2d3d ec2e f7bc 4055 34bb
00000180: 543f 893c 661c 99bd 2815 79bc 5c3d 953d
00000190: f8e0 4fbe 3172 4ebe 8b5e 55be 8088 c73b
000001a0: dda7 1fbe 2077 ac3b c0c8 ecbc 6200 99bd
000001b0: 678f 983d 50be 2bbd 4279 90bd f764 383e
000001c0: d099 b4bb 1e8b 90bd 13eb a4bd 1abb 29bd
000001d0: c011 2b3b 606f d6bb be61 2f3e 14f4 83bd
000001e0: 4ca0 9a3d 84fd ff3c 8020 ed3a 61ef 0c3e
000001f0: 6d62 21bd a07d 75bd ebbc b23d 2266 7e3d
00000200: a02e e33b 8110 a13d 56bf fd3c cb92 bc3d
00000210: a294 ad3d b2ab cbbd 80e4 7ebd cd50 5b3c
00000220: 41e5 8d3d 88a4 8bbc 7e37 203d 5849 9abd
00000230: 62fa 623d 5df2 ca3d 1f54 8e3d 202a b9bd
00000240: c137 b73d 4feb b33d 656d af3d 9ea4 4abd
00000250: c709 58bd 82bf 023d 6a48 32bd 8d95 4abd
00000260: 4a2a 03bd d2e6 6b3d 9fa8 203c 5887 453c
00000270: ce5d df3d c2d1 253d 29d7 8c3d 609b b0bb
00000280: b6e6 6e3d e53c 88bd cd74 ab3d cc95 bebc
00000290: 3e90 303d 0dc1 58bd 40e7 19bc 8ab8 3e3d
000002a0: b49a 83bd 0262 463d 587c a9bd 297d 833d
000002b0: 00c0 d839 be35 3d3d eacb 543d 370c 4abd
000002c0: 57e2 803d a65b 313d 80e3 573c aa6e 4c3d
000002d0: 15ab a4bd 2fb7 9a3d a036 10bd 35bc 90bd
000002e0: 4c7c 9abc c14b 913d 90cd 55bc 0559 9c3d
000002f0: f6e9 abbd d839 c7bd d401 8e3c 0ee1 aabd
00000300: 3af4 163d 626b 1b3d 79e4 b73d 8c55 12bd
00000310: d866 7f3c 12d8 683d d154 b13d f06c f9bc
00000320: 6308 f03e de4a 053f e8fd ef3e a110 ba3d
00000330: 3bf7 033f b5a8 b43d 1558 cbbd f119 883d
00000340: b097 4fbc 696a 0b3d 2d19 23bd 933e 9f3e
00000350: 601a 883c a659 353d 1305 39bd 0eda 573d
00000360: 1145 983d 320d 4a3d 6930 ab3e f815 aa3c
00000370: f76f 643e 07af c8bd d3bc 6cbd 9cf2 ec3d
00000380: 9074 8fbd 302a 023c 1a1a 793d 660c 3f3d
00000390: c6e2 503d 6cf7 ea3c 5255 c93d 8d91 34bd
000003a0: d245 dc3d 4b83 a53d 2ebd 083d d7a2 1a3d
000003b0: fcab 8cbd 3da4 803d 8ee0 363d 8903 aa3d
000003c0: 0330 98bd 19eb a43d cb09 133d 1822 f8bc
000003d0: 5cc4 adbd a81d 02bc a801 c7bd b784 ce3d
000003e0: 2110 a43d da23 21bd 3060 a8bd d026 3c3c
000003f0: 4b8b 8fbd 4af6 2abd 504b b93b 00b4 ddba
0.1072426 0.11923658 0.087135464 -0.021248259 0.10554118 0.09815543 -0.0360445 -0.0077840537
0.04179538 0.2831431 0.07446613 0.20880221 0.008769035 -0.0030380636 -0.04010724 0.18026124
-0.073594235 -0.01732628 0.19075623 -0.01937636 0.12514883 0.13391493 0.04056535 0.018214183
0.053247847 -0.023672536 -0.058713604 -0.0032838807 0.043282367 -0.09613394 0.15015262 -0.07485006
0.08239941 0.024712577 0.05763007 0.061129197 -0.08855647 0.08830539 -0.021871343 -0.067065924
-0.076176584 0.06316068 0.053207763 0.009055555 0.07158298 -0.025926672 -0.029942013 -0.001148377
-0.07752167 0.05761949 0.047850914 0.05623562 -0.0181254 -0.04795439 0.0137610985 -0.022238314
0.02265694 -0.09604468 -0.06066692 0.021135189 -0.019988164 0.069920145 -0.082207635 0.032932706
0.00030519068 -0.044369247 -0.074455276 -0.050379764 -0.018445171 -0.09298696 -0.03263422 -0.004788421
0.032857187 0.08212591 0.0010971203 0.072777085 -0.042084206 0.08248218 -0.028954305 0.003125511
0.06846761 0.08881227 -0.032928035 -0.036457755 0.022512063 -0.055570662 -0.06961806 -0.002609454
0.08026471 -0.027280167 0.012475446 -0.07788972 -0.09618826 0.04242506 -0.030173741 -0.0027516633
0.01675383 -0.0747612 -0.015202798 0.07287094 -0.20300663 -0.20160748 -0.20836847 0.00608927
-0.15591379 0.0052632242 -0.028904319 -0.07470776 0.07449227 -0.041929543 -0.07054378 0.18007265
-0.0055115 -0.070577845 -0.08052649 -0.0414382 0.002610311 -0.0065440387 0.1712713 -0.064430386
0.075501055 0.031248815 0.0018091351 0.13763191 -0.039400507 -0.05993426 0.087274395 0.06210912
0.0069330484 0.07864476 0.030975025 0.09207686 0.08475615 -0.09944858 -0.062229633 0.013385964
0.06928492 -0.017046228 0.03911542 -0.075335205 0.055414565 0.099095084 0.069496386 -0.09041238
0.08946181 0.08785116 0.08565787 -0.049473397 -0.0527437 0.031920917 -0.04352609 -0.04945903
-0.032022752 0.057593174 0.009805827 0.012056194 0.10906564 0.040483244 0.06876976 -0.005389616
0.05832549 -0.0665224 0.08371887 -0.023264788 0.04310631 -0.052918483 -0.009393513 0.04656271
-0.06425992 0.04843331 -0.0827567 0.06420357 0.00041341782 0.04619383 0.05195228 -0.049328055
0.06293171 0.043300293 0.013176799 0.049910225 -0.08040444 0.07554471 -0.035208344 -0.07067148
-0.018858097 0.07094527 -0.013049498 0.07634167 -0.08394234 -0.0972783 0.017334856 -0.08343707
0.036854006 0.037944205 0.089791246 -0.035726115 0.015588485 0.056846686 0.086587556 -0.030447453
0.468814 0.52067363 0.46873403 0.09085203 0.5154912 0.08821241 -0.0992891 0.06645573
-0.012670442 0.034037028 -0.03981893 0.31102428 0.01661414 0.04427495 -0.045170855 0.052698188
0.07435048 0.04932899 0.33435372 0.020762429 0.22308336 -0.09799009 -0.057797264 0.115697116
-0.070046544 0.007944629 0.060815908 0.046642683 0.050997518 0.028682433 0.09830727 -0.04408412
0.10755505 0.08081683 0.03338354 0.037752952 -0.06868741 0.06281326 0.044647746 0.083014555
-0.074310325 0.08052654 0.03589801 -0.030289695 -0.08484718 -0.007941641 -0.09717113 0.10083907
0.08010889 -0.03934083 -0.08221471 0.011483863 -0.0700899 -0.041738786 0.00565473 -0.0016914606

net_layers.0.bias f4 [6]
00000000: 8d60 6f3c c966 253f 5200 283f 1b27 933e
00000010: 7215 213f 9629 023e
0.014610422 0.6460996 0.6562549 0.28740773 0.6292335 0.12711176
