dialogue_manager/model/weights/trained_model0.5.pt (torch_old, 164631 bytes, 8 tensors)

net_layers.0.weight f4 [115, 115]
0	0x3d905390	0.07047188
1	0x3d2afd07	0.041745212
2	0xbd029453	-0.031879734
3	0x3d29e1d8	0.041475147
4	0xbd8cf28c	-0.068822
5	0xbc562f78	-0.013072841
6	0xbdbcc7b1	-0.092177756
7	0xbdafe661	-0.08588863
8	0xbc8797c4	-0.01655186
9	0xbd391fb4	-0.04519625
10	0xbef835d6	-0.48478574
11	0xbecf1abb	-0.4045008
12	0xbed6d8a5	-0.41962162
13	0xbee62d0b	-0.4495624
14	0xbd76e9b0	-0.060281456
15	0xbd6e1579	-0.058125947
16	0x3f63bcbd	0.88959867
17	0xbe72b9fe	-0.23703763
18	0xbd16f4a5	-0.036854405
19	0xbd06a61f	-0.03287327
20	0xbeb677e9	-0.3563836
21	0xbd875054	-0.06607118
22	0x3a0d6980	0.0005394444
23	0xbe625520	-0.22102785
24	0xbe0c4940	-0.13699818
25	0xbd2044a1	-0.03912795
26	0xbdc2eb4e	-0.09517537
27	0xbe08f87b	-0.13376038
28	0xbd46f5c6	-0.04857423
29	0xbccb02e0	-0.024781644
30	0x3f2b6732	0.6695434
31	0x3e188389	0.14893927
32	0x3d8c8902	0.0686207
33	0xbc536f28	-0.01290492
34	0x3d333417	0.04375085
35	0x3cdcbbe0	0.026945055
36	0x3d3840c8	0.044983655
37	0xbe60064d	-0.21877404
38	0x3d51210b	0.051056903
39	0xbd29aec8	-0.04142645
40	0xbeba8d5b	-0.3643597
41	0xbd923883	-0.07139685
42	0xbdb68058	-0.089111984
43	0xbd0574e1	-0.032582168
44	0xbeae6437	-0.34060833
45	0xbe71dc4e	-0.23619196
46	0x3a804100	0.0009784997
47	0xbd9e7742	-0.077375904
48	0xbe6a1ccf	-0.22862552
49	0xbc517640	-0.012784541
50	0x3c0c00b8	0.008545093
51	0xbe9826e7	-0.2971718
52	0xbeb8a919	-0.3606651
53	0xbdc5d824	-0.09660366
54	0xbe73e46a	-0.23817602
55	0xbe8491b1	-0.25892404
56	0xbc4ca6e0	-0.012490958
57	0xbbe4dae0	-0.0069840997
58	0xbea8b25c	-0.32948577
59	0xbf0312fc	-0.5120084
60	0x3d86a814	0.06575027
61	0x3d9078f2	0.070543185
62	0xbe3e851f	-0.18605469
63	0xbd833219	-0.0640604
64	0x3d61158c	0.05495219
65	0xbe6b581b	-0.22982828
66	0xbe7ca90c	-0.24673861
67	0xbdd18794	-0.102309376
68	0xbee0b9d7	-0.43891785
69	0xbe34eddc	-0.17668861
70	0xbcc0e9f4	-0.023549058
71	0xbd1de091	-0.03854424
72	0xbee41bd9	-0.44552496
73	0xbef5add8	-0.47984195
74	0x3b649cc0	0.003488347
75	0x3b21f6c0	0.0024713725
76	0xbde87b24	-0.11351612
77	0x3c3a5750	0.011373356
78	0x3dadcc86	0.084862754
79	0xbe7398a3	-0.23788695
80	0xbec5980b	-0.38592562
81	0xbea8f605	-0.33000198
82	0xbec96b68	-0.39339757
83	0xbe2ede8c	-0.17077082
84	0xbd6b3b64	-0.057429686
85	0xbd6cfb46	-0.05785682
86	0xbe9646f9	-0.29351023
87	0xbefd82c0	-0.49513817
88	0xbaf0e400	-0.0018378496
89	0xbd433c4d	-0.04766493
90	0xbe7868f6	-0.2425879
91	0x3ba686e0	0.0050819963
92	0x3d42dec4	0.047575727
93	0xbebf5294	-0.3736769
94	0xbe84fddf	-0.25974938
95	0xbf0d8c5d	-0.552923
96	0xbee7c335	-0.4526612
97	0xbeada889	-0.33917645
98	0xbd930f0d	-0.07180605
99	0xbd206b65	-0.03916492
100	0xbeb29c00	-0.34884644
101	0xbf6333bf	-0.88750833
102	0x3d8889ee	0.06666933
103	0xbd88eae2	-0.06685425
104	0xbeb19f78	-0.34691978
105	0x3d13b754	0.036063507
106	0xbc1058f8	-0.008810274
107	0xbe835850	-0.25653315
108	0x3c6e4a98	0.014544152
109	0xbc42b930	-0.011884972
110	0xbd8cd825	-0.06877164
111	0xbdb3cd9e	-0.08779453
112	0x3d8c8fe2	0.06863381
113	0xbd8556ee	-0.06510721
114	0x3c3e81b8	0.011627607
115	0x3dba47a1	0.090956934
116	0xbd4218ef	-0.04738706
117	0x3d17a47a	0.03702209
118	0xbc1346a8	-0.008989014
119	0xbdb45f7d	-0.088072754
120	0x3d97d81a	0.07414265
121	0xbd652ba8	-0.055949837
122	0xbdafc4dc	-0.0858247
123	0x3daf2640	0.085522175
124	0x3d048178	0.032350034
125	0xbea831e0	-0.32850552
126	0xbea8daa1	-0.329793
127	0xbe8b56f1	-0.2721477
128	0xbeaba9b4	-0.3352791
129	0x3dabbca8	0.08385593
130	0xbd410305	-0.04712202
131	0x3f6eecc8	0.9333005
132	0xbe7076ed	-0.23482867
133	0xbc0df200	-0.008663654
134	0xbd6b95ab	-0.05751578
135	0xbe9965e1	-0.2996054
136	0x3d8b88dc	0.06813213
137	0x3d3e6574	0.046483472
138	0xbe845f25	-0.2585384
139	0xbdac46e8	-0.08411962
140	0x3ba4e057	0.005031626
141	0xbd13eda8	-0.03611532
142	0xbe189660	-0.14901114
143	0x3d7ccae0	0.061716914
144	0x3d394404	0.04523088
145	0x3f14e359	0.58159405
146	0x3e3df2ae	0.18549606
147	0xbcaf0d88	-0.021368757
148	0x3d1d3920	0.038384557
149	0x3d37071c	0.044684514
150	0x3d3c935c	0.04603897
151	0x3bee8fa0	0.007280305
152	0xbe6190d5	-0.22027905
153	0x3c8cd859	0.017193006
154	0xbe37cb1a	-0.17948571
155	0xbecadf2a	-0.39623386
156	0xbd2babf3	-0.04191203
157	0xbd83ba75	-0.06432048
158	0x3c9c38ec	0.019070111
159	0xbe91a341	-0.28444865
160	0xbe8d39b9	-0.275831
161	0x3bd07cf0	0.00636255
162	0xbc0fb810	-0.008771911
163	0xbe3acd76	-0.1824244
164	0xbcb3caa4	-0.021947213
165	0xbba35180	-0.004984081
166	0xbe846e2f	-0.25865313
167	0xbeabc09f	-0.33545396
168	0xbd850a1f	-0.06496071
169	0xbe80fcba	-0.25192815
170	0xbeaaca3d	-0.3335742
171	0x3d874b4a	0.06606157
172	0x3d35bc5c	0.044369087
173	0xbec2f5f1	-0.38078263
174	0xbf02a49c	-0.51032424
175	0xbcf93ec4	-0.030425437
176	0xba8b6e80	-0.001063779
177	0xbe04e47d	-0.12977786
178	0xbc108cb0	-0.008822605
179	0x3d24390c	0.040093467
180	0xbe73a5fd	-0.23793788
181	0xbe720bdf	-0.23637341
182	0xbdf6d1f7	-0.12051766
183	0xbed425ff	-0.4143524
184	0xbe24dfbc	-0.16100973
185	0x3d871ed2	0.065976754
186	0x3c5e6b70	0.01357542
187	0xbe827b46	-0.25484675
188	0xbeecb7f2	-0.4623409
189	0xbd591781	-0.05300093
190	0x3d7c683c	0.061622843
191	0xbe68f3b4	-0.22749215
192	0x3dbc1220	0.091831446
193	0x3cad2f20	0.021140635
194	0xbe7bcd78	-0.24590099
195	0xbecd3207	-0.4007723
196	0xbea2e0ad	-0.3181204
197	0xbec96497	-0.39334556
198	0xbd9daaa2	-0.07698561
199	0xbd884f33	-0.06655731
200	0xbd6adc34	-0.05733891
201	0xbe8ea844	-0.2786275
202	0xbf272cc3	-0.65302676
203	0xbd7dce0f	-0.06196409
204	0x3d739a98	0.059473604
205	0xbe4ae7bd	-0.19814964
206	0xbd51f097	-0.051254835
207	0x3d388c00	0.04505539
208	0xbed442ef	-0.41457316
209	0xbe9ebcc8	-0.31003404
210	0xbf0fe319	-0.562059
211	0xbedc2fd3	-0.43005237
212	0xbea9e0d1	-0.33179334
213	0xbdbbe8dd	-0.091752745
214	0xbd904808	-0.07044989
215	0xbf03d72e	-0.51500213
216	0xbf5627f0	-0.8365469
217	0xbcecbe8c	-0.028899454
218	0xbdaa2c35	-0.08309213
219	0xbe52226a	-0.2052094
220	0x3da6ef6c	0.08151135
221	0x3d90ede6	0.070766255
222	0xbec79a7b	-0.38985047
223	0x3d452c10	0.048137724
224	0x3d10ad8c	0.035321757
225	0x3d9cb3f4	0.07651511
226	0xbc55a3c8	-0.013039537
227	0xbdae12e0	-0.08499694
228	0xbc10e7b0	-0.008844301
229	0xbd0a9884	-0.033836856
230	0x3d85f7a3	0.065413736
231	0xbd1e1598	-0.038594812
232	0xbd591bc1	-0.053004984
233	0x3d9160de	0.07098554
234	0xbdba0bf3	-0.090843104
235	0xbd0d6510	-0.03452021
236	0xbd96d112	-0.07364096
237	0x3d21cb18	0.039500326
238	0xbd3ee3be	-0.04660391
239	0x3cc06000	0.023483276
240	0xbee32f88	-0.443722
241	0xbeb5a378	-0.3547628
242	0xbeeec777	-0.46636555
243	0xbe9c1003	-0.30480966
244	0xbd0fdb55	-0.03512128
245	0x3c5be350	0.013420895
246	0x3f4f5c8d	0.81000596
247	0xbea296f6	-0.317558
248	0xbdbd8c4d	-0.09255276
249	0x3daacef2	0.08340253
250	0xbe5f5dec	-0.21813172
251	0x3cdb44d4	0.026766218
252	0x3cd3a188	0.02583386
253	0xbe74b227	-0.23896085
254	0xbd949a04	-0.07255939
255	0xbd098eb5	-0.03358336

net_layers.0.bias f4 [115]
0	0xbd17ef04	-0.037093177
1	0xbdb3e0c1	-0.08783103
2	0x3cb69dde	0.022292074
3	0xbdb7029e	-0.08936046
4	0x3c9b1237	0.018929584
5	0x3d266873	0.040626954
6	0xbd8bb2dd	-0.06821225
7	0x3debcb11	0.11513341
8	0x3d667a01	0.056268696
9	0xbd14038b	-0.03613619
10	0x3d0a17a4	0.03371395
11	0xbbc6bbb6	-0.0060648574
12	0x3e2ba239	0.16761102
13	0x3c5dbf2b	0.0135343475
14	0xbe01797e	-0.12644002
15	0x3e076d63	0.13225321
16	0x3d966de4	0.07345179
17	0x3d2872b8	0.04112503
18	0xbdf2bd39	-0.118524976
19	0xbd0b51fb	-0.03401373
20	0x3d220a47	0.039560582
21	0x3d62bb52	0.055354424
22	0xbd0aa87b	-0.03385208
23	0xbd202890	-0.039101183
24	0x3cfdcf52	0.030982647
25	0x3a5f96c6	0.0008529242
26	0xbd022c9b	-0.03178082
27	0xbd7cbe28	-0.061704785
28	0x3c5b3517	0.013379357
29	0x3deab851	0.11460937
30	0x3ca0ffb2	0.019653175
31	0x3d5cef84	0.053939357
32	0x3de051fa	0.10953136
33	0xbd8a571c	-0.06754896
34	0xbd28f6a9	-0.04125086
35	0xbd95f602	-0.07322313
36	0xbd237743	-0.03990866
37	0xbc129d0c	-0.008948576
38	0x3cc436b2	0.023951862
39	0xbdc92164	-0.09820822
40	0x3d0f1ec7	0.03494146
41	0xbdf717f1	-0.12065113
42	0xbdd9f6ba	-0.106427625
43	0x3dce82d0	0.10083544
44	0xbdbda442	-0.09259845
45	0x3c0e5321	0.008686812
46	0xbd9c187a	-0.07621856
47	0xbd98f631	-0.07468832
48	0x3c2e7707	0.0106484955
49	0x3dfe605b	0.12420722
50	0xbc59635e	-0.01326832
51	0x3ce7dbc5	0.028303036
52	0x3cbb8543	0.022890693
53	0x3ca84586	0.020540964
54	0x3c1e66a5	0.009668027
55	0xbdb707b8	-0.08937019
56	0x3c60f992	0.013731377
57	0xbd9e0d0a	-0.07717331
58	0xbca5a0f0	-0.020218343
59	0xbcf25219	-0.029580163
60	0xbdb3f6e7	-0.08787327
61	0xbdbea39d	-0.093085505
62	0xbde5501d	-0.11196921
63	0xbc419a10	-0.0118165165
64	0xbd0952fa	-0.0335264
65	0xbb4341ce	-0.0029793861
66	0xbd3f0a41	-0.04664064
67	0x3e029fb0	0.12756228
68	0x3e04b90e	0.12961218
69	0xbd1d0f3e	-0.038344614
70	0xbd8be670	-0.06831062
71	0x3d6d2639	0.05789778
72	0xbd0a0136	-0.03369256
73	0xbdb9c830	-0.09071386
74	0xbcb19301	-0.021676542
75	0xbca1b1c2	-0.019738082
76	0xbdd1c929	-0.102434464
77	0x3e1fd5f3	0.15608959
78	0xbb5292cc	-0.0032130955
79	0xbde4946f	-0.11161124
80	0xbda16410	-0.078804135
81	0xbdb00bd1	-0.08596004
82	0xbd7de2ea	-0.06198398
83	0x3c4c7969	0.012480118
84	0xbd2c6ea0	-0.042097688
85	0x3d4235ef	0.047414716
86	0x39da700e	0.00041663687
87	0xbb64b529	-0.003489802
88	0x3cc663cf	0.024217514
89	0x3c398b2a	0.011324683
90	0xbdb868f4	-0.09004393
91	0xbcc80daa	-0.024420578
92	0x3cc06310	0.023484737
93	0xbc3754be	-0.011189638
94	0xbdcc712c	-0.09982523
95	0xbd9a9a61	-0.07548977
96	0xbdca1871	-0.09867943
97	0x3ce50186	0.027954828
98	0xbd9b1bd2	-0.07573666
99	0xbdeb2c9c	-0.11483118
100	0xbd9ee261	-0.07758022
101	0xbda0d32b	-0.07852777
102	0x3c2dac03	0.010600093
103	0x3be4bcec	0.006980529
104	0xbdc0a85e	-0.094071135
105	0x3ddcf4e4	0.10788897
106	0xbd60368b	-0.054739516
107	0xbdcc47ed	-0.09974656
108	0x3ccce11e	0.025009688
109	0xbd5e5d99	-0.05428848
110	0x3ccbe0a0	0.024887383
111	0x3d393d7e	0.04522466
112	0xbde481ec	-0.11157593
113	0x3c03d6d3	0.008046824
114	0xbdcd5c76	-0.10027401

net_layers.1.weight f4 [115, 115]
0	0x3e1474d6	0.14497694
1	0x3d52850e	0.051396422
2	0x3e10dc19	0.1414646
3	0x3d98b801	0.07456971
4	0x3e1b07d2	0.15139702
5	0xbe87332f	-0.26406237
6	0x3e60f4ef	0.21968435
7	0xbe2ec73d	-0.17068191
8	0xbecc9ede	-0.39964956
9	0x3e008123	0.12549262
10	0x3cec1520	0.028818667
11	0x3e174f6c	0.14776391
12	0xbea2b737	-0.31780407
13	0x3e1bc91d	0.15213437
14	0x3e12205a	0.14270154
15	0xbe7ce532	-0.24696806
16	0xbc81afef	-0.015830962
17	0xbecbbdf6	-0.39793366
18	0x3de207fb	0.110366784
19	0x3cf08205	0.029358873
20	0xbed7232d	-0.42019024
21	0xbea4f46d	-0.32217732
22	0x3dbc31ff	0.091892235
23	0x3e165759	0.14681758
24	0xbd0828b8	-0.033241957
25	0x3de385b6	0.11109488
26	0x3e2d74b1	0.16939045
27	0x3ca59437	0.020212276
28	0x3e22b8b9	0.15890779
29	0xbbcd5062	-0.006265686
30	0xbeeda382	-0.4641381
31	0x3e087028	0.13324034
32	0xbebdbab0	-0.37056494
33	0x3e5b2aa5	0.21402986
34	0x3d1bb30a	0.03801254
35	0x3e2cf886	0.16891679
36	0x3dde8c27	0.10866576
37	0xbd9a68e6	-0.07539539
38	0x3ce2c5c6	0.027682196
39	0xbc026271	-0.007958041
40	0x3e1ffe58	0.15624368
41	0x3dfba8c0	0.12288046
42	0x3e02cf99	0.12774505
43	0xbde49a16	-0.11162202
44	0x3e4cc621	0.19997455
45	0x3df74fb7	0.12075751
46	0x3ddc6ef4	0.1076335
47	0x3e4d8a87	0.20072375
48	0x3d35ca93	0.044382643
49	0xbedfa4f7	-0.43680546
50	0x3e3fc5ab	0.18727748
51	0x3d2461ed	0.04013245
52	0x3d460dcc	0.048353
53	0xbeb5b73c	-0.3549136
54	0xbd86bb27	-0.06578665
55	0x3e7ec752	0.24880722
56	0xbed7b812	-0.42132622
57	0x3dc45400	0.09586334
58	0x3df4263e	0.119213566
59	0x3e1f916a	0.15582815
60	0x3e6c23e9	0.23060574
61	0x3e3479a1	0.17624523
62	0x3d30df04	0.043181434
63	0x3cd0cd8d	0.02548864
64	0x3df4148c	0.119179815
65	0x3dcac086	0.09900002
66	0x3e3bd1b3	0.18341713
67	0xbec0120a	-0.37513763
68	0xbe52bf26	-0.2058073
69	0x3e5be59a	0.21474305
70	0x3e7737fb	0.24142449
71	0xbec3e938	-0.3826387
72	0x3da54687	0.08070093
73	0x3de8bf1b	0.113645755
74	0x3e358349	0.17725863
75	0x3e0ea265	0.13929136
76	0x3ded9245	0.11600164
77	0xbeea973a	-0.45818502
78	0xbed2c1ca	-0.41163474
79	0x3de0f036	0.109833166
80	0x3e48a6fa	0.19594947
81	0x3e22af10	0.15887094
82	0x3e00bbce	0.12571642
83	0x3e2d1cf3	0.16905575
84	0x3a95c6ca	0.0011427042
85	0xbed85a8b	-0.4225658
86	0x3da76fd5	0.08175627
87	0x3e2b4beb	0.16728179
88	0xbe9381b1	-0.28809884
89	0x3d69fb22	0.057124265
90	0x3decaf3f	0.11556863
91	0x3e189bda	0.14903203
92	0x3e3c321d	0.18378492
93	0x3e3f7146	0.18695554
94	0x3dc1bb37	0.094595365
95	0x3da25944	0.07927182
96	0x3e4bc670	0.19899917
97	0xbe98d73f	-0.2985172
98	0x3e2c3e20	0.16820574
99	0x3da210ca	0.079133585
100	0x3d3e488e	0.046455912
101	0x3de3558c	0.11100301
102	0x3e1dc779	0.15408124
103	0x3dfda0e0	0.123842
104	0x3db3bb31	0.08775938
105	0xbe7561af	-0.23963045
106	0x3e00c173	0.12573795
107	0x3c113cb6	0.008864572
108	0x3e273cbd	0.16331764
109	0x3c97c32c	0.018525682
110	0x3e447c3d	0.19188018
111	0xbeb83e68	-0.35985112
112	0x3e5648fa	0.20926276
113	0xbedd39b1	-0.43208078
114	0x3dd417e0	0.10356116
115	0x3e5d91ee	0.21637699
116	0x3dc510d3	0.096223496
117	0x3d8d7389	0.06906802
118	0x3d826d66	0.06368522
119	0x3aa646ec	0.0012685931
120	0xbe4ba8d4	-0.19888622
121	0x3e59ec56	0.21281561
122	0xbe137be1	-0.14402725
123	0xbecf33a4	-0.40469086
124	0x3e2ebde5	0.17064627
125	0x3dccfea4	0.10009506
126	0x3db1f9f5	0.08690254
127	0xbeb6c395	-0.35696092
128	0x3de7325d	0.11288903
129	0x3dd95af8	0.10613054
130	0xbeaac14c	-0.333506
131	0x3de98735	0.11402742
132	0xbe7a54d2	-0.24446419
133	0x3e1f5a3f	0.1556177
134	0x3e549679	0.20760526
135	0xbec61f22	-0.38695627
136	0xbead02ab	-0.33791098
137	0x3d3fbcef	0.04681104
138	0x3e039979	0.12851514
139	0xbbe6de61	-0.0070455526
140	0x3e1c3c68	0.15257418
141	0x3e215465	0.1575485
142	0x3d1b833a	0.037966944
143	0x3dd19e22	0.102352396
144	0xbddc2c88	-0.10750681
145	0xbedb34e0	-0.42813778
146	0xbd2090d0	-0.039200604
147	0xbed337df	-0.41253564
148	0x3e5cc15e	0.21558139
149	0x3de8c644	0.11365941
150	0x3d35b141	0.044358496
151	0x3d9bad20	0.0760138
152	0xbe0f3ea1	-0.13988735
153	0x3dffff1c	0.1249983
154	0x3c001dcc	0.007819604
155	0x3e608668	0.21926272
156	0x3df2c068	0.11853105
157	0x3d9c861d	0.076427676
158	0xbdbd2a4a	-0.092365816
159	0x3d8ae44c	0.067818254
160	0x3e1388c1	0.14407636
161	0x3e46c4ca	0.19411007
162	0x3d4154c1	0.04719997
163	0x3d857bcb	0.06517752
164	0xbee60df8	-0.44932532
165	0x3d21166a	0.039328016
166	0x3dd6c35e	0.10486482
167	0x3d198bb8	0.03748676
168	0xbea9cdf2	-0.33164936
169	0xbc3c0ff1	-0.01147841
170	0x3deba36b	0.11505779
171	0xbeefdf03	-0.46849832
172	0x3e7b1925	0.2452131
173	0x3d834938	0.0641045
174	0x3e149cc6	0.1451293
175	0x3e05900b	0.1304323
176	0x3cc7e1eb	0.024399718
177	0x3dcc3f3f	0.09973001
178	0x3e195adc	0.14976066
179	0x3e509f63	0.20373301
180	0x3df3e2c2	0.11908485
181	0x3e06d163	0.13165812
182	0xbe7ff008	-0.24993908
183	0xbe93e989	-0.2888911
184	0x3e3abff7	0.18237291
185	0x3e60fc72	0.219713
186	0xbec70ac3	-0.38875398
187	0x3e1b290b	0.15152375
188	0x3dcea30e	0.10089694
189	0x3d4d90cc	0.050186917
190	0x3df6e1f8	0.12054819
191	0x3e634504	0.22194296
192	0xbed0af7e	-0.4075889
193	0xbeccc4e4	-0.39993966
194	0x3d95d382	0.073157325
195	0x3d1d7a66	0.038446806
196	0x3e47f240	0.19526005
197	0x3e586fa2	0.21136335
198	0x3dcdbd60	0.10045886
199	0xbb87313a	-0.0041257413
200	0xbea0b308	-0.3138659
201	0x3dde609e	0.10858272
202	0x3e44931e	0.19196746
203	0xbebf5fbf	-0.37377736
204	0x3e0d5511	0.13801982
205	0x3d9d943f	0.07694291
206	0x3e4b8dcd	0.19878311
207	0x3e2929c9	0.16519846
208	0x3df89809	0.121383734
209	0x3de3561a	0.11100407
210	0x3e48b9bd	0.19602104
211	0x3e12a50a	0.1432077
212	0xbeca0cde	-0.39462942
213	0x3e431059	0.19049205
214	0x3db39c6c	0.087700695
215	0x3cce4cdf	0.02518314
216	0x3e1be7f1	0.15225197
217	0x3e3dfb5e	0.1855292
218	0x3cfe0d19	0.031012105
219	0x3dc245af	0.09485947
220	0xbe290928	-0.16507399
221	0x3e1b4b7c	0.15165514
222	0x3e1a3ac7	0.15061484
223	0x3e26d0aa	0.16290537
224	0x3e329293	0.17438726
225	0x3d77bdb1	0.06048364
226	0xbed6477f	-0.41851422
227	0x3e0049db	0.12528174
228	0xbeb72bab	-0.35775504
229	0x3e1e1842	0.15438941
230	0x3e29877a	0.16555586
231	0x3df69f5c	0.12042114
232	0x3e183941	0.1486559
233	0x3e49e5d9	0.19716586
234	0x3d668c04	0.056285873
235	0xbe817a70	-0.25288725
236	0x3e5bde91	0.21471621
237	0xbeabe3b9	-0.33572176
238	0xbebae2e5	-0.36501232
239	0x3e257434	0.16157609
240	0x3e38f8b5	0.18063624
241	0x3e28aff8	0.16473377
242	0xbea3106a	-0.3184846
243	0x3d1c10d2	0.03810198
244	0x3d64541a	0.055744268
245	0xbe9db372	-0.30800968
246	0x3d985c68	0.074395
247	0xbebc5e90	-0.36790895
248	0x3e0a3f07	0.13500606
249	0x3e4e2b1e	0.20133635
250	0xbef3fdb9	-0.47654513
251	0xbeca12b6	-0.394674
252	0xbba313a5	-0.004976707
253	0x3e30a09d	0.17248769
254	0x3ccfd357	0.02536933
255	0x3e177721	0.14791538

net_layers.1.bias f4 [115]
0	0xbe33178b	-0.1748945
1	0xbe7fb51b	-0.2497143
2	0xbe4e185f	-0.20126484
3	0xbe6405a1	-0.22267772
4	0xbe86d112	-0.26331383
5	0xbd8f6527	-0.07001715
6	0xbdf6ca9c	-0.120503634
7	0xbdf79272	-0.12088479
8	0x3acf8675	0.0015832918
9	0xbd74b390	-0.059741557
10	0xbe3ed1d4	-0.1863473
11	0x3e27674a	0.16347995
12	0xbe49f32d	-0.1972167
13	0xbe026706	-0.12734613
14	0xbe343d7c	-0.1760158
15	0xbe738dea	-0.23784605
16	0xbe4705a0	-0.1943574
17	0xbe299c5f	-0.16563557
18	0xbc4b4649	-0.012406894
19	0xbe4542a1	-0.19263698
20	0xbe6fc799	-0.23415984
21	0xbe2dee5e	-0.16985461
22	0xbea03159	-0.3128765
23	0xbdd9a4e6	-0.10627155
24	0xbe83c185	-0.2573358
25	0xbdb93b2d	-0.0904449
26	0xbe7e4255	-0.24829991
27	0x3e43e839	0.19131555
28	0xbdebba2c	-0.11510119
29	0xbe13c100	-0.14429092
30	0xbdfceaf5	-0.12349502
31	0xbe103935	-0.14084323
32	0xbdb4e2b7	-0.08832305
33	0xbe582bd9	-0.21110477
34	0xbdef2552	-0.1167704
35	0xbddd6440	-0.10810137
36	0x3deaa01a	0.11456318
37	0x3d978c4e	0.07399808
38	0xbd8ec210	-0.06970608
39	0xbe497553	-0.19673662
40	0xbe46d0ec	-0.19415635
41	0xbe0cd30d	-0.13752384
42	0xbe80e6f6	-0.2517621
43	0xbe74e36e	-0.23914883
44	0xbe336c0b	-0.17521684
45	0xbdd8ac6d	-0.105797626
46	0xbe3f5970	-0.18686461
47	0xbe36b800	-0.17843628
48	0xbe7961c0	-0.24353695
49	0x3e604178	0.21899974
50	0xbe8f325e	-0.27968115
51	0xbd50b589	-0.050954375
52	0xbd90e42b	-0.070747696
53	0xbe3cd903	-0.18442158
54	0xbdb44207	-0.08801656
55	0xbe217094	-0.15765601
56	0xbcf98a46	-0.030461442
57	0xbe01ff5c	-0.12695068
58	0xbd98c36e	-0.0745915
59	0xbe5c733a	-0.2152833
60	0xbec1ec42	-0.37875563
61	0xbe32a6fb	-0.1744651
62	0xbe1e21c9	-0.15442576
63	0xbe08ff2e	-0.13378593
64	0xbdf850f8	-0.121248186
65	0xbdff962d	-0.12479816
66	0x3e02241b	0.12709086
67	0xbeba8dd1	-0.36436322
68	0xbe51d062	-0.20489648
69	0xbe3a7b98	-0.1821121
70	0xbd35f9cf	-0.04442769
71	0xbe06fca8	-0.13182318
72	0xbe0fe027	-0.14050351
73	0xbda21e46	-0.079159304
74	0xbe44610b	-0.19177644
75	0xbe2fbc70	-0.17161727
76	0xbda73f28	-0.08166343
77	0xbd0fe445	-0.035129804
78	0xbd43361d	-0.04765903
79	0xbdc66780	-0.0968771
80	0x3d828265	0.06372527
81	0xbec0ca72	-0.37654454
82	0xbdf32aab	-0.11873373
83	0xbd7afce7	-0.061276343
84	0xbe6ffcc9	-0.23436274
85	0xbd6ff08b	-0.05857901
86	0xbe3779fb	-0.17917626
87	0xbe989fe5	-0.2980949
88	0xbe0fa26c	-0.14026803
89	0xbdadf9ca	-0.08494909
90	0xbd9e6317	-0.07733744
91	0xbe3ab84e	-0.18234369
92	0x3d45ea48	0.04831913
93	0xbe4cd89b	-0.20004503
94	0xbe0e4160	-0.13892126
95	0xbe638874	-0.22220021
96	0xbdcd5e1b	-0.10027715
97	0xbe5e1103	-0.21686177
98	0xbe1a32fd	-0.15058513
99	0xbd6a1483	-0.057148468
100	0xbe50165a	-0.20321026
101	0xbe3d1783	-0.18466
102	0xbe1e43e9	-0.15455593
103	0xbd98e1d3	-0.074649476
104	0xbe734530	-0.23756862
105	0xbe37ef25	-0.1796232
106	0xbe030de4	-0.12798268
107	0xbd757924	-0.05992998
108	0xbde9ea35	-0.114216246
109	0xbdba616f	-0.09100615
110	0xbc7ad737	-0.0153101
111	0xbdf93fba	-0.12170358
112	0xbe42e353	-0.1903203
113	0xbdfc210c	-0.12310991
114	0xbce7e502	-0.028307442

net_layers.2.weight f4 [115, 115]
0	0x3ea8eaf8	0.32991767
1	0x3eaf535b	0.34243283
2	0x3e569feb	0.20959441
3	0x3e2229d1	0.15836264
4	0x3e5af94b	0.2138416
5	0x3e72c309	0.23707213
6	0x3da9bc2d	0.08287845
7	0x3e7d4201	0.2473221
8	0x3ca225cc	0.019793414
9	0x3e04fd66	0.12987289
10	0x3ea4b5fc	0.32170093
11	0xbe9ef82b	-0.31048712
12	0x3e20c1cc	0.15698928
13	0x3d960105	0.07324413
14	0xbece57b4	-0.40301287
15	0x3ebda829	0.3704236
16	0x3e4367e8	0.19082606
17	0x3e27943d	0.16365142
18	0x3e2b6db6	0.1674107
19	0x3e378a7d	0.17923923
20	0xbe872f3b	-0.2640322
21	0x3cd258cd	0.02567711
22	0xbe92b853	-0.28656253
23	0x3eaa31ca	0.3324111
24	0x3e0b522a	0.13605562
25	0x3ba72f6f	0.00510209
26	0x3e81a3b5	0.2532021
27	0xbeab3575	-0.33439222
28	0x3e764264	0.24048764
29	0x3eb0612a	0.3444913
30	0x3e5ac75f	0.21365117
31	0x3dd9b45a	0.106301025
32	0x3e35d127	0.17755567
33	0xbeaafe79	-0.33397272
34	0x3e1aa277	0.15101038
35	0x3e56c0c7	0.20971976
36	0xbec638d7	-0.3871524
37	0xbcb87ddc	-0.022520952
38	0x3e532b20	0.2062192
39	0x3e624db2	0.22099951
40	0x3eb255a1	0.34830955
41	0x3e9b5884	0.3034097
42	0x3dd2e665	0.102978505
43	0x3e6558e8	0.22397196
44	0x3e11a539	0.14223184
45	0x3d3856e5	0.045004744
46	0x3d218b82	0.039439686
47	0x3e89261c	0.26786888
48	0x3e830f49	0.255976
49	0xbea373a7	-0.31924173
50	0x3e20e9e7	0.15714227
51	0x3d476ce1	0.04868782
52	0x3e8924cf	0.26785895
53	0x3e70c4f7	0.23512636
54	0x3e0e6ab5	0.13907893
55	0x3e650cdc	0.22368187
56	0x3dc464ca	0.095895365
57	0x3e1ddd97	0.15416561
58	0x3e87e41d	0.26541224
59	0x3e710534	0.23537141
60	0xbf029ea5	-0.5102332
61	0x3e6d5bf7	0.23179613
62	0x3e01c471	0.12672593
63	0x3e43efb3	0.19134407
64	0x3e5528a2	0.20816281
65	0x3dd83a9b	0.10558053
66	0xbe888c24	-0.2666942
67	0xbeda55f8	-0.42643714
68	0xbebcd304	-0.36879742
69	0x3d84a1a4	0.06476143
70	0x3dcbb371	0.09946335
71	0x3e4aa3a6	0.1978899
72	0x3e9dbe33	0.30809173
73	0x3e492e72	0.19646624
74	0x3d32c167	0.043641474
75	0xbebc00af	-0.36719272
76	0x3e6db696	0.23214182
77	0x3e45af5b	0.19305174
78	0x3e569900	0.20956802
79	0x3ddde7aa	0.10835202
80	0xbd769c9d	-0.06020795
81	0xbebde424	-0.3708812
82	0x3e10796c	0.14108819
83	0xbc9ee035	-0.01939402
84	0x3e49a4a5	0.19691713
85	0x3e281ddc	0.1641764
86	0x3ea45887	0.3209879
87	0xbe8cf40c	-0.27529943
88	0x3e307d2b	0.17235248
89	0x3d8fa257	0.07013386
90	0x3e7cf224	0.24701744
91	0x3da28054	0.07934633
92	0x3d8f642f	0.070015304
93	0x3e691978	0.22763622
94	0x3e90bb93	0.28268108
95	0x3e6fb5f7	0.23409258
96	0x3e45c12a	0.19311967
97	0x3e0c0133	0.13672332
98	0x3dfbb55a	0.122904494
99	0x3d774949	0.060372625
100	0x3deaa056	0.11456363
101	0x3e1bbf2a	0.15209642
102	0x3e108f88	0.14117253
103	0x3e704633	0.23464279
104	0x3ddffd8f	0.10937034
105	0x3e1e52ec	0.1546132
106	0x3e5c4b46	0.2151309
107	0x3e35cae1	0.17753173
108	0x3e3485f6	0.17629227
109	0x3e6a22e9	0.2286488
110	0x3cf45408	0.029825225
111	0x3df3be72	0.11901559
112	0x3e245949	0.16049685
113	0xbeed072e	-0.4629454
114	0xbceff5de	-0.029292043
115	0x3e07d7e4	0.1326595
116	0x3e31c9bb	0.1736211
117	0x3e36fca5	0.17869814
118	0x3e322c0a	0.17399612
119	0x3dbbec21	0.091758974
120	0x3df84314	0.12122169
121	0x3e3cd774	0.18441564
122	0x3e43a820	0.19107103
123	0x3e5328d2	0.2062104
124	0x3e622fcd	0.22088547
125	0x3e4d9189	0.20075049
126	0xbe109498	-0.14119184
127	0x3d65b5f7	0.05608174
128	0x3dde7ab2	0.10863246
129	0xbcb37f5c	-0.021911316
130	0x3e76ab20	0.24088717
131	0x3df28620	0.118419886
132	0x3d9459fc	0.07243726
133	0x3e0a46ac	0.13503522
134	0x3e4fa816	0.20278963
135	0xbdc5aa2d	-0.09651599
136	0x3e38a3e4	0.1803127
137	0xbe05f10a	-0.1308023
138	0x3e460bf1	0.19340493
139	0x3dff1b58	0.12456387
140	0x3dafc445	0.08582357
141	0x3d8b05bc	0.06788203
142	0xbe3c42cc	-0.18384856
143	0x3dd3f24d	0.103489496
144	0x3e8366e3	0.25664434
145	0x3e1815d9	0.14852084
146	0x3e531ce8	0.20616496
147	0x3e33a725	0.1754423
148	0xbd55900b	-0.052139323
149	0x3e10927a	0.14118376
150	0x3e7efdb4	0.24901468
151	0xbdfd047e	-0.123543724
152	0x3ac7c1ba	0.001524023
153	0x3e73258f	0.23744796
154	0x3e763287	0.24042712
155	0x3e4617a4	0.19344956
156	0x3e52e85b	0.20596449
157	0x3e1b8b52	0.15189865
158	0x3dc0fa37	0.09422725
159	0x3e5a9295	0.21344979
160	0x3e04de8f	0.12975524
161	0x3e500c92	0.20317295
162	0x3e4e115e	0.20123813
163	0x3e50cc47	0.20390426
164	0xbe51996b	-0.2046868
165	0x3e221aa5	0.15830477
166	0x3e4fb2a7	0.20282994
167	0x3de3b1bc	0.111178845
168	0x3e19b9da	0.15012303
169	0x3e6c7372	0.23090914
170	0x3dcc3332	0.09970702
171	0x3e0f3041	0.13983251
172	0x3dff7efd	0.12475393
173	0x3df6146a	0.120156124
174	0x3e489339	0.19587411
175	0xbe65e4f4	-0.2245062
176	0x3e318126	0.17334422
177	0x3e6e8b3a	0.23295298
178	0x3e7813b1	0.24226262
179	0x3df92c01	0.12166596
180	0x3e82978d	0.2550625
181	0xbe455ed1	-0.19274451
182	0xbd2f1d81	-0.042752746
183	0xbdd1eb07	-0.10249906
184	0x3e31e196	0.1737121
185	0x3dced7e9	0.10099775
186	0x3e3decbf	0.18547343
187	0x3dca1f72	0.09869279
188	0x3df85dc4	0.121272594
189	0x3e530988	0.20609105
190	0xbe3a8bf6	-0.18217453
191	0x3e53d4e2	0.20686677
192	0x3e725bbd	0.23667808
193	0x3e74fbc7	0.2392417
194	0x3d684454	0.056705788
195	0x3deb6e20	0.11495614
196	0xbe31ba39	-0.17356195
197	0x3e8941e0	0.2680807
198	0x3e0c1a1a	0.13681832
199	0x3d9d5acd	0.076833345
200	0x3e7cfc0f	0.24705528
201	0x3e521652	0.20516327
202	0xbd658680	-0.056036472
203	0x3e2d519b	0.16925661
204	0x3e862633	0.2620102
205	0x3e461ae5	0.19346197
206	0x3e2ebb75	0.17063697
207	0x3d9f52ed	0.07779489
208	0x3e077758	0.1322912
209	0x3e5bec8a	0.21476951
210	0x3e07d3b5	0.13264354
211	0x3e65ecb6	0.2245358
212	0x3e4af120	0.19818544
213	0x3e8d0e5f	0.27550027
214	0x3e0ca794	0.13735801
215	0x3e6a2f10	0.22869515
216	0x3e181aa6	0.14853916
217	0x3db7ca68	0.08974153
218	0x3e7d75d8	0.24751985
219	0x3d342e0c	0.043989226
220	0x3e46880a	0.19387832
221	0x3e74d59a	0.23909608
222	0x3e8e10da	0.27747232
223	0x3e102d32	0.1407974
224	0x3e0e8ff9	0.13922109
225	0x3e7ffdfe	0.24999234
226	0x3e4d5f4b	0.20055883
227	0x3c0a978b	0.008458982
228	0xbe46ad49	-0.1940204
229	0x3e6f8afb	0.2339286
230	0x3ec0fe14	0.37693846
231	0x3e992d8b	0.2991756
232	0x3ebfae91	0.3743787
233	0x3e9a3a16	0.3012244
234	0x3e8a41cd	0.27003327
235	0x3e3999c9	0.1812507
236	0x3e8c657b	0.27421173
237	0x3ed95237	0.42445537
238	0x3dcd3b02	0.100210205
239	0x3ea98e9d	0.33116618
240	0x3ec38b40	0.38192177
241	0xbd96e30d	-0.07367525
242	0x3eac5a41	0.33662608
243	0x3e90e34b	0.2829841
244	0x3e88be0f	0.26707503
245	0x3eab0b75	0.3340718
246	0x3e8fe96d	0.28107777
247	0x3ed07327	0.40712854
248	0x3eb0e416	0.34549016
249	0x3edf0716	0.43560094
250	0x3eaef2cd	0.34169617
251	0x3e720ea5	0.23638399
252	0x3e9092d1	0.28237012
253	0x3eafc1fe	0.34327692
254	0x3ed1f7f7	0.41009495
255	0x3eab3629	0.33439758

net_layers.2.bias f4 [115]
0	0xbe347f7d	-0.17626758
1	0x3cbd0721	0.023074688
2	0xbdfe4b38	-0.124166906
3	0xbdb6be20	-0.08922982
4	0xbe343dc1	-0.17601682
5	0x3d61b55a	0.05510459
6	0xbe1a3e5e	-0.15062854
7	0xbdcd6ed8	-0.100309074
8	0xbd8e2bb7	-0.06941932
9	0x3e13d9a9	0.144385
10	0xbdd308c0	-0.10304403
11	0x3e91e719	0.28496626
12	0x3e3476c7	0.17623435
13	0xbd9ce9a8	-0.07661754
14	0xbdf38900	-0.11891365
15	0x3d472ff4	0.048629716
16	0xbd670100	-0.056397438
17	0xbe08c43a	-0.13356104
18	0x3ddd8e43	0.1081815
19	0x3e03bf7f	0.12866019
20	0x3e1ace83	0.1511784
21	0x3debd550	0.115152955
22	0xbe3436ec	-0.17599076
23	0xbd4674bc	-0.04845117
24	0x3cc14c31	0.023595901
25	0xbd5fa088	-0.054596454
26	0xbdedba33	-0.1160778
27	0x3e0a4fd7	0.13507019
28	0x3e0337e1	0.12814285
29	0x3c5fcd62	0.013659807
30	0x3d6a129c	0.057146654
31	0x3f7c0565	0.9844573
32	0x3d08f984	0.03344108
33	0xbeb1e6af	-0.3474631
34	0xbdf16cf3	-0.117883585
35	0x3f59833a	0.8496586
36	0xbe11fdcf	-0.14256977
37	0xbe4305b5	-0.19045146
38	0xbbd1728c	-0.006391829
39	0x3f5a4383	0.85259265
40	0xbd08f79e	-0.03343927
41	0xbc77bf71	-0.015121327
42	0xbd3ab1c2	-0.04557968
43	0xbd81f5bd	-0.06345699
44	0xbe2ee946	-0.17081174
45	0xbe050ec8	-0.1299392
46	0x3e0b79df	0.13620709
47	0xbe196d13	-0.14983015
48	0xbca46213	-0.020066297
49	0xbd177586	-0.036977313
50	0x3d586bca	0.05283717
51	0x3c82449e	0.01590186
52	0xbe7d2a02	-0.24723056
53	0x3db593ca	0.08866079
54	0xbd9a9cf8	-0.07549471
55	0x3d902b91	0.0703956
56	0x3dbf7168	0.093478024
57	0xbdcd203d	-0.100159146
58	0x3f7b0b2b	0.98063916
59	0xbced0ae7	-0.028935863
60	0xbe15ccb5	-0.14628871
61	0xba3e75bc	-0.00072654686
62	0xbda84a44	-0.0821729
63	0xbe6825d6	-0.22670683
64	0xbdedb627	-0.116070084
65	0x3db5bd09	0.08873946
66	0xbe14fd83	-0.14549832
67	0xbceecdb4	-0.029150821
68	0x3d73a069	0.05947915
69	0x3d0b18e1	0.033959273
70	0x3e3203c1	0.17384245
71	0xbe163627	-0.14669095
72	0xbd9cede0	-0.076625586
73	0x3da6fec0	0.081540585
74	0xbdd3e748	-0.10346848
75	0x3e145a59	0.1448759
76	0xbe223286	-0.15839586
77	0xbe8a12d7	-0.269675
78	0xbd95f154	-0.0732142
79	0x3e47d3f3	0.19514446
80	0xbd465e46	-0.04842975
81	0x3d8c4550	0.06849158
82	0x3c7c4c70	0.0153990835
83	0x3e5b33a2	0.21406415
84	0x3f798136	0.97462785
85	0x3e53cda6	0.20683917
86	0xbe2c1c6b	-0.16807716
87	0xbddfeb46	-0.10933547
88	0xbc35c251	-0.011093692
89	0xbda95263	-0.08267667
90	0xbe231c3f	-0.15928744
91	0x3daf0b94	0.0854713
92	0x3e0b1b85	0.13584717
93	0x3dfef57c	0.12449166
94	0xbe4672c8	-0.19379723
95	0xbe0123e2	-0.12611344
96	0x3e069418	0.13142431
97	0x3e5e04f0	0.21681571
98	0xbddbe8c7	-0.10737758
99	0xbed6b3cf	-0.41934058
100	0xbe807c00	-0.25094604
101	0xbd704a12	-0.05866439
102	0x3dfff67c	0.12498185
103	0xbd25bef4	-0.04046531
104	0xbe1f89ec	-0.15579957
105	0x3e8ead45	0.2786657
106	0x3da55b8c	0.08074102
107	0x3f3b12cf	0.73075575
108	0xbd544530	-0.051823795
109	0x3e031be2	0.12803605
110	0x3e1ca58f	0.1529753
111	0xbe27d470	-0.16389632
112	0xbe153d3c	-0.1457414
113	0xbeae1791	-0.34002355
114	0xbdc47ce5	-0.09594134

net_layers.3.weight f4 [7, 115]
0	0x3ecae929	0.39631012
1	0x3f32a9e4	0.6979048
2	0x3f675f24	0.9037955
3	0x3f698852	0.91223633
4	0x3f9252c0	1.1431503
5	0x3f2bb24b	0.6706893
6	0x3f012ce9	0.5045915
7	0x3f825765	1.0182921
8	0x3ed4983a	0.4152239
9	0x3f81a3b5	1.0128084
10	0x3efb2dc2	0.49058348
11	0x3f7be5e4	0.9839766
12	0x3f97bab7	1.1853856
13	0x3eebf16e	0.46082634
14	0x3f370f6c	0.71507907
15	0x3f81ae4c	1.0131316
16	0x3f27ab89	0.65496117
17	0x3f897f46	1.0741966
18	0x3f31da68	0.69473886
19	0x3f7d39c2	0.98916256
20	0x3f6ef8b4	0.9334824
21	0x3f6f7edf	0.93552965
22	0x3eefdaf4	0.46846735
23	0x3f8b1e32	1.086859
24	0x3ef07d48	0.46970582
25	0x3f0e2d6f	0.55538076
26	0x3ee14fc8	0.4400618
27	0x3f711d78	0.9418559
28	0x3f4b9e3f	0.7953834
29	0x3f45c99d	0.7726076
30	0x3f3af97e	0.73036945
31	0x3f53e83b	0.8277623
32	0x3f9450d4	1.1587167
33	0x3f939c69	1.1532108
34	0x3f073273	0.52811354
35	0x3f538787	0.82628673
36	0x3f2baf07	0.67063946
37	0x3e9eca17	0.31013557
38	0x3f311e6f	0.6918706
39	0x3f4d0ab4	0.80094457
40	0x3f8dee54	1.1088357
41	0x3f7bafd8	0.9831519
42	0x3f32fd93	0.69918174
43	0x3f25ece9	0.6481462
44	0x3f92dfd2	1.1474555
45	0x3f8e9612	1.1139548
46	0x3f787482	0.97052777
47	0x3f88909f	1.0669135
48	0x3f83621a	1.0264313
49	0x3f6ff9f7	0.9374079
50	0x3f88c924	1.0686383
51	0x3f8e2707	1.110566
52	0x3f877e9b	1.0585512
53	0x3f4d9d9b	0.8031861
54	0x3f26d975	0.65175563
55	0x3f853cd4	1.0409188
56	0x3f3cf21a	0.7380692
57	0x3ee9fe98	0.45702052
58	0x3f450aa0	0.7696934
59	0x3ee0bfef	0.43896434
60	0x3f8f40aa	1.1191609
61	0x3f5d51ad	0.8645275
62	0x3ee81a21	0.45332435
63	0x3fa6c7c2	1.3029711
64	0x3ede7a8f	0.4345288
65	0x3f401585	0.75032836
66	0x3f14a6e0	0.5806713
67	0x3f8c0939	1.0940315
68	0x3f0183cf	0.5059175
69	0x3f3b3556	0.7312826
70	0x3f65d2ba	0.8977467
71	0x3eb01a1a	0.34394914
72	0x3f9edfe2	1.2412074
73	0x3f485208	0.7825017
74	0x3ef00e96	0.46886128
75	0x3f591bc2	0.8480798
76	0x3f850560	1.0392265
77	0x3f8ef407	1.1168221
78	0x3f07e212	0.5307933
79	0x3f690e6d	0.91037637
80	0x3ef8b7a8	0.4857762
81	0x3f11ad32	0.569049
82	0x3f69b51e	0.9129199
83	0x3f7faddc	0.99874663
84	0x3f42ba0c	0.76065135
85	0x3f4fea75	0.8121713
86	0x3f0ac50c	0.5420692
87	0x3eea75df	0.45793054
88	0x3fa70dea	1.3051121
89	0x3ec6c77c	0.3882407
90	0x3f8f35a4	1.1188245
91	0x3f9f0bb2	1.2425444
92	0x3f77efae	0.968501
93	0x3f7a5abf	0.9779472
94	0x3efc9bf4	0.49337733
95	0x3ebfa5c5	0.3743116
96	0x3f826e0b	1.0189832
97	0x3f93f4dd	1.1559101
98	0x3f0e5e0c	0.55612254
99	0x3f98e179	1.1943809
100	0x3f8b46d0	1.0880985
101	0x3f8edcf0	1.1161175
102	0x3f1711e2	0.5901166
103	0x3ee000bc	0.4375056
104	0x3f8c9844	1.0983968
105	0x3f6606b9	0.8985401
106	0x3f709aab	0.93986005
107	0x3f3eeb9d	0.7457827
108	0x3f0482b8	0.5176196
109	0x3f81c0d0	1.0136967
110	0x3f40bc74	0.75287557
111	0x3f8d3ddf	1.1034507
112	0x3ec3ff90	0.38280916
113	0x3f973de2	1.181576
114	0x3f8e4be7	1.1116914
115	0x3f101191	0.56276804
116	0x3f37e165	0.718283
117	0x3f7dc75c	0.99132323
118	0x3f6b17a3	0.9183294
119	0x3f4b4800	0.7940674
120	0x3f546c61	0.82977873
121	0x3f2dc620	0.6788044
122	0x3f445c8e	0.7670373
123	0x3f193b12	0.5985576
124	0x3f500af0	0.8126669
125	0x3f23169c	0.63706374
126	0x3f388533	0.72078246
127	0x3fac2c6a	1.3451054
128	0x3ee4cdf8	0.44688392
129	0x3f284481	0.6572953
130	0x3f8fa414	1.1221948
131	0x3f361701	0.7112885
132	0x3f823b44	1.0174336
133	0x3f532f91	0.82494456
134	0x3f714683	0.9424822
135	0x3f6b9e86	0.9203876
136	0x3f48957a	0.78353083
137	0x3f3cf5b5	0.7381242
138	0x3f517581	0.8181992
139	0x3f1d3913	0.61415213
140	0x3f505719	0.813829
141	0x3f086e9b	0.5329377
142	0x3f62befb	0.88572663
143	0x3f722628	0.9458947
144	0x3f337b30	0.70109844
145	0x3f65d150	0.8977251
146	0x3f54921f	0.83035463
147	0x3fb065e0	1.378109
148	0x3f64f449	0.8943525
149	0x3f23592f	0.6380796
150	0x3f652217	0.8950514
151	0x3f2b5712	0.66929734
152	0x3f12485a	0.5714165
153	0x3f468e5a	0.7756096
154	0x3f757ef9	0.9589687
155	0x3fa58233	1.2930359
156	0x3f7a2bd2	0.97723114
157	0x3f67e42e	0.9058255
158	0x3f553304	0.8328097
159	0x3f878350	1.0586948
160	0x3f81d119	1.0141937
161	0x3f6b9f21	0.92039686
162	0x3f691780	0.91051483
163	0x3f7d6c82	0.98993695
164	0x3f634888	0.8878255
165	0x3f3fcb39	0.7491947
166	0x3fba6f39	1.4565192
167	0x3f767c4b	0.96283406
168	0x3f574fe4	0.8410628
169	0x3f437e24	0.7636435
170	0x3f5721b9	0.8403583
171	0x3f4e4d40	0.80586624
172	0x3f27f506	0.6560825
173	0x3f6db221	0.9284993
174	0x3f1fe0de	0.62452495
175	0x3f591c28	0.8480859
176	0x3f4f1313	0.8088848
177	0x3f1b7c2d	0.6073635
178	0x3fbec24a	1.4903042
179	0x3f44679d	0.767206
180	0x3f647ef5	0.8925622
181	0x3f2eb220	0.6824055
182	0x3f5934f6	0.84846437
183	0x3f285747	0.65758175
184	0x3f5c4225	0.8603843
185	0x3f5d38ec	0.8641498
186	0x3f1f4aa9	0.622233
187	0x3fc7aa39	1.5598823
188	0x3f592ebc	0.84836936
189	0x3f4251dc	0.7590616
190	0x3f3d3340	0.73906326
191	0x3f7f0327	0.99614185
192	0x3f6fac1a	0.9362198
193	0x3f472715	0.7779401
194	0x3f3e84af	0.7442121
195	0x3f26a8e6	0.6510147
196	0x3f2f6a85	0.6852191
197	0x3f68f885	0.9100421
198	0x3f612c99	0.87958676
199	0x3f65c75d	0.8975733
200	0x3f3a56af	0.7278852
201	0x3f213c1b	0.6298234
202	0x3f3a7edd	0.7284983
203	0x3fb3f748	1.4059839
204	0x3f1c8f0a	0.6115576
205	0x3f694fd7	0.9113745
206	0x3fa12a22	1.2590983
207	0x3f7931f1	0.9734183
208	0x3f34bcf6	0.7060083
209	0x3f240f7e	0.6408614
210	0x3f29bebf	0.6630668
211	0x3f61b1b1	0.8816176
212	0x3f96b595	1.1774164
213	0x3f0ff58a	0.5623404
214	0x3f77992d	0.967181
215	0x3f7317e1	0.9495831
216	0x3f73a941	0.95180136
217	0x3f3d566d	0.7396
218	0x3f2941ee	0.66116226
219	0x3f70e0f8	0.94093275
220	0x3f3d3925	0.7391532
221	0x3f4dc837	0.8038363
222	0x3f529354	0.82256055
223	0x3f2f97f7	0.68591255
224	0x3f70327d	0.9382704
225	0x3f0e23cd	0.5552338
226	0x3f81c0f1	1.0137006
227	0x3f31d787	0.69469494
228	0x3f4cbe22	0.7997762
229	0x3f76f4c2	0.9646722
230	0x3f86fcac	1.0545859
231	0x3f358482	0.70905316
232	0x3f42db69	0.76116043
233	0x3f24a741	0.6431771
234	0x3f0d1b7e	0.55120075
235	0x3f650d19	0.8947311
236	0x3f460b09	0.7736059
237	0x3f0f6dd5	0.56026965
238	0x3f7519f0	0.957427
239	0x3f4932ce	0.78593147
240	0x3f605ba3	0.87639827
241	0x3f4ce22d	0.80032617
242	0x3fa13248	1.259347
243	0x3f43437d	0.76274854
244	0x3f5b5b99	0.8568664
245	0x3fa89807	1.3171395
246	0x3f7826e1	0.96934325
247	0x3f30e624	0.69101167
248	0x3f7c8e69	0.986548
249	0x3f4bf210	0.79666233
250	0x3f548b7f	0.83025354
251	0x3f402058	0.7504935
252	0x3f5bf422	0.8591939
253	0x3f10601f	0.5639667
254	0x3f766879	0.9625316
255	0x3f8cad2f	1.0990351

net_layers.3.bias f4 [7]
0	0x3f4e6fc4	0.8063929
1	0x3f422c94	0.7584927
2	0x3f7df0b3	0.991954
3	0x3f295b33	0.66154784
4	0x3f5ded95	0.86690646
5	0xbd8e65f6	-0.06953041
6	0x3c87dc24	0.016584463
