dialogue_manager/model/weights/trained_modelLIST_SAMPLEMODELCONSERVATIVE0.0MISS.pt (torch_old, 23906 bytes, 4 tensors)

net_layers.0.weight f4 [62, 88]
00000000: 10c6 493d 503a 1ebe ae7e 163e 0ea8 1eba
00000010: ff16 803e d371 483e acca f6bd 2cff b3bd
00000020: 9525 383e 87fd 1ebd 790c d23d 8179 f33d
00000030: 9bc1 7f3a 0eb0 a9bd 1ac4 1ebe 1ea3 543e
00000040: 7775 40be 0488 0a3d fcde 2bbe 4b37 923e
00000050: b696 0fbe c721 1f3e 26fe 85bd 3576 acbd
00000060: 2cff 5bbe 6467 913d b9fb 2f3d afb1 a83e
00000070: a1c5 bebd 480a f53d 52ce 94bd 7264 7cbc
00000080: 3e94 e73d 94e4 4a3e 1eef 2ebe 4d02 613d
00000090: 1b0e eebd 600d 5abd ab50 22be 5f5f 2bbd
000000a0: c3e3 73be c161 dbbd 06dd 7fbd 4deb 493e
000000b0: 59fa 9abc e1e0 433c a14b 50be f284 92bd
000000c0: d6ac a43d d325 8abd 224b ea3d ee7c 17be
000000d0: f519 c33d fe8d fcbd 54bd 93be 9969 2cbd
000000e0: 6496 c43c c52e 65bd 268c d13b 6d26 9fbd
000000f0: fe39 c83c 9727 b5be 8187 ccbc 9397 06bd
00000100: 3d87 b5bd 013c 93be aae4 a0bd 140d 13be
00000110: d6be 433e 18b2 8bbe 7f25 ebbd a1e4 09bd
00000120: b71d fabd 824a ebbd 642a dcbd 5a12 dabc
00000130: 79c0 19be 2871 113d 27bc 593e 3d18 583d
00000140: 254e 25be 87c2 2f3d 5351 0abd 8995 00be
00000150: 786f 743d a3bd 3d3d bf69 babd 326d e73d
00000160: 3fcc b63d 1382 d1bd 47ad 2c3e ec78 043e
00000170: 6914 8a3c bdc2 c33c ea01 e93d 208c c33d
00000180: 02c4 003e 0e57 03be bf8e 403e a0f6 a5bd
00000190: ad19 463c 47dd 14bd d15c b53d 485e 0f3e
000001a0: fec0 b53d faa8 26bd a679 863c ca92 e6bd
000001b0: ba35 2ebe 2478 34be 1ec3 ed3d 99a4 3ebe
000001c0: 2174 f0bd adcc c9bd c4f2 1dbe 6276 aa3d
000001d0: 0e32 5dbc 49f7 1ebe f297 0fbe 5baf 273e
000001e0: 6a85 bd3d 6c75 15be 78fa cf3d 618b 39be
000001f0: 35ff ecbd 7ede d23c 6dfe 3cbe 8be7 39be
00000200: f1b7 d83d 5601 c5bd 5fe5 9a3d bc7f c7bd
00000210: 7950 f5bd 5811 c53d 3c77 02be e576 46bd
00000220: eeed 2dbe 67d0 0c3e 8b19 793d eb4c 4b3e
00000230: 57df f2bd a4e6 6b3e fa6d 023e 4ade a1bb
00000240: 899d 29be 2c25 8e3e aee4 1c3e 8ee2 213e
00000250: 0cde a93d 0e0b 273e 7145 edbd e667 773d
00000260: 8cf4 16bd df15 9cbd a454 983d 141c f43d
00000270: 8436 f4bd 367b 263a d016 193c 39fb 123e
00000280: b39c c03d d9ff f93d 207b f1bd 71ab 9dbd
00000290: 10bd 603e c26f bfbb a895 633e 9507 d0bd
000002a0: 9ae3 383d a804 ab3d 8eb7 df3d 1e8e f13c
000002b0: 3d61 c2bd d254 9f3c f018 203e f7ab ebbd
000002c0: f11f 18be 149b 7abd c5b9 553d 6d5e 143c
000002d0: c0eb 003d add2 153e 88fb 3e3d 00f1 7dbe
000002e0: 6a85 9bbd f468 50be 8243 5e3e a368 07be
000002f0: b552 363e b66f 2fbe fdfa 17be 2383 4cbd
00000300: 7e57 de3d 79dd febd a137 d1bc 12b7 c43d
00000310: 7b55 073e 9376 9e3d f3f9 1dbe dce1 78bd
00000320: 4a22 eabc 92bd 23be 5162 2a3e 677b b4bc
00000330: 42d2 8f3d 7dec d43d 9c5e 033e a39d 78be
00000340: ba44 243e 245f 823c a6f0 14be c22a 42be
00000350: 41e2 513e 4a9e c13d 0886 39bd 3e33 f43d
00000360: 730c 133b af1e 04be d1d9 b5bd 850c cebd
00000370: 0216 9d3d 4e5f d4bd 711a 41be baa1 823e
00000380: b5fd ef3c c77c e13d ac48 42be 13e4 00be
00000390: d144 24be 44a2 f13c 152c 01be 8cb9 86bd
000003a0: 8b21 34be ea04 283d 0da1 c1bc 0d1a 063d
000003b0: 404b cfbd 7099 2f3b 5c99 ddbd f3ad 0d3e
000003c0: 641c 80bc a524 7e3e d8f5 843d 04a7 3fbd
000003d0: 02d7 02be 6ff9 d03d 8e27 603d 9d20 473e
000003e0: 9651 043d 5ffe da3c 4738 b1bd c8a9 8ebd
000003f0: abfd ffbb 81db 513e 7955 6f3d b359 c0bd
0.049261153 -0.15451932 0.14696762 -0.0006052264 0.25017545 0.1957467 -0.12050375 -0.087889045
0.17983086 -0.038816 0.10256285 0.118884094 0.00097563275 -0.08285533 -0.15504494 0.2076535
-0.1879481 0.03382112 -0.1678428 0.2855781 -0.14022335 0.15540229 -0.065426156 -0.08420984
-0.21484059 0.07099798 0.04296467 0.32948062 -0.093150385 0.119648516 -0.07265915 -0.015404807
0.11307572 0.19813758 -0.17083403 0.054933835 -0.11623784 -0.05323541 -0.15851085 -0.041839
-0.23817353 -0.107120045 -0.062466644 0.19718666 -0.018918203 0.011955471 -0.2034135 -0.071542636
0.08040778 -0.06745496 0.11440112 -0.1479375 0.09526435 -0.1233177 -0.28855383 -0.042092893
0.023997493 -0.055952806 0.006394881 -0.07771001 0.024441715 -0.35381767 -0.024966957 -0.032859396
-0.08863685 -0.28756717 -0.07856114 -0.14360458 0.19115767 -0.27284312 -0.11481761 -0.033665303
-0.12212699 -0.114888206 -0.10750273 -0.026620079 -0.15014829 0.035508305 0.2126318 0.05275749
-0.16143091 0.042910125 -0.033768963 -0.12557043 0.059676617 0.04632343 -0.09102201 0.11300124
0.089256756 -0.10229888 0.16862975 0.12936753 0.016855435 0.02389657 0.11377318 0.09548211
0.12574771 -0.12826177 0.18804453 -0.081036806 0.0120910825 -0.03634384 0.08855594 0.14000809
0.08874701 -0.040688492 0.016415428 -0.112584665 -0.17012683 -0.17623955 0.11609481 -0.18617477
-0.117409 -0.09853492 -0.15424639 0.08323361 -0.0135007035 -0.1552402 -0.14022806 0.16375487
0.09253962 -0.14595574 0.10155195 -0.18119575 -0.115721144 0.025740858 -0.1845643 -0.18154733
0.10581959 -0.096193954 0.0756328 -0.0974116 -0.119782396 0.09622449 -0.12740797 -0.04845323
-0.16985294 0.13751374 0.060815375 0.1985356 -0.11859005 0.23037201 0.12737265 -0.004939829
-0.16564001 0.27762735 0.1532161 0.1580908 0.08294305 0.16312811 -0.115855105 0.06040182
-0.03685431 -0.07621359 0.07438019 0.11919418 -0.119244605 0.00063507573 0.009343818 0.14353646
0.09404888 0.12207002 -0.11791062 -0.076987155 0.21947122 -0.00584218 0.22225058 -0.10157696
0.045138933 0.083504975 0.10923682 0.029486712 -0.09491203 0.019449625 0.15634513 -0.11507409
-0.14855935 -0.06118305 0.052179117 0.009055716 0.03147483 0.14631148 0.046626598 -0.24798965
-0.07593806 -0.20352536 0.2170544 -0.1322351 0.17804988 -0.17132458 -0.14841838 -0.04992975
0.108565316 -0.12444586 -0.025539221 0.096052304 0.13216202 0.0773746 -0.1542738 -0.06076227
-0.028580803 -0.15990284 0.16639067 -0.0220315 0.07022525 0.10396669 0.1282906 -0.24278884
0.16041842 0.015914507 -0.14544925 -0.18961623 0.20496465 0.09454019 -0.045293838 0.11923836
0.002243784 -0.1290233 -0.08879436 -0.10060982 0.07670213 -0.103697404 -0.18857743 0.25514013
0.029295782 0.110101275 -0.18973035 -0.12587003 -0.16041876 0.02949632 -0.12614472 -0.06578359
-0.1759092 0.04102031 -0.023636365 0.032739688 -0.10121775 0.0026794337 -0.108202666 0.13835888
-0.015638538 0.24818666 0.064922035 -0.046790138 -0.12777331 0.10203826 0.054725222 0.19446035
0.03230437 0.026732622 -0.08653312 -0.06965977 -0.007812222 0.2049389 0.058431122 -0.09392109

net_layers.0.bias f4 [62]
00000000: 25ec 7dbd 9e88 cd3d ed48 023e 0f5c 053d
00000010: 6224 a83c f27e b43d 5e53 b03d 3180 6fbc
00000020: 87b6 953b 769b d03d 8617 aa3c 6c40 08bd
00000030: 7162 7e3d 1843 a3bd 3732 47bc 16a1 f5bc
00000040: 521a 713d 88c0 c9bd 8425 9dbb a4ee c23c
00000050: b919 b8bd a3e0 d23d 24d8 4e3d 6a7c 353d
00000060: 9af2 9ebd b3d3 1ebd 1714 e73d 95b6 43bd
00000070: a786 debd 673b 7e3d 3973 40bc 7344 883c
00000080: df1d a43c 46be cb3d e5ec c93d f329 fd3b
00000090: 94de 8f3d d686 653d 8a58 87bc 151f 233d
000000a0: 7a69 9f3c 5e1f 83bd 39e6 8cbd 8ec5 85bd
000000b0: febf aabd ecf6 3a3d 8100 973d e0b9 793d
000000c0: 50a1 8e3c b44b ae3d 5c11 98bd 0d76 babc
000000d0: 33c7 a63c a049 cb3d 38f8 d83c 8a13 4c3c
000000e0: c42b 49bd 99f5 cd3d bf82 af3d 9a30 6e3d
000000f0: 592a ae3d 8f37 47bd
-0.061992783 0.10035823 0.12723131 0.032558497 0.020525161 0.088132754 0.08609651 -0.014617966
0.004568878 0.10185902 0.02076317 -0.033264562 0.0621056 -0.079717815 -0.012157968 -0.029984038
0.05886299 -0.098511755 -0.004795732 0.023795433 -0.08989281 0.10296752 0.050499097 0.044308104
-0.07761116 -0.03877611 0.11283129 -0.047781546 -0.10865527 0.06206837 -0.011746221 0.016634202
0.020033775 0.09948401 0.09859637 0.007725948 0.07024875 0.056036793 -0.01652171 0.039824564
0.019459475 -0.06402467 -0.06879849 -0.06531821 -0.08337401 0.04564564 0.07373143 0.06096828
0.017410904 0.08510533 -0.07425186 -0.02276137 0.020358657 0.09926152 0.026485547 0.01245583
-0.049114004 0.1005661 0.0856986 0.05815182 0.08504171 -0.04863697

net_layers.1.weight f4 [4, 62]
00000000: ed41 e73d 11ff 9b3e 4407 173e 7182 84be
00000010: 7713 8e3e 49b0 ef3d e1d1 87be 375b 7d3d
00000020: 89c4 9d3e b87f 10bd 2b1e 8a3d 269b 983e
00000030: fce5 0c3e cb9d d93e 87b9 053e dc1b 15be
00000040: 43ac b5be 3ad0 12be dd47 993e 0adc 0cbe
00000050: acc2 333d 4e37 393e 4e28 63be 3483 43be
00000060: 50a3 76be 126e 09bf 7d68 683e 7127 8bbe
00000070: aa16 073e ffd8 353e 360b 0abe f544 53bc
00000080: 7a5f 34bd 8576 903e 7904 583e a1fc 953d
00000090: 23b1 babe 6719 993d be5e 263d dd0c 8a3e
000000a0: 9e3e a1bc 1494 8bbe 2bd0 79be b4dd 86bd
000000b0: 0453 833e 5d2e 4b3e 0ded bb3e 48f1 af3e
000000c0: 8d5e 22be 1c8b c7be cc55 77be 6505 7cbe
000000d0: 327b 19be b410 e33d 422b a2be 5c12 123d
000000e0: cbe7 1fbd a203 303c c312 91be 3daa d13d
000000f0: 4cea b83b 256c 0dbe 817c 9fbd 2be0 a33e
00000100: de08 653d 7a94 85be befd 61be 4ee2 c8be
00000110: d7f3 a13d 2bec 273e a66e d63c 448e aebe
00000120: 06d1 6abd c8b3 983e 6225 2abe 335f 39be
00000130: 1aec 80be 916d ba3e 2cff a4be 38e0 893e
00000140: 8664 e8be 905c 9b3e 7439 5e3e 17fd a5be
00000150: 7098 b03c e875 3cbe 0a1e 8dbe e022 03be
00000160: ab98 35be c892 87be 7ac3 2c3e 7c05 a63e
00000170: b3c4 5fbb 2dd4 8dbd 9641 be3e 364d 70bd
00000180: dfc8 a93e 1003 54be 3b84 e93d e226 963e
00000190: 7bc1 45be 2602 dfbe 447a c43c 542f 973e
000001a0: 4c60 693e a0fa 983d 78b2 963e 7d5a 313e
000001b0: 5dac 35bd 9c52 943e 97f9 553e 3913 88bd
000001c0: 67cc ebbd fa26 1b3d 1b9d 513e 7063 2bbe
000001d0: ff89 903c ae59 33be 9abd b2be 8221 8d3d
000001e0: 9b36 1dbe fed7 953e e3f8 c6be e0ea 1e3d
000001f0: 5ac3 aabe 09d7 d63d 68c2 173e a517 90be
00000200: 582a 943e 4f17 853e 59a2 8f3e 1b44 0fbd
00000210: de0f c83d 59cc fcbd ee5c 9fbe 8453 d83d
00000220: 60e6 2ebe 2c59 da3e e09b c33d ba69 73be
00000230: 47b8 5bbe 943e 603e c15c 78bd 9617 1bbe
00000240: da53 9ebe cc4c 98be f51d 82be 59b2 763e
00000250: c035 c23d 8d3d 2fbe cc28 9b3e 08c5 cebd
00000260: 8345 863d 7e37 38be acc9 07be 5c34 5f3e
00000270: 041e 653e 5139 b23e 93c0 6dbe b1b4 923e
00000280: cf76 f0be 1215 a73e 52bc e23e 7d60 42bd
00000290: 9d76 2dbe 257b 19be 81b4 81be 40ad 9a3b
000002a0: 9621 6e3e 19e0 45be 124a 233e 82df f23d
000002b0: a53d 29be ae1a 8ebe b8fb 1d3e deb9 debe
000002c0: 471e 5fbe 7b18 873d 84b9 43be f243 8cbd
000002d0: 20fa 1abe c60c 4b3d 44c1 743d b626 aebc
000002e0: cc8e 063e 901e 843d 0847 88be 87bf 6abe
000002f0: 1ab9 97bd fb97 a0be c4fb 8e3d fd39 ff3d
00000300: 9d38 f73d a4a4 843e 2a44 333c ceb4 883e
00000310: c386 1ebe 0ed8 933e bd2a c7be 1df4 e23e
00000320: 3ab6 b1ba 4a14 18bd e0af 9cbe 84df 163e
00000330: eed2 c13e 8ea0 69bb 1c65 cfbd 5c68 23be
00000340: acad 56bd ab79 21be 2013 5c3d b9db aabe
00000350: c9c5 ba3e d9ec 0abe b02b 8e3e 5b1e c03d
00000360: 3cc6 98be c26f a33e e02a 883e 1b4d d2bd
00000370: 5c5e 06be 3c2d bc3e 144f b6be 00fe 5abe
00000380: a94f c03e ef43 0e3e 5162 6b3d 481b 94be
00000390: 90aa 5e3e 7c94 92bd c90f 1a3e d614 12be
000003a0: 20b8 89bd ae1a 88bc 790e 26be 816d 64be
000003b0: c3c5 8d3e 702e 07bd 8b08 813d a848 173e
000003c0: b3e9 9b3d 52a2 8b3d 2568 b4be 4f9c 9b3d
000003d0: 32f5 d6be a697 843d 63cd e43c ee70 903e
0.11291871 0.30468038 0.14748865 -0.2588077 0.27749225 0.117035456 -0.26527312 0.061854567
0.30814007 -0.035278052 0.06744035 0.2980587 0.13759607 0.425032 0.13059054 -0.14561409
-0.35482988 -0.14337245 0.2993764 -0.13755813 0.043886825 0.18087503 -0.22183344 -0.19093019
-0.24085736 -0.5368358 0.22696109 -0.2717853 0.1319224 0.17758559 -0.13480839 -0.012894859
-0.044036366 0.28215423 0.21095456 0.07323576 -0.3646327 0.07475548 0.040617697 0.2696294
-0.019683179 -0.27261412 -0.24395816 -0.06585255 0.25649273 0.19841905 0.36704293 0.3436377
-0.15856381 -0.3897332 -0.24153823 -0.24611433 -0.14988402 0.1108717 -0.31673628 0.03566204
-0.039039414 0.010743054 -0.28334627 0.102375485 0.0056431647 -0.13810785 -0.07787419 0.32006964
0.05591666 -0.2608984 -0.22069451 -0.39235157 0.07907837 0.16398685 0.026175808 -0.34092915
-0.057328247 0.29824662 -0.16615823 -0.18102722 -0.2518013 0.36411718 -0.3222593 0.26928878
-0.45389193 0.30344057 0.21701604 -0.32419655 0.021557063 -0.18404353 -0.2756198 -0.12806273
-0.1773402 -0.26479173 0.16871443 0.3242606 -0.0034144341 -0.06925235 0.37159413 -0.058667384
0.33161065 -0.20704293 0.11402174 0.2932654 -0.19312088 -0.43556327 0.023984082 0.29528296
0.2279064 0.07469678 0.29433036 0.17319675 -0.04435383 0.28969276 0.20895992 -0.066442914
-0.11513596 0.037878968 0.20470087 -0.16737151 0.017643927 -0.17514679 -0.3491028 0.06891157
-0.15352862 0.2926635 -0.3886176 0.038798213 -0.33352166 0.104902335 0.14820254 -0.2814304
0.28938556 0.25994346 0.2805355 -0.03497706 0.097686514 -0.12343664 -0.31125587 0.10562804
-0.17080069 0.42646158 0.09551215 -0.237708 -0.21457015 0.21898872 -0.060635332 -0.15145716
-0.3092335 -0.2974609 -0.2541348 0.24091472 0.09482908 -0.17113324 0.30304563 -0.100961745
0.06556227 -0.17989919 -0.13260525 0.21797317 0.22374731 0.34809354 -0.23217992 0.28653482
-0.46965644 0.32633263 0.44284302 -0.0474553 -0.16939779 -0.14988382 -0.25333026 0.00472036
0.23255 -0.19323768 0.15946224 0.11859037 -0.16527422 -0.2775473 0.15428054 -0.4350118
-0.21788894 0.06596466 -0.19113737 -0.06848897 -0.15134478 0.04957273 0.059754625 -0.021258693
0.1314041 0.06451142 -0.26616693 -0.22924624 -0.07408352 -0.31365952 0.06981614 0.12462232
0.12071345 0.2590686 0.010941545 0.26700443 -0.15481095 0.28875774 -0.38899794 0.4432687
-0.0013558336 -0.037128724 -0.30602932 0.14733702 0.3785624 -0.0035648677 -0.10126707 -0.15957779
-0.05241172 -0.15769069 0.053729177 -0.3337076 0.36479023 -0.13566913 0.27767706 0.0938079
-0.2983874 0.31921202 0.2659521 -0.10268613 -0.13121933 0.3675326 -0.35607207 -0.21385956
0.37560776 0.13893102 0.05746681 -0.28927064 0.21744752 -0.071572274 0.15045084 -0.14265761
-0.06724572 -0.016614284 -0.16216458 -0.22307397 0.27689943 -0.03300327 0.063004576 0.1477381
0.07612934 0.068180695 -0.35235706 0.07598173 -0.41983944 0.06474237 0.027929967 0.2821116

net_layers.1.bias f4 [4]
00000000: ff26 d1bd aa68 503d 5f72 b4bd 4752 9b3c
-0.10212516 0.050881065 -0.08810877 0.018960131
