dialogue_manager/model/weights/trained_model0.0.pt (torch_old, 164631 bytes, 8 tensors)

net_layers.0.weight f4 [115, 115]
-0.03929961 0.00499692 0.06004381 -1.2166746e-38 0.1431404 1.282437e-37 -2.4647183e-37 -8.275897e-38
2.2938574e-37 -8.4630345e-38 0.3527706 0.41127163 0.67182964 0.481906 1.008109e-38 1.757042e-37
-0.023232441 0.6835594 -8.510119e-38 -1.760248e-37 0.6522928 -1.349359e-37 3.2287446e-37 0.23661946
0.108955435 0.2508381 0.3294839 0.11893199 -2.422108e-37 9.666254e-38 0.19330992 0.35928494
-1.5984089e-37 -3.4763912e-37 0.22255574 -4.072615e-37 -3.1473388e-37 0.19515635 0.024797855 0.24964006
0.1408566 0.088645265 1.510419e-38 -4.834617e-37 0.3355631 0.4059524 1.9199222e-37 -2.1896954e-37
-0.0321409 -2.0342672e-37 -1.3509515e-37 0.30229834 0.09914181 -0.04378105 0.2477648 0.27797937
1.0153679e-37 -2.4562681e-37 0.22179173 0.30131412 1.0348145e-37 -6.420651e-37 0.09789871 -2.0949217e-37
1.8098631e-37 0.25403768 0.117773585 0.27560723 0.028076807 0.1137087 -1.1949452e-38 1.7918078e-37
0.1269672 0.3342536 -2.8129856e-38 1.0593018e-37 -0.086340964 2.3967618e-37 1.2767086e-37 0.11784091
0.14510131 0.03762828 0.036365885 0.11707303 -1.658341e-37 -1.3027675e-37 0.13278781 0.32028744
1.5135147e-37 -2.0905144e-37 0.014250686 5.450219e-37 5.4659456e-37 0.0152902985 -0.024153125 0.108133465
0.047963414 0.036331158 2.1914828e-37 3.2954334e-37 0.089598 0.3987827 -1.0793986e-38 -1.299596e-37
0.016482873 -5.9030057e-38 3.0728776e-37 -0.0005314037 1.0238755e-38 -6.9344163e-37 -6.0817194e-38 -2.644866e-37
-4.1300203e-38 -2.731848e-39 3.0560024e-37 -0.108903706 0.034968033 0.053365696 -4.4325994e-37 -0.0158893
-9.657523e-38 2.150226e-37 -6.763569e-39 -1.5537204e-37 1.6005532e-37 -0.3448183 -0.33677983 -0.62795025
-0.39986446 -2.8790708e-37 -2.8984003e-38 0.15781416 -0.42861474 -3.001468e-37 4.784032e-38 -0.5061056
2.7278781e-37 3.470045e-37 -0.2330157 -0.055171993 -0.20696431 -0.38300526 -0.08633596 -6.018337e-37
-1.3168127e-37 -0.013683295 -0.23567417 1.955806e-37 7.053957e-39 -0.19491667 -1.81346e-37 7.2710676e-38
-0.12822416 -0.1485868 -0.19767584 -0.12347408 -0.1661253 5.1015436e-38 -6.7818776e-38 -0.27342132
-0.4225296 2.6581892e-38 -1.1987698e-37 0.05620874 -1.0566113e-38 3.395008e-37 -0.25826174 -0.10959477
-0.0143542485 -0.3029513 -0.23548299 3.4610234e-37 -4.8256074e-37 -0.072869144 -0.27856892 5.519533e-38
2.05536e-37 -0.080145836 -2.4159473e-37 -6.0540454e-38 -0.29440802 -0.14930446 -0.27540565 -0.09141046
-0.14731368 3.19481e-38 -5.236538e-38 0.02436108 -0.37530145 1.9089205e-38 2.9064903e-37 0.02805011
-5.4922344e-37 3.6925717e-38 -0.16397198 -0.10543086 0.006582284 -0.06358538 -0.09084988 -9.3870703e-38
-9.565361e-38 -0.07367238 -0.2991466 3.1812917e-38 -4.698262e-37 -0.017195625 2.4087493e-37 1.5759983e-37
-0.026209395 0.019150497 -0.1270701 -0.04184876 -0.024935953 -1.917523e-37 9.715674e-38 -0.13104087
-0.3834905 -2.1768086e-37 -5.9972373e-37 -0.0060447617 1.1169916e-37 2.0497246e-37 0.00024285758 1.1413463e-37
-2.6928894e-37 -2.6067878e-37 -1.2595922e-37 5.479846e-38 1.2350927e-37 -1.5242734e-37 0.12623648 -0.069536
-0.06005547 1.3688186e-37 0.006120567 -1.9600917e-37 1.4491585e-37 -1.0096444e-37 4.1953598e-38 -6.7328535e-38
0.09273238 0.05711094 0.5250085 0.21884784 -6.1717857e-37 -1.4910959e-37 -0.20667389 0.13564157
-2.7473324e-37 -8.07523e-38 0.49273035 -2.0588294e-37 5.238623e-38 0.19263862 -0.27477345 -0.11388222
00000000: a1f8 20bd 34bd a33b 80f0 753d f07b 8480
00000010: 6693 123e 688e 2e02 73bd a782 964a e181
00000020: a21c 9c02 be62 e681 599e b43e 3292 d23e
00000030: 07fd 2b3f 62bc f63e fac5 6d00 fa27 6f02
00000040: f651 bebc c0fd 2e3f e0aa e781 b197 6f82
00000050: a9fc 263f 4caa 3782 aabc db02 5f4c 723e
00000060: 0724 df3d da6d 803e 1db2 a83e 9d92 f33d
00000070: 13d7 a482 fb91 0302 09f3 453e 32f4 b73e
00000080: 6c90 5982 4797 ec82 a7e5 633e 7b95 0a83
00000090: 6032 d682 11d7 473e df24 cb3c a5a1 7f3e
000000a0: b63c 103e a68b b53d 5678 a400 7483 2483
000000b0: edce ab3e fed8 cf3e c3a9 8202 e005 9582
000000c0: 2da6 03bd ef71 8a82 cae1 3782 d9c6 9a3e
000000d0: dc0a cb3d c253 33bd 0eb6 7d3e 5053 8e3e
000000e0: 6834 0a02 3a2a a782 5f1d 633e d845 9a3e
000000f0: 06da 0c02 c27b 5a83 1e7f c83d af92 8e82
00000100: 8658 7602 3a11 823e 4733 f13d 641c 8d3e
00000110: 5501 e63c 1be0 e83d 361e 8280 64e3 7302
00000120: b103 023e 4a23 ab3e 4c27 1981 482f 1002
00000130: 88d3 b0bd 7b1d a302 cdc6 2d02 9356 f13d
00000140: 7095 143e 1d20 1a3d 65f4 143d fcc3 ef3d
00000150: c0b8 6182 d252 3182 87f9 073e b7fc a33e
00000160: 4a02 4e02 e645 8e82 b67b 693c 1b76 3903
00000170: 1aff 3903 2984 7a3c c6dc c5bc 1475 dd3d
00000180: 4975 443d fbcf 143d 0425 9502 8c46 e002
00000190: 287f b73d 3f2d cc3e 3e89 7580 50e4 3082
000001a0: 1707 873c f2b1 a081 1421 d102 e64d 0bba
000001b0: 7c7d 6f00 49f7 6b83 668f a581 1100 b482
000001c0: 15dc 6081 48bf 1d80 12fb cf02 e808 dfbd
000001d0: a43a 0f3d fd95 5a3d 63d5 1683 472a 82bc
000001e0: 8e73 0382 3856 9202 14a6 4980 417b 5382
000001f0: 24db 5902 068c b0be 686e acbe 59c1 20bf
00000200: 09bb ccbe 7df0 c382 cecd 1d81 099a 213e
00000210: 6473 dbbe f344 cc82 d63b 8201 2390 01bf
00000220: 57a6 b902 b628 ec02 ab9b 6ebe 07fc 61bd
00000230: 74ee 53be 4419 c4be e8d0 b0bd 1ccb 4c83
00000240: 3a3c 3382 e62f 60bc 9254 71be f21a 8502
00000250: 90cf 4c00 3c98 47be dcd5 7682 f2ef c501
00000260: 324d 03be 2327 18be 896b 4abe fadf fcbd
00000270: c01c 2abe 92e0 8a01 ca9e b881 e1fd 8bbe
00000280: cd55 d8be c0b9 1001 082b 2382 233b 663d
00000290: 060e 7380 620d e702 e23a 84be 3973 e0bd
000002a0: 152e 6bbc 6f1c 9bbe 7422 71be 888b eb02
000002b0: f834 2483 6b3c 95bd 96a0 8ebe 8841 9601
000002c0: 6ce1 8b02 8023 a4bd bd6b a482 8ace a481
000002d0: a6bc 96be 45e3 18be f801 8dbe 6835 bbbd
000002e0: 66d9 16be 27f1 2d01 588d 8e81 e390 c73c
000002f0: 8327 c0be f0dc cf00 34ce c502 58c9 e53c
00000300: 1ce4 3a83 f00a 4901 45e8 27be 22ec d7bd
00000310: 33b0 d73b 0d39 82bd 800f babd 558a ff81
00000320: 6b32 0282 8be1 96bd be29 99be bc34 2d01
00000330: a2df 1f83 d7dd 8cbc 55ee a302 8783 5602
00000340: 16b5 d6bc 81e1 9c3c aa1e 02be 9b69 2bbd
00000350: 7c46 ccbc f67f 8282 2f3e 0402 942f 06be
00000360: de58 c4be 5b25 9482 4e13 4c83 2313 c6bb
00000370: 7a09 1802 3d7f 8b02 96a7 7e39 1d5a 1b02
00000380: c044 b782 a668 b182 6272 2b82 f42c 9501
00000390: b31c 2802 2d79 4f82 2344 013e e468 8ebd
000003a0: b9fc 75bd 5e50 3a02 0a8f c83b 9d65 8582
000003b0: ce3f 4502 f96c 0982 c86a 6401 2449 b781
000003c0: 79ea bd3d 29ed 693d f566 063f a619 603e
000003d0: d603 5283 1cf5 4a82 52a2 53be a0e5 0a3e
000003e0: 48f9 ba82 24d4 db81 2747 fc3e de1d 8c82
000003f0: e09b 8e01 0f43 453e 1baf 8cbe 153b e9bd

net_layers.0.bias f4 [115]
0.14453304 -0.056038607 0.009709706 -0.1002971 -0.1434616 -0.14026435 -0.07173827 -0.15203817
-0.010481094 -0.04547678 -0.05382088 9.672242e-05 -0.15484326 -0.06713138 -0.04366204 -0.07001254
-0.11776386 -0.069754735 0.15918574 -0.09058528 -0.124210015 0.12446403 -0.071417674 -0.094950765
-0.07395751 0.15457514 -0.15289289 -0.100407876 -0.06561808 -0.1465181 0.16348036 0.1577625
0.095682465 0.11408756 -0.1580012 -0.15972845 -0.13621873 -0.035325028 -0.1355758 -0.08014301
-0.06709557 -0.018821962 -0.16275197 0.11303867 -0.046624117 -0.090948015 -0.12248121 0.19042973
-0.11616447 -0.098902225 0.01691823 -0.012912011 -0.12294167 -0.05817865 -0.12486395 -0.08848389
-0.14523432 -0.1349328 0.10930919 0.106025964 -0.16548795 -0.022595031 -0.15313771 -0.07009096
-0.11697124 0.04924614 -0.065731615 -0.052986972 -0.12999429 -0.104077354 -0.15695049 -0.13902424
-0.13434564 -0.119329914 -0.11266718 -0.032608964 -0.13029328 -0.14577553 -0.11105284 -0.073739626
-0.07580558 -0.15792997 -0.039985206 -0.08259901 -0.06355789 -0.13371605 -0.023285834 -0.124947496
0.032638427 -0.11663775 -0.11393498 -0.14759682 0.023512602 -0.07776702 -0.06261156 -0.053322993
-0.038458586 -0.046753608 -0.07104431 -0.062870964 -0.062478077 -0.121778496 -0.0850696 0.2119888
0.17010361 -0.052822813 -0.14199884 -0.018356897 -0.060048863 0.18048431 -0.088706106 -0.0063798246
-0.11513888 -0.05324273 -0.10640506
00000000: 7800 143e bd88 65bd 7515 1f3c 9168 cdbd
00000010: 99e7 12be 75a1 0fbe 84eb 92bd e5af 1bbe
00000020: e5b8 2bbc dc45 3abd 4873 5cbd 74d7 ca38
00000030: 3b8f 1ebe 2d7c 89bd f8d6 32bd bc62 8fbd
00000040: 2e2e f1bd 92db 8ebd 9601 233e c684 b9bd
00000050: d261 febd ffe6 fe3d 6e43 92bd 8c75 c2bd
00000060: 0977 97bd f248 1e3e f48f 1cbe a5a2 cdbd
00000070: c662 86bd d708 16be 6567 273e 7e8c 213e
00000080: 2bf5 c33d bda6 e93d 11cb 21be db8f 23be
00000090: ec7c 0bbe fab0 10bd 62d4 0abe 0522 a4bd
000000a0: 6769 89bd 8430 9abc 74a8 26be d180 e73d
000000b0: eef8 3ebd f442 babd 6ed7 fabd 0300 433e
000000c0: a3e7 edbd 408d cabd 1a98 8a3c e68c 53bc
000000d0: d8c8 fbbd bc4c 6ebd acb8 ffbd 0b37 b5bd
000000e0: 4eb8 14be d32b 0abe 7fdd df3d 2424 d93d
000000f0: ac75 29be 3719 b9bc 22d0 1cbe d98b 8fbd
00000100: 9e8e efbd 52b6 493d 4c9e 86bd de08 59bd
00000110: 391d 05be 8226 d5bd a1b7 20be 5f5c 0ebe
00000120: e791 09be 3e63 f4bd 0dbe e6bd fa90 05bd
00000130: 9a6b 05be 2e46 15be ac6f e3bd cd04 97bd
00000140: f53f 9bbd 65b8 21be 87c7 23bd ab29 a9bd
00000150: a42a 82bd dcec 08be efc1 bebc 79e4 ffbd
00000160: dfaf 053d c6df eebd be56 e9bd 9f23 17be
00000170: 809d c03c 5144 9fbd 7d3a 80bd 3669 5abd
00000180: c086 1dbd b680 3fbd ae7f 91bd 7ec2 80bd
00000190: 03e9 7fbd 0167 f9bd f838 aebd 9813 593e
000001a0: a42f 2e3e bc5c 58bd 2568 11be 3461 96bc
000001b0: ccf5 75bd e1d0 383e 8cab b5bd d90d d1bb
000001c0: efcd ebbd 0d15 5abd e5ea d9bd

net_layers.1.weight f4 [115, 115]
-0.42564544 0.037887454 -0.16749483 0.08703794 0.13996093 0.14045219 0.08584743 0.09813463
-0.25985104 0.16687056 0.21039206 -0.114825636 0.09068977 0.10142988 0.12503207 0.06274631
0.062818624 0.101492174 -0.21115944 0.088225424 0.14765543 -0.27577624 0.21726517 0.16701709
0.08017333 -0.31102931 0.18404195 0.07988199 0.10385493 0.20782518 -0.29243514 -0.32729903
-0.2212219 -0.30374202 0.0724765 0.05140761 0.13952935 -0.1948334 0.13983114 0.093986675
0.07836694 0.16175324 0.1971749 -0.23245959 0.10835944 0.0617895 0.097648844 -0.2954762
0.11083535 0.14218967 -0.18412453 0.05834538 0.18555588 0.17209163 0.09568012 0.16318893
0.11300533 0.109887585 -0.30770814 -0.3321232 0.032351397 0.1571361 0.18702105 0.18683179
0.15397447 -0.16803919 0.15075849 0.037813637 0.0456602 0.08245991 0.16062748 0.16922617
0.10903709 0.0630546 0.07868146 0.21508029 0.10062348 0.14223313 0.10000394 0.047194805
0.13603178 0.07065877 0.07990635 0.18134122 0.10889809 0.18358114 0.121757634 0.07934828
-0.15906034 0.044129923 0.15532947 0.15800875 -0.2365648 0.11978294 0.083594486 0.10404145
-0.14414924 0.14967825 0.11579769 0.011976151 0.13142617 0.19565341 0.11835669 -0.379884
-0.35906738 0.125353 0.1747093 0.12908946 0.10322691 -0.24040188 0.16362034 -0.17055582
0.12858433 0.07065653 0.053049233 -0.3746065 0.12283972 -0.2624704 0.12851559 0.15940994
0.18194014 0.10694555 0.14376526 -0.26230326 0.1700066 0.15916589 -0.23394106 0.133676
0.1653129 0.19138227 0.15607575 0.13209501 0.15569243 -0.3491649 0.1040563 0.16889195
-0.3436329 0.16629463 0.06622455 0.10686788 -0.39492562 0.15935269 0.063579686 0.16460955
0.20716208 -0.3682236 -0.33501536 -0.3459467 -0.25881362 0.1722379 0.12102924 0.13891247
-0.15374799 0.0680153 0.04276357 0.15787394 0.1629195 0.13877475 -0.1792979 0.106456496
0.09636257 0.1712434 -0.3476573 0.20833524 0.05627114 -0.2582822 0.12317718 0.18689574
0.19902281 0.13551567 0.12532806 0.18936515 0.19712035 -0.23311298 -0.30791676 0.10669951
0.1361734 0.16871344 0.19504766 0.19740473 -0.22197777 0.17650989 0.07528638 0.08077235
0.12459849 0.15326644 0.14268571 0.12543039 0.083837286 0.15999028 0.24281071 0.117006786
0.20789947 0.17253135 0.15790763 0.078245334 0.050529253 0.10628657 0.21054873 0.06626386
0.1588599 0.11106451 0.08988967 -0.18339424 0.08638216 0.19066955 0.118333705 -0.28827634
0.13076138 0.1354355 0.10418762 -0.13952118 0.17632465 0.100133814 0.0713964 0.102262154
0.14886089 0.17911743 -0.41474262 -0.4405921 0.114740714 0.12573497 0.09223052 0.11944841
-0.2634358 0.14056452 -0.20397915 0.1381951 0.14157139 0.16700165 -0.42392942 0.01530615
-0.23219147 0.19620298 0.13249521 0.14022277 0.08798982 0.0634514 -0.26922283 0.1525978
0.24258459 -0.1275772 0.16403328 0.1430263 0.20321028 0.11661639 0.16301824 0.07867462
-0.36485264 0.09533832 0.10488605 -0.36225587 0.13385817 0.19292386 0.19977708 -0.40713102
00000000: 33ee d9be e02f 1b3d c483 2bbe f340 b23d
00000010: eb51 0f3e b3d2 0f3e c7d0 af3d cffa c83d
00000020: 320b 85be 1ee0 2a3e 0471 573e b429 ebbd
00000030: 8fbb b93d 78ba cf3d 6808 003e 2381 803d
00000040: 0da7 803d 21db cf3d 2e3a 58be 88af b43d
00000050: fc32 173e 8b32 8dbe c37a 5e3e 8706 2b3e
00000060: ea31 a43d 3c3f 9fbe 7e75 3c3e 2b99 a33d
00000070: e5b1 d43d 20d0 543e 0fba 95be bd93 a7be
00000080: fe87 62be 1384 9bbe 8f6e 943d c990 523d
00000090: c8e0 0e3e 6882 47be e52f 0f3e 167c c03d
000000a0: d97e a03d a4a2 253e 38e8 493e e309 6ebe
000000b0: 8eeb dd3d fd16 7d3d 1efc c73d a848 97be
000000c0: a5fd e23d 2b9a 113e 248b 3cbe 91fb 6e3d
000000d0: 5c02 3e3e ca38 303e f0f3 c33d 001b 273e
000000e0: 576f e73d be0c e13d ec8b 9dbe 0d0c aabe
000000f0: e682 043d 49e8 203e 7282 3f3e d550 3f3e
00000100: 7cab 1d3e 7712 2cbe 6f60 1a3e 79e2 1a3d
00000110: 3106 3b3d bee0 a83d 887b 243e a049 2d3e
00000120: d64e df3d c522 813d bf23 a13d 023e 5c3e
00000130: af13 ce3d 90a5 113e dece cc3d 574f 413d
00000140: ea4b 0b3e 8cb5 903d f1a5 a33d 83b1 393e
00000150: f605 df3d b2fc 3b3e 115c f93d 5a81 a23d
00000160: b7e0 22be 94c1 343d b00e 1f3e 0ccd 213e
00000170: 0b3e 72be c250 f53d 9633 ab3d af13 d53d
00000180: dc9b 13be 4145 193e 5727 ed3d 9e37 443c
00000190: 9594 063e 5e59 483e fe64 f23d 2880 c2be
000001a0: aed7 b7be 895c 003e ffe6 323e 0730 043e
000001b0: a168 d33d e92b 76be 178c 273e 2fa6 2ebe
000001c0: 9cab 033e 5fb4 903d 274a 593d 6ccc bfbe
000001d0: 6493 fb3d 8562 86be 9799 033e 5c3c 233e
000001e0: 844e 3a3e 4506 db3d 3337 133e 9d4c 86be
000001f0: 3616 2e3e 62fc 223e 3f8e 6fbe 5de2 083e
00000200: c947 293e b7f9 433e 52d2 1f3e ea43 073e
00000210: d66d 1f3e bec5 b2be 781b d53d 03f2 2c3e
00000220: a7f0 afbe 2449 2a3e bda0 873d 8cdd da3d
00000230: b133 cabe 5a2d 233e 1136 823d 688f 283e
00000240: 4c22 543e ce87 bcbe 2287 abbe ed1f b1be
00000250: 3883 84be 225f 303e 2ede f73d 123f 0e3e
00000260: 1d70 1dbe 9b4b 8b3d da28 2f3d b5a9 213e
00000270: 5fd4 263e f81a 0e3e de99 37be dd05 da3d
00000280: bd59 c53d 6e5a 2f3e 2300 b2be d555 553e
00000290: 917c 663d 913d 84be 5144 fc3d 9961 3f3e
000002a0: a3cc 4b3e 9fc4 0a3e 0056 003e f0e8 413e
000002b0: ebd9 493e 2bb5 6ebe 44a7 9dbe 4685 da3d
000002c0: 0a71 0b3e 37c3 2c3e 93ba 473e 7724 4a3e
000002d0: 244e 63be 02bf 343e bf2f 9a3d f96b a53d
000002e0: 7e2d ff3d e1f1 1c3e 341c 123e d370 003e
000002f0: e2b2 ab3d 7ed4 233e 5fa3 783e 41a1 ef3d
00000300: 99e3 543e 0fac 303e 8ab2 213e 173f a03d
00000310: c3f7 4e3d c6ac d93d 169a 573e 59b5 873d
00000320: 2bac 223e ca75 e33d 1318 b83d b3cb 3bbe
00000330: 21e9 b03d e13e 433e f158 f23d f598 93be
00000340: 50e6 053e 9baf 0a3e 5260 d53d a4de 0ebe
00000350: 738e 343e f512 cd3d 4738 923d d26e d13d
00000360: fd6e 183e 8f6a 373e 2559 d4be 4a95 e1be
00000370: 2efd ea3d abc0 003e 5be3 bc3d 5ea1 f43d
00000380: 0fe1 86be 25f0 0f3e e9df 50be 0483 0d3e
00000390: 17f8 103e 7b02 2b3e 470d d9be a5c6 7a3c
000003a0: 9ac3 6dbe 6fe9 483e d3ac 073e 8f96 0f3e
000003b0: 0234 b43d cff2 813d 93d7 89be 9942 1c3e
000003c0: 1868 783e 99a3 02be 57f8 273e 7d75 123e
000003d0: 5b16 503e 93d4 ee3d 41ee 263e 2920 a13d
000003e0: f7cd babe bd40 c33d 7fce d63d 9a79 b9be
000003f0: 1e12 093e d58d 453e 5d92 4c3e 7a73 d0be

net_layers.1.bias f4 [115]
-0.2120715 -0.29105875 -0.34002647 -0.03667281 -0.24033007 -0.13065065 -0.2200307 -0.08127631
-0.29580745 -0.10403568 -0.31763834 -0.29302818 -0.3100172 -0.21049933 -0.0045843464 -0.3207803
-0.21527918 -0.25962365 0.096531935 -0.06618435 -0.3130938 -0.32244968 -0.20417129 0.012319177
-0.32371834 -0.23068821 -0.3142938 -0.3325963 -0.30729252 -0.19685897 -0.3006498 -0.28847876
-0.258045 -0.32995155 0.030403286 -0.35492852 -0.37126324 -0.23007467 -0.2888968 -0.24640115
-0.19987129 -0.33980623 -0.31125164 -0.24674264 -0.25763577 -0.09640822 -0.23550001 -0.29189113
-0.32434955 -0.29284155 -0.13152775 0.09907303 -0.36197793 -0.19207786 -0.25634184 -0.11312654
-0.0911023 -0.1983475 0.030269157 -0.3275968 -0.18689165 -0.09219291 0.07660883 -0.23702511
-0.31389627 -0.24772495 -0.16945612 -0.252887 -0.2184266 -0.36682627 0.08721196 -0.2753981
-0.19316235 -0.18344504 -0.100519985 -0.34894085 -0.19360295 -0.30417374 -0.21887565 -0.42923495
-0.20416799 -0.03805179 -0.21949923 -0.31506452 -0.2834617 -0.18260498 -0.3346706 -0.3117629
-0.22720589 -0.20419347 -0.092017666 -0.15551318 0.089973494 -0.30238882 -0.25352418 -0.25644666
0.33629447 -0.30356327 -0.09083805 -0.13826975 0.073525645 -0.03474929 -0.29441747 -0.099816866
-0.34045437 -0.25303125 -0.105641976 -0.30135188 -0.28171912 0.045398995 -0.26658 -0.29345036
-0.116683505 -0.28104323 -0.20036043
00000000: 4529 59be a705 95be f317 aebe 3a36 16bd
00000010: 1619 76be 49c9 05be ba4f 61be 3274 a6bd
00000020: 1374 97be a910 d5bd 7ea1 a2be ca07 96be
00000030: 93ba 9ebe 238d 57be 4938 96bb 513d a4be
00000040: 2572 5cbe 64ed 84be 89b2 c53d a98b 87bd
00000050: d54d a0be 2018 a5be 4712 51be 60d6 493c
00000060: 69be a5be 8839 6cbe 1eeb a0be 104a aabe
00000070: 7255 9dbe 6695 49be c5ee 99be 7db3 93be
00000080: 791e 84be 69ef a8be 5010 f93c 31b9 b5be
00000090: 3716 bebe b298 6bbe 48ea 93be 9550 7cbe
000000a0: 0fab 4cbe 15fb adbe 605c 9fbe 1aaa 7cbe
000000b0: d6e8 83be ac71 c5bd ea26 71be c172 95be
000000c0: 2511 a6be 54ef 95be 36af 06be cde6 ca3d
000000d0: 2c55 b9be 0fb0 44be 3d3f 83be e3ae e7bd
000000e0: d893 babd 9b1b 4bbe 06f7 f73c c5ba a7be
000000f0: 8660 3fbe a3cf bcbd 17e5 9c3d b6b6 72be
00000100: 03b7 a0be 9cab 7dbe e885 2dbe 687a 81be
00000110: 39ab 5fbe a7d0 bbbe 2f9c b23d fb00 8dbe
00000120: 5acc 45be 04d9 3bbe 6cdd cdbd 60a8 b2be
00000130: da3f 46be a9bc 9bbe f020 60be afc4 dbbe
00000140: 6a11 51be 32dc 1bbd 68c4 60be 2350 a1be
00000150: e421 91be cdfc 3abe f259 abbe 639f 9fbe
00000160: a9a8 68be 1818 51be c273 bcbd d93e 1fbe
00000170: 0644 b83d b5d2 9abe eccd 81be fa4c 83be
00000180: ca2e ac3e a56c 9bbe 4d09 babd 9696 0dbe
00000190: 9d94 963d 4655 0ebd e3bd 96be c96c ccbd
000001a0: 0950 aebe 508d 81be d25a d8bd cb4a 9abe
000001b0: 7d3d 90be 4cf4 393d 2c7d 88be 203f 96be
000001c0: c3f7 eebd e6e4 8fbe 492b 4dbe

net_layers.2.weight f4 [115, 115]
0.17063433 0.15572526 0.21731336 0.17778258 0.15927011 0.22300254 0.09655923 0.24203096
0.1271632 0.18845616 -0.004705042 0.20299114 0.24319309 0.115826316 0.13585651 0.24826056
0.128638 -0.06748894 0.12967223 0.087543 0.18485269 0.22331496 0.17250016 0.16845769
0.19528703 0.24171475 0.22918394 0.1748397 0.17221628 0.083313815 0.1445915 0.17984006
0.20600563 0.15734482 0.21408705 0.14326055 0.23489018 0.16029081 0.21389891 0.15105811
-0.07534641 0.20129679 0.14537749 0.18832363 0.24194787 0.117330566 0.2374563 0.17275706
0.14941475 0.240028 0.14298119 0.1814723 0.24213679 0.17393883 0.21266818 0.08727459
0.14077033 0.2188713 0.10551721 0.09975293 0.12844937 0.099213794 0.15686241 0.16678496
0.24030097 0.24000083 0.08623005 0.15176481 0.1943374 0.24122684 0.17857088 0.12992243
0.19368349 0.17296314 0.1727777 0.1420698 0.15219264 0.18999746 0.17015105 -0.05556883
0.21382396 0.070200615 0.19689181 0.13547434 0.1997341 0.18776312 0.18580306 0.14693768
0.17715363 0.22472006 0.07014533 0.18220283 0.12305353 0.23777474 0.22188717 0.16849288
-0.14660564 0.121096574 0.21222153 0.15188938 0.1442948 0.10632283 0.213738 0.09687318
0.22941388 0.2400964 0.08247799 0.21368246 0.20584244 0.21834901 0.22710803 0.17149648
0.0689926 0.14333947 0.22417235 0.16933249 0.13799411 0.1116597 0.2086527 0.21184276
0.20721477 0.2249492 0.17137201 0.20446546 0.11875865 -0.037924923 0.17974354 0.15650105
0.11436171 0.26859775 0.15039644 0.14839612 0.021954723 0.2992768 0.1294595 0.105775535
0.14561309 0.23317176 0.11571376 0.1470364 0.1344662 0.12555915 0.119327076 0.12465014
0.21718825 0.10816289 0.13343158 0.12773739 0.14175232 0.18549779 0.15367956 0.09850331
0.16434352 0.1331979 0.1609988 0.04201473 0.104677655 0.1711167 0.09954867 0.18381956
0.14695475 0.15021506 0.10327046 0.12706396 0.1105084 0.14378338 0.27418518 0.1488901
0.14367492 0.17523074 0.15519287 0.10267705 0.1404055 0.15872094 -0.0424112 0.15691766
0.18164396 0.30616495 0.10831579 0.11422281 0.10471396 0.20179042 0.111270785 0.17383747
0.119312584 0.28627074 0.121082686 0.15191875 0.11160014 0.17696416 0.14098646 0.11003359
0.11877487 0.16223349 0.036777355 0.16290824 0.13451207 0.10238238 0.105847925 0.2046991
0.12855443 0.13288005 0.13389498 0.20144844 0.16704893 0.22379316 0.12737408 0.25739205
0.09740896 0.17162855 0.11061547 -0.003910309 0.11194931 0.1292942 0.18608598 0.28404742
0.14507723 0.11271069 0.13924696 0.11363149 0.16423488 0.24472614 0.12548041 0.16396035
0.23917636 0.12210151 0.17203128 0.25803733 0.12871176 0.13234551 0.27687064 0.27760065
0.42314234 -0.39563903 0.21961784 -0.19970417 -0.2712168 -0.12621137 0.26000026 -0.32948202
-0.6190993 0.34011725 0.26119632 -0.034550495 -0.3853247 0.5392429 0.06639664 -0.54606897
-0.2911486 -0.31915122 0.54892 0.45782426 -0.10545136 -0.31392 0.40043092 0.34000802
00000000: c4ba 2e3e 7176 1f3e 6587 5e3e a30c 363e
00000010: b417 233e c75a 643e d8c0 c53d f7d6 773e
00000020: 1237 023e a7fa 403e c12c 9abb e9dc 4f3e
00000030: 9c07 793e 5936 ed3d f81d 0b3e 0438 7e3e
00000040: aeb9 033e a437 8abd ccc8 043e bf49 b33d
00000050: 064a 3d3e adac 643e e2a3 303e 2c80 2c3e
00000060: 53f9 473e 1284 773e 32af 6a3e 2e09 333e
00000070: 7759 303e 6fa0 aa3d cb0f 143e fe27 383e
00000080: 24f3 523e 001f 213e a339 5b3e e5b2 123e
00000090: 0d87 703e 4623 243e 5108 5b3e faae 1a3e
000000a0: 384f 9abd bf20 4e3e d6dd 143e e9d7 403e
000000b0: 2fc1 773e 024b f03d bf27 733e 3ae7 303e
000000c0: 2e00 193e e6c9 753e a969 123e e0d3 393e
000000d0: b5f2 773e 051d 323e b0c5 593e 05bd b23d
000000e0: 1926 103e cc1f 603e 6819 d83d 444b cc3d
000000f0: 3b88 033e 9a30 cb3d 8aa0 203e adc9 2a3e
00000100: 7511 763e c7c2 753e 6199 b03d 3c68 1b3e
00000110: 6200 473e 2b04 773e 49db 363e 630a 053e
00000120: f754 463e 401d 313e a3ec 303e bf7a 113e
00000130: 63d8 1b3e b28e 423e 143c 2e3e 249c 63bd
00000140: abf4 5a3e 57c5 8f3d 029e 493e c9b9 0a3e
00000150: 1987 4c3e fa44 403e 2843 3e3e d576 163e
00000160: c367 353e 041d 663e 5ba8 8f3d 6193 3a3e
00000170: 7d03 fc3d 397b 733e 6436 633e 6689 2c3e
00000180: ca1f 16be 7b01 f83d 9a50 593e e488 1b3e
00000190: 04c2 133e c9bf d93d 22de 5a3e 7265 c63d
000001a0: 79eb 6a3e d5db 753e 38ea a83d 93cf 5a3e
000001b0: 5cc8 523e e296 5f3e 028f 683e c69c 2f3e
000001c0: fe4b 8d3d 95c7 123e 708d 653e 7f65 2d3e
000001d0: 544e 0d3e d7ad e43d 0ea9 553e 4fed 583e
000001e0: 1c30 543e 1559 663e 257c 2f3e 655f 513e
000001f0: bc37 f33d 2a57 1bbd b10e 383e d041 203e
00000200: 7936 ea3d a585 893e 8601 1a3e 27f5 173e
00000210: 64da b33c cf3a 993e 0891 043e d8a0 d83d
00000220: 991b 153e 94c4 6e3e 56fb ec3d b690 163e
00000230: 82b1 093e 9492 003e c161 f43d 9348 ff3d
00000240: 9966 5e3e 8184 dd3d 4aa2 083e 97cd 023e
00000250: 8527 113e 22f3 3d3e 2d5e 1d3e 1abc c93d
00000260: ab49 283e 0865 083e dfdc 243e a317 2c3d
00000270: 3d61 d63d 3739 2f3e 2ce0 cb3d 323b 3c3e
00000280: 4e7b 163e fad1 193e 777f d33d 0e1d 023e
00000290: 3a52 e23d f33b 133e 0062 8c3e a576 183e
000002a0: 851f 133e b06f 333e e1ea 1e3e 5848 d23d
000002b0: 76c6 0f3e be87 223e 5eb7 2dbd 06af 203e
000002c0: e000 3a3e a7c1 9c3e abd4 dd3d a6ed e93d
000002d0: 4674 d63d 26a2 4e3e f0e1 e33d 7302 323e
000002e0: 285a f43d 1492 923e 33fa f73d 9790 1b3e
000002f0: 9d8e e43d 1836 353e c15e 103e 4a59 e13d
00000300: 3d40 f33d 8920 263e daa3 163d 6bd1 263e
00000310: 88bd 093e daad d13d ccc6 d83d a49c 513e
00000320: c6a3 033e b511 083e c41b 093e 8048 4e3e
00000330: e00e 2b3e 092a 653e 5a6e 023e e4c8 833e
00000340: 597e c73d 65bf 2f3e 5d8a e23d 0d22 80bb
00000350: ae45 e53d b365 043e 538d 3e3e aa6e 913e
00000360: 208f 143e ddd4 e63d c196 0e3e a0b7 e83d
00000370: 302d 283e 7d99 7a3e f07d 003e 39e5 273e
00000380: a6ea 743e 5b10 fa3d f828 303e 781d 843e
00000390: 04cd 033e 9585 073e fdc1 8d3e ac21 8e3e
000003a0: 1da6 d83e 3391 cabe 80e3 603e 407f 4cbe
000003b0: eedc 8abe 8e3d 01be c11e 853e deb1 a8be
000003c0: 4b7d 1ebf d923 ae3e 86bb 853e d284 0dbd
000003d0: 4749 c5be d30b 0a3f f6fa 873d 2dcb 0bbf
000003e0: 6e11 95be ca67 a3be 0586 0c3f f167 ea3e
000003f0: e2f6 d7bd 1fba a0be 4805 cd3e 8815 ae3e

net_layers.2.bias f4 [115]
0.044229798 0.022611175 -0.50293463 -0.105641246 -0.0112628685 -0.026850635 -0.07000699 -0.074739285
-0.0780974 -0.5051941 -0.3052821 -0.1323483 0.026289515 -0.058062613 -0.109405525 -0.051866077
-0.075684 -0.05292448 -0.015671616 -0.02961657 0.16396087 -0.0958466 -0.3299105 -0.07000079
-0.08555737 -0.0483309 -0.1958537 -0.003518441 -0.47871792 0.018439187 0.069322884 -0.061128233
0.0066326824 -0.057154253 -0.20712334 0.020948095 0.099130765 -0.024063364 -0.5210694 -0.06370627
-0.040227327 0.041189924 0.08301943 0.011029584 -0.029957397 0.055487458 -0.028527163 -0.005625175
0.00012952504 -0.03885296 -0.18233807 -0.026580181 -0.07592428 -0.34569442 -0.09203307 -0.029861324
-0.018905126 -0.0676436 -0.052558396 -0.12942113 0.014974639 -0.0842722 0.065405466 -0.06593116
-0.07681375 -0.19214453 -0.052813087 -0.017381534 -0.26445323 -0.116242744 0.035497878 -0.061888784
-0.12347306 0.10449832 -0.1452091 0.0067344317 -0.086951785 -0.05181579 -0.5156726 0.017154051
0.11525599 0.053583052 0.025005994 -0.09564365 -0.06679248 -0.14733525 -0.122032 -0.10904258
0.04297349 0.14208232 -0.12267054 -0.08470932 -0.0525183 0.0068461923 0.046891406 -0.02950076
0.027090296 -0.21154949 -0.030655151 -0.39987513 -0.13859878 0.112327054 0.10979098 -0.099376366
0.32548037 -0.18285644 0.013011928 -0.10969908 -0.11335853 -0.07872617 -0.039830066 -0.4267394
-0.14719553 -0.011435794 -0.09485626
00000000: 4e2a 353d 123b b93c 53c0 00bf 705a d8bd
00000010: e587 38bc ddf5 dbbc d35f 8fbd e910 99bd
00000020: 88f1 9fbd 6754 01bf ef4d 9cbe 5086 07be
00000030: 1c5d d73c 10d3 6dbd 0110 e0bd 8671 54bd
00000040: 3700 9bbd 57c7 58bd c361 80bc 739e f2bc
00000050: 5ce5 273e 394b c4bd 07ea a8be 935c 8fbd
00000060: b438 afbd 9ff6 45bd df8d 48be a595 66bb
00000070: 841a f5be c70d 973c 28f9 8d3d 9961 7abd
00000080: f956 d93b 941a 6abd 2418 54be 579b ab3c
00000090: 1205 cb3d 8820 c5bc ce64 05bf 6f78 82bd
000000a0: 69c5 24bd c4b6 283d 1706 aa3d 6eb5 343c
000000b0: 3769 f5bc d146 633d ccb1 e9bc 6353 b8bb
000000c0: 1dd1 0739 4824 1fbd d5b6 3abe aebe d9bc
000000d0: 307e 9bbd dcfe b0be d67b bcbd bc9f f4bc
000000e0: ecde 9abc ba88 8abd 7947 57bd f986 04be
000000f0: 3058 753c e796 acbd 4df3 853d ea06 87bd
00000100: 8750 9dbd 89c1 44be 8952 58bd b863 8ebc
00000110: 6a66 87be ad10 eebd 3966 113d 187f 7dbd
00000120: 72df fcbd 3703 d63d b2b1 14be 82ac dc3b
00000130: c713 b2bd cb3c 54bd 1f03 04bf a786 8c3c
00000140: 550b ec3d e779 5b3d 5fd9 cc3c d1e0 c3bd
00000150: 7fca 88bd 0ddf 16be eaeb f9bd b751 dfbd
00000160: f804 303d 077e 113e b13a fbbd 147c adbd
00000170: 6e1d 57bd 0656 e03b 3411 403d 94ab f1bc
00000180: 78ec dd3c 6ea0 58be 8320 fbbc 6fbc ccbe
00000190: d7ec 0dbe ba0b e63d 18da e03d d685 cbbd
000001a0: 5da5 a63e b83e 3bbe fb2f 553c e9a9 e0bd
000001b0: 8428 e8bd 303b a1bd da24 23bd 967d dabe
000001c0: 6dba 16be 325d 3bbc 0044 c2bd

net_layers.3.weight f4 [7, 115]
1.3954142 1.4096467 0.9169782 1.4417061 1.38628 1.5607274 1.5664165 1.4044968
1.5509366 0.9850732 1.1523795 1.4654562 1.4648331 1.5536445 1.6062733 1.56333
1.4596285 1.4412135 1.5564377 1.3708615 1.3492491 1.4622662 1.2156605 1.4993126
1.4497002 1.4704962 1.6066948 1.5083289 0.9005491 1.4418378 1.478689 1.4077957
1.3463094 1.4637015 1.6265728 1.4936404 1.3921993 1.4682223 0.90824604 1.5132363
1.5272472 1.4248649 1.3445213 1.5456548 1.4498188 1.4197147 1.4691573 1.5019469
1.59465 1.4898547 1.4842771 1.3133198 1.533707 1.4418292 1.4750257 1.3982303
1.4108636 1.4993283 1.556297 1.5255212 1.4975162 1.5172333 1.479131 1.3807821
1.4905225 1.5852592 1.5680934 1.4126874 1.2595655 1.5472602 1.4778659 1.443716
1.5074416 1.4537036 1.4984069 1.4632225 1.4953659 1.4465309 0.9658791 1.5270602
1.4444687 1.5385088 1.4755038 1.5509709 1.5027697 1.4643655 1.5760121 1.5051222
1.4026246 1.3400437 1.5955167 1.5325625 1.5626132 1.464195 1.4212545 1.496112
1.4381658 1.5786567 1.5350019 0.8208273 1.6956882 1.3991674 1.3476028 1.7277188
1.5299771 1.605714 1.6403402 1.5740728 1.465397 1.553885 1.7554773 0.9712563
1.4951439 1.6344948 1.5423477 1.4613545 1.4619411 1.90971 1.4981098 1.3769073
1.4782851 1.423898 1.3692532 1.5724558 1.9001967 1.9048724 1.536249 1.3587432
1.4410743 1.5024575 1.4553187 1.4727641 1.5071698 1.4255753 1.4376609 1.5062321
1.5148013 1.8469828 1.4907104 1.5085647 1.4704682 1.3549514 1.3631229 1.927367
1.4517133 1.383961 1.4711128 1.3944187 1.4643966 1.4538888 1.506309 1.3341902
1.3465235 1.8412675 1.4679427 1.3776368 1.4753339 1.382165 1.381377 1.5292282
1.3742758 1.451869 1.370862 1.554174 1.4148262 1.5636849 1.4027201 1.4608948
1.7663201 1.50144 1.3834063 1.4169385 1.4096246 1.4968798 1.3742353 1.4598877
1.5244367 1.5118341 1.5796918 1.5381675 1.4824928 1.4471526 1.616517 1.7744633
1.5167778 1.5192388 1.366047 1.5389793 1.3264334 1.4058734 1.4830563 1.4996293
1.4470044 1.94191 1.4555848 1.4721451 1.4269202 1.3572415 1.5267464 1.3500414
1.5228845 1.5284851 1.4901024 1.5011969 1.3852854 1.4275863 1.4709635 1.3515481
1.4646212 1.350501 1.4896836 1.4480897 1.4118712 1.3472573 1.807771 1.3476529
1.5033909 1.4254502 1.2006868 0.7141383 1.5389786 1.2923868 1.5215026 1.5308228
1.3688731 1.2055509 1.8653855 1.5928752 1.3563136 1.5297904 1.4872806 1.5902907
0.43438193 1.3190159 1.4491223 1.4002068 1.3366255 1.120891 1.4069048 0.29241678
0.62916696 1.3088193 1.5333979 1.4301069 1.287772 1.3071542 1.3553009 1.5219649
1.3760215 1.4882132 1.5966157 1.3808855 0.7395359 1.4590566 1.312497 1.4316995
00000000: ef9c b23f 4e6f b43f 15bf 6a3f d389 b83f
00000010: 9f71 b13f eac5 c73f 5680 c83f 8dc6 b33f
00000020: 1785 c63f c22d 7c3f 2c81 933f 1294 bb3f
00000030: a77f bb3f d3dd c63f 5d9a cd3f 331b c83f
00000040: 1bd5 ba3f af79 b83f 5a39 c73f 6478 af3f
00000050: 32b4 ac3f 8a2b bb3f c39a 9b3f 7ae9 bf3f
00000060: c78f b93f 3839 bc3f 2da8 cd3f ec10 c13f
00000070: 638a 663f 248e b83f ae45 bd3f a632 b43f
00000080: de53 ac3f 925a bb3f 8a33 d03f 9c2f bf3f
00000090: 9633 b23f b5ee bb3f d082 683f bab1 c13f
000000a0: d67c c33f f961 b63f 4619 ac3f 04d8 c53f
000000b0: aa93 b93f 36b9 b53f 590d bc3f cc3f c03f
000000c0: 7e1d cc3f 8fb3 be3f cbfc bd3f dd1a a83f
000000d0: 8350 c43f dc8d b83f a4cd bc3f 36f9 b23f
000000e0: 2e97 b43f fde9 bf3f bd34 c73f 4744 c33f
000000f0: 9cae bf3f b334 c23f 2a54 bd3f 78bd b03f
00000100: 71c9 be3f c6e9 ca3f 49b7 c83f f1d2 b43f
00000110: 7139 a13f 9f0c c63f b62a bd3f b0cb b83f
00000120: d9f3 c03f f612 ba3f cccb bf3f e04a bb3f
00000130: 2668 bf3f ed27 b93f da43 773f b576 c33f
00000140: 5ae4 b83f dbed c43f 4fdd bc3f 3786 c63f
00000150: c25a c03f 5470 bb3f c4ba c93f d8a7 c03f
00000160: 3489 b33f 8d86 ab3f e439 cc3f 022b c43f
00000170: b603 c83f be6a bb3f abeb b53f 9980 bf3f
00000180: d115 b83f 6c11 ca3f f17a c43f bd21 523f
00000190: 500c d93f eb17 b33f 407e ac3f e425 dd3f
000001a0: 4ad6 c33f 0988 cd3f abf6 d13f 387b c93f
000001b0: 2192 bb3f b4e5 c63f 7bb3 e03f 41a4 783f
000001c0: e060 bf3f 2037 d13f a66b c53f aa0d bb3f
000001d0: e320 bb3f 6171 f43f 10c2 bf3f 803e b03f
000001e0: 7238 bd3f 4a42 b63f b043 af3f 3b46 c93f
000001f0: a539 f33f dcd2 f33f cfa3 c43f 4ceb ad3f
00000200: 1f75 b83f 8750 c03f e247 ba3f 8983 bc3f
00000210: f1ea c03f 4079 b63f 4605 b83f 37cc c03f
00000220: 02e5 c13f ef69 ec3f 99cf be3f a618 c13f
00000230: 4d38 bc3f 0c6f ad3f d07a ae3f f6b3 f63f
00000240: bed1 b93f a225 b13f 6d4d bc3f 507c b23f
00000250: 5971 bb3f 0719 ba3f bcce c03f bfc6 aa3f
00000260: e25a ac3f a7ae eb3f 8ce5 bb3f 6756 b03f
00000270: bed7 bc3f c8ea b03f f6d0 b03f c0bd c33f
00000280: 45e8 af3f d8d6 b93f 6878 af3f 2cef c63f
00000290: 0619 b53f d426 c83f 558c b33f 9afe ba3f
000002a0: c716 e23f 302f c03f 7513 b13f 3e5e b53f
000002b0: 946e b43f c299 bf3f f1e6 af3f 9add ba3f
000002c0: be20 c33f c883 c13f 5733 ca3f ace2 c43f
000002d0: 53c2 bd3f 4c3c b93f 07ea ce3f 9d21 e33f
000002e0: c625 c23f 6b76 c23f a1da ae3f 46fd c43f
000002f0: 92c8 a93f a9f3 b33f cad4 bd3f daf3 bf3f
00000300: 7137 b93f 8290 f83f 9a50 ba3f 406f bc3f
00000310: 52a5 b63f 17ba ad3f 6d6c c33f 28ce ac3f
00000320: e1ed c23f 66a5 c33f adbb be3f 3827 c03f
00000330: 0851 b13f 26bb b63f 8848 bc3f 87ff ac3f
00000340: b578 bb3f 37dd ac3f f4ad be3f 015b b93f
00000350: 32b8 b43f ed72 ac3f 0a65 e73f e47f ac3f
00000360: 1d6f c03f 2775 b63f 1bb0 993f c5d1 363f
00000370: 40fd c43f ee6c a53f 99c0 c23f 00f2 c33f
00000380: 3c37 af3f 7e4f 9a3f f4c4 ee3f 56e3 cb3f
00000390: af9b ad3f 2cd0 c33f 365f be3f a58e cb3f
000003a0: 4f67 de3e 83d5 a83f d77c b93f fa39 b33f
000003b0: 8b16 ab3f 5b79 8f3f 7515 b43f a7b7 953e
000003c0: 1611 213f 6487 a73f 6246 c43f be0d b73f
000003d0: b7d5 a43f d450 a73f 807a ad3f bfcf c23f
000003e0: 7921 b03f c57d be3f e75d cc3f dbc0 b03f
000003f0: 3a52 3d3f 5ec2 ba3f e7ff a73f ee41 b73f

net_layers.3.bias f4 [7]
1.3885556 1.3970729 1.3312795 1.4523288 1.3409052 1.3712703 1.300041
00000000: 31bc b13f 49d3 b23f 5e67 aa3f e9e5 b93f
00000010: c8a2 ab3f c985 af3f be67 a63f
