dialogue_manager/model/weights/trained_model.pt (torch_old, 2257 bytes, 2 tensors)

net_layers.0.weight f4 [5, 83]
000000 15 c4 c7 40 4f 3d bf 40 c0 92 c2 40 42 4c e2 40
       6.242686 5.976234 6.080414 7.071809
000010 c2 04 cf 3d 58 26 83 3c d9 fb 66 bd bc 06 1d 3d
       0.10108329 0.016009495 -0.056392524 0.0383365
000020 6c 68 96 be 40 0e 99 bc b8 24 75 3c 20 49 30 3c
       -0.29376543 -0.018683553 0.014962368 0.010759622
000030 a8 63 35 3c a2 e9 86 3f 53 ef ac bd 31 5f 85 bf
       0.011071123 1.0540049 -0.08444085 -1.0419675
000040 64 9f 98 bd 10 c1 74 3d 96 d8 c1 be f5 1a c1 3e
       -0.07452276 0.05975443 -0.37860554 0.3771588
000050 6e 53 bc 3d 70 5d fd 3b 32 8a c5 bd e7 f3 00 3f
       0.091956005 0.007732086 -0.09645499 0.50372165
000060 80 1c 8f 3c bc 8e cd be 7e 8d 91 3d 08 98 ec 3c
       0.017469645 -0.4014796 0.071070656 0.028881088
000070 f6 41 32 3d 87 fc 00 3f 7f 65 78 bd 28 3a e2 bc
       0.043519937 0.50385326 -0.06064367 -0.027615622
000080 20 b0 d4 bc 6f 61 25 3e a8 03 4a bc ab bd 79 3e
       -0.02596289 0.16150449 -0.012329973 0.24388759
000090 f4 b0 66 3d a8 b6 15 bc ee 55 1a 3e b9 35 1b be
       0.0563211 -0.009137787 0.15071842 -0.15157212
0000a0 44 4c 03 3d e2 cd 8c 3d 08 aa 12 bc 2b 37 35 3e
       0.032055154 0.068752065 -0.008951671 0.17696826
0000b0 dc b3 8f 3d 4b 3f 43 3e ee 5a d0 3d be 0a a8 3d
       0.07016727 0.19067113 0.101735935 0.08205174
0000c0 3f 68 f1 bd 16 22 18 be 6e e4 81 bd 30 59 e6 3c
       -0.117874615 -0.14856753 -0.06342398 0.0281187
0000d0 c6 f6 a6 3d cc 65 2b be d2 ae 06 bd 29 b3 75 3d
       0.08152537 -0.16738051 -0.032881565 0.059985314
0000e0 d8 37 e8 3c 1e b4 87 bd 33 8d 9f be e0 42 bb 3b
       0.02834694 -0.066261515 -0.31162414 0.005714759
0000f0 70 90 6b 3d 87 86 58 bd 1c 36 be bc 68 22 a3 bd
       0.057510793 -0.05286267 -0.02321916 -0.07965547
000100 70 92 b7 3d 13 6f 89 be 16 d3 b6 bd 8a 91 3d bd
       0.089634776 -0.26842555 -0.0892698 -0.046281375
000110 6c e1 0a 3d 44 34 20 be 98 55 3e bd b0 9b d4 3b
       0.033906385 -0.15644938 -0.046468347 0.006488286
000120 02 90 ad 3d 21 95 9b be 2e 3a 8c 3d ee 92 58 bd
       0.08474733 -0.30387214 0.068470344 -0.052874498
000130 f0 1a c4 3c 28 e6 bb bc 1a b1 b4 bd a8 fa 88 3c
       0.023938626 -0.022936895 -0.08822842 0.016721085
000140 88 88 65 3d 1c f7 1f bd 82 f4 a0 bd ed 57 d0 40
       0.05603841 -0.03905402 -0.07859136 6.510733
000150 3e 56 ca 40 19 b1 c9 40 aa 56 e0 40 c4 1b 62 3d
       6.3230276 6.3028684 7.010579 0.05520226
000160 44 30 da bc 3a de 3b bd e0 27 20 3d 9a 78 25 be
       -0.026634343 -0.04586623 0.039100528 -0.16159287
000170 41 fd 17 3e a8 fd 0e bc e0 e6 f6 bc 00 78 45 39
       0.14842702 -0.008727469 -0.030139387 0.00018832088
000180 8f dc 8e 3f 0c 32 96 bd 08 2f 5c bf dc 91 8d bd
       1.1161059 -0.073337644 -0.86009264 -0.06912586
000190 40 e4 a0 bd 7a 9a 0e bf 5c 1b e4 3d 00 aa 89 bb
       -0.07856035 -0.5570446 0.11138031 -0.004201174
0001a0 02 7f 3c bd a6 90 9a 3d db 00 fa 3e cc ec 72 3d
       -0.04601956 0.07547121 0.48828778 0.05930786
0001b0 e9 0c f2 be ec 0c db bd 42 63 84 3d 6b 36 a0 be
       -0.47275475 -0.10695824 0.064642444 -0.31291518
0001c0 f4 d0 1c bd a0 70 cc 3c ec b2 83 bc d0 ba 98 bd
       -0.03828521 0.024956048 -0.016076528 -0.07457507
0001d0 1c c4 6d be ac 4c 6b 3d 6a bd 36 be 8b e3 da bd
       -0.23219341 0.057446167 -0.17845693 -0.106879316
0001e0 c8 39 93 bc 69 81 bc 3d 88 0d 8e be 3a f7 8e bd
       -0.017971888 0.092043705 -0.277447 -0.069807485
0001f0 80 31 7b 3d 40 4a 8f bd 16 5e 78 bd b4 e0 cb 3d
       0.061326504 -0.06996584 -0.060636602 0.09954968
000200 f0 27 f5 3d a2 c6 d1 3d 52 ac 99 bd bf 32 99 bd
       0.11970508 0.10242964 -0.075035706 -0.07480382
000210 f6 36 38 3b a4 85 f7 bc f0 1d ca 3d 50 b2 47 3d
       0.002810893 -0.030215092 0.098689914 0.048754036
000220 df 13 e9 bd 80 de 53 bd e8 cb 68 3d 57 6d 8f bd
       -0.11380743 -0.051725864 0.056835085 -0.07003277
000230 e8 72 d3 3c d6 07 07 bd c1 2a 09 bd 78 c8 3f 3c
       0.025811628 -0.032966457 -0.03348804 0.01170551
000240 c8 6b 0d bd 26 a8 84 3d 9d f5 09 be 00 4a 74 3b
       -0.034526616 0.06477384 -0.134726 0.0037275553
000250 36 0b c0 bd 9e e4 9f 3d fa 36 5e bd ca 5c 76 bd
       -0.09377138 0.07807277 -0.05425165 -0.060147084
000260 ad 27 b4 bd 36 f0 de 3d b4 32 19 bd 10 c6 22 3d
       -0.0879663 0.1088566 -0.03740187 0.03973967
000270 3a 79 2b bd c5 7b 76 bd db 27 f1 bd 30 c1 51 3d
       -0.041863658 -0.06017663 -0.1177518 0.05120963
000280 b4 f4 dd bc 78 d2 d4 3c 64 ea b4 bd 22 a5 97 3d
       -0.027094223 0.025979266 -0.08833769 0.074045435
000290 a8 3d 45 3d be 05 96 bd 48 e2 d0 40 60 f1 a9 40
       0.048154503 -0.07325314 6.527622 5.3107147
0002a0 8e 81 ae 40 ca f8 e3 40 20 1c cb bc a8 ff e0 3c
       5.453315 7.1241198 -0.024793684 0.027465656
0002b0 00 73 7e 3b 38 df b8 3c 00 81 c3 bd 43 7b 87 3e
       0.003882587 0.022567376 -0.09546089 0.2646123
0002c0 90 fa c0 3b c8 cc 19 3d c2 e3 30 bd b2 18 bf 3f
       0.0058892444 0.03754881 -0.043185957 1.4929411
0002d0 65 ba 74 bd c2 4e 4f bf 08 bd 07 bd a0 2a 5c 3d
       -0.059748072 -0.8097955 -0.03313926 0.053751588
0002e0 35 71 2f bf 78 c3 fe 3d 88 c1 26 3d 30 cb be bd
       -0.68532115 0.124396265 0.04071191 -0.09316099
0002f0 d4 fd 2d 3d 6e a7 8c 3e 36 d3 c7 bd e9 b8 2f bf
       0.042478397 0.2747149 -0.09757082 -0.68641526
000300 a0 fd 44 3b 80 da 03 bc 40 36 02 bf 4a 12 be 3d
       0.00300584 -0.0080477 -0.5086403 0.09280832
000310 a4 ba ce 3d 9c c2 a8 bc b8 97 a4 3d 6c 42 81 bd
       0.100941926 -0.02060061 0.080367506 -0.06311497
000320 90 34 cf bd e1 cc 8a 3c 20 88 a0 3c 18 0c 3c bc
       -0.101174474 0.016943397 0.01959616 -0.011477493
000330 89 24 07 3f 3c c6 b5 bd 98 7f a6 3d a0 19 7e 3c
       0.52790123 -0.08875701 0.08129805 0.015509039
000340 90 f1 02 3d 8c 2e 40 bd ac 19 98 3d 32 c6 b6 3e
       0.031968653 -0.04691939 0.074267715 0.35698086
000350 e2 5f 98 3d a8 d9 05 3d ad 3f 03 3e fb ed 6f be
       0.07440163 0.032678276 0.12817259 -0.23430626
000360 80 53 95 3d 00 e1 23 3c 36 29 99 3d d8 51 20 bd
       0.07291317 0.010002375 0.074785635 -0.039140552
000370 99 6a 8b bd d4 71 da 3d 1d 84 d1 bd da 72 91 3d
       -0.06807441 0.10666242 -0.10230277 0.07101984
000380 45 12 33 bd 85 e3 49 3d 94 40 00 3d 90 f7 57 3d
       -0.043718595 0.049289245 0.031311586 0.05272633
000390 65 49 c3 bd 19 74 5a bd a0 ab 98 bc 47 d7 04 bc
       -0.09535483 -0.053333376 -0.018636525 -0.008107967
0003a0 e0 dd a1 3d 1e 98 2d bd d4 9d 89 bd 15 be f8 bc
       0.079036474 -0.0423814 -0.067195565 -0.030364076
0003b0 d8 92 78 bd 45 94 e0 bd 20 99 b8 3c 04 98 df 3d
       -0.060686916 -0.1096578 0.022533953 0.109176666
0003c0 78 83 ce bd 6a 70 24 be 1b 9a a6 bd d9 65 c2 bd
       -0.100836694 -0.16058508 -0.08134862 -0.09492082
0003d0 e8 e6 b5 3c ba c0 5f bd f4 99 9a 3d c9 f5 82 bd
       0.022204831 -0.054627158 0.075488955 -0.06394536
0003e0 2c 9e 62 bd 0f 3f d2 40 d5 ae af 40 c6 ed ac 40
       -0.055326626 6.5701976 5.490092 5.404025
0003f0 3e 1c e4 40 2e d4 d6 3d b8 af 3c 3d f8 53 4e 3d
       7.1284475 0.10489689 0.046066016 0.050373048

net_layers.0.bias f4 [5]
000000 26 32 de 40 8e 12 e3 40 d0 20 e5 40 33 83 e7 40
       6.9436216 7.096015 7.1602554 7.2347655
000010 2d a1 e6 40
       7.207175
