dialogue_manager/model/multi_clarification_trained/fourier_neural/weights/trained_modelLIST_SAMPLEMODELDCOMPOSITE0.0.pt (torch_old, 23982 bytes, 4 tensors)

net_layers.0.weight f4 [62, 88]
0	0xbe3b8d93	-0.18315725
1	0xbe1dffe2	-0.15429643
2	0x3e2b1138	0.16705787
3	0x3e16005d	0.14648576
4	0xbc7210de	-0.014774529
5	0x3df095c5	0.11747316
6	0xbdf1978d	-0.11796484
7	0xbdecd8b5	-0.11564771
8	0x3d15f6fd	0.0366125
9	0xbdec033c	-0.115240544
10	0xbdf9c601	-0.121959694
11	0xbce9ac81	-0.02852464
12	0xbda2719f	-0.07931828
13	0xbdc448f9	-0.09584231
14	0x3dc89f53	0.09796014
15	0xbb2a6b6c	-0.002600397
16	0x3ce0355e	0.027369197
17	0xbdae708e	-0.08517562
18	0xbcdb83b0	-0.026796192
19	0xbe58c248	-0.21167862
20	0x3c783adf	0.015150755
21	0xbe183687	-0.1486455
22	0xbe9186cb	-0.2842315
23	0xbe82a970	-0.25519896
24	0xbdc8702a	-0.097870186
25	0x3c4adb96	0.012381455
26	0xbe763a5b	-0.24045698
27	0xbe586707	-0.21133052
28	0xbe1b0706	-0.15139398
29	0xbdc1b517	-0.09458368
30	0xbdb96782	-0.09052946
31	0x3e2184b9	0.15773286
32	0xbe383163	-0.1798759
33	0xbd0c9071	-0.034317438
34	0x3cfd207f	0.030899284
35	0xbe1221b9	-0.14270677
36	0xbcd94f24	-0.026526995
37	0x3d168be2	0.036754496
38	0xbe562590	-0.20912766
39	0x3e1dd62e	0.15413734
40	0x3c7f6de7	0.015590168
41	0x3e329f63	0.17443614
42	0xbe654d8a	-0.2239286
43	0xbdfe4820	-0.124161005
44	0xbe608dcc	-0.21929091
45	0xbd96ad70	-0.07357299
46	0x3e300c57	0.17192207
47	0x3e50164c	0.20321006
48	0xbd83145a	-0.06400366
49	0x3e5c6689	0.21523489
50	0x3d8da8cd	0.06916962
51	0x3da11156	0.07864635
52	0xbda9b861	-0.082871206
53	0x3e52f714	0.20602065
54	0xbd0e652a	-0.034764446
55	0x3d9831a6	0.07431345
56	0x3e3beb13	0.18351392
57	0x3e036ad0	0.12833714
58	0xbdf9bbff	-0.121940605
59	0xbcd62aa8	-0.026143387
60	0x3dabbb6b	0.083853565
61	0x3e97176a	0.2951005
62	0x3dcf8dc4	0.101344615
63	0x3c583ce4	0.013198111
64	0x3d1573ae	0.036487274
65	0xbc000f12	-0.007816093
66	0x3df8b7f1	0.12144459
67	0x3e6264d8	0.22108781
68	0x3dd44ef3	0.10366621
69	0x3e088a49	0.13334002
70	0xbd21cc64	-0.039501563
71	0x3e190e8e	0.14946958
72	0xbd00027f	-0.03125238
73	0x3d8abcbf	0.06774282
74	0x3d64afb0	0.05583161
75	0x3e796672	0.24355486
76	0x3d6b4077	0.057434525
77	0xbd3983be	-0.045291655
78	0x3e070050	0.13183713
79	0xbd3ec7db	-0.046577316
80	0xbdc945a5	-0.09827737
81	0x3e19ce70	0.15020156
82	0xbe0bfdd0	-0.1367104
83	0x3d91b948	0.07115418
84	0xbd7ea941	-0.06217313
85	0xbe0f62e3	-0.14002566
86	0x3e838cd9	0.25693396
87	0x3e1d7262	0.15375665
88	0xbdb8e9ff	-0.09029006
89	0xbe09a9ad	-0.13443632
90	0x3cd19b79	0.02558683
91	0x3e0da67c	0.1383304
92	0xbe061f75	-0.13097937
93	0x3e112910	0.1417582
94	0xbd033811	-0.03203589
95	0xbe09deb7	-0.13463865
96	0xbd8ae84e	-0.0678259
97	0x3dd91955	0.10600535
98	0x3d6cbafe	0.057795517
99	0xbdde3b7d	-0.1085119
100	0x3dfb7b7e	0.12279414
101	0xbe3bf033	-0.18353347
102	0x3d098dac	0.033582374
103	0xbe0de17a	-0.13855544
104	0x3df26711	0.118360646
105	0xbde0ee1c	-0.10982916
106	0x3cc0cf15	0.023536244
107	0x3d7cbd02	0.06170369
108	0xbddaadce	-0.10677682
109	0xbc319d9a	-0.010840798
110	0x3d3936a9	0.045218144
111	0xbe4de6d6	-0.20107588
112	0xbdd9bd7e	-0.10631846
113	0x3e28de6f	0.16491102
114	0xbdb51c6d	-0.088433124
115	0xbe07b0cf	-0.13251041
116	0x3e5b5522	0.21419194
117	0x3e1984d9	0.14992084
118	0xbe0df997	-0.13864742
119	0xbd42745b	-0.047474246
120	0x3e0989e4	0.13431507
121	0xbe2ef445	-0.17085369
122	0x3e2f4dce	0.17119524
123	0xbdee3fe4	-0.1163328
124	0xbe0e30c9	-0.13885798
125	0xbd10145a	-0.03517566
126	0x3d8e9bcf	0.06963312
127	0xbe545b46	-0.20737943
128	0x3e8d847d	0.27640143
129	0x3dca9b73	0.09892931
130	0x3e46c4cb	0.19411008
131	0x3def3129	0.116792984
132	0x3e011bb0	0.12608218
133	0xbe24dc71	-0.16099717
134	0x3e343594	0.17598563
135	0xbd63ded2	-0.05563242
136	0xbd8ebded	-0.06969819
137	0x3e06d8c1	0.13168623
138	0x3d525646	0.051351808
139	0xbe7050a1	-0.23468257
140	0x3e0cd872	0.13754442
141	0xbe82d647	-0.25554106
142	0xbd8b866d	-0.06812749
143	0x3c8d1480	0.01722169
144	0x3c9e92d7	0.019357128
145	0x3df08642	0.11744358
146	0x3e1fec0a	0.15617386
147	0xbd9695cc	-0.0735279
148	0x3e1e4a4f	0.15458034
149	0xbd276615	-0.040868837
150	0xbd37320f	-0.044725474
151	0x3d513fa7	0.051086094
152	0x3dc1035a	0.094244674
153	0xbe040196	-0.1289123
154	0xbda22b38	-0.079183996
155	0x3d37395f	0.044732448
156	0x3de2774d	0.11057911
157	0x3b22bc34	0.0024831416
158	0xbe009143	-0.12555413
159	0xbda381d5	-0.07983748
160	0x3dcd18b1	0.10014475
161	0xbe1d1d0f	-0.15343116
162	0x3d1ef95c	0.038812026
163	0xbc3e834a	-0.011627981
164	0xbd9d7cee	-0.07689844
165	0x3dd0f1f4	0.10202399
166	0x3e4a56bc	0.19759649
167	0x3e3d56d6	0.18490157
168	0x3de0e759	0.10981626
169	0xbd448ef4	-0.047987893
170	0x3d88ac12	0.06673445
171	0x3cbd4b89	0.023107307
172	0xbe2bdc48	-0.1678325
173	0xbd9a20fc	-0.075258225
174	0xbe2daf44	-0.1696139
175	0xbe415e8d	-0.18883725
176	0x3e5920c5	0.21203907
177	0x3e2ad1e5	0.16681631
178	0xbe1976de	-0.1498675
179	0xbd588cc9	-0.05286864
180	0x3b5bf544	0.0033562938
181	0x3d8b9f55	0.068174995
182	0x3d414372	0.04718346
183	0x3d0e4775	0.034736115
184	0x3d941273	0.072300814
185	0xbe89c9b3	-0.26911697
186	0x3d8552f2	0.06509961
187	0xbe10aba5	-0.14127977
188	0xbd9c77a2	-0.07640006
189	0xbde5e650	-0.11225569
190	0x3e18b435	0.14912494
191	0xbd3f61d5	-0.04672416
192	0x3e245cc0	0.16051006
193	0x3b50e1b6	0.0031872815
194	0xbb6d8099	-0.003623998
195	0xbe2f662c	-0.17128819
196	0xbb8bcae8	-0.0042661317
197	0xbe4efc83	-0.20213513
198	0xbddc00ce	-0.10742341
199	0xbe2ebc7b	-0.17064087
200	0x3c7ccab6	0.015429189
201	0xbe4c8235	-0.19971545
202	0x3dce7a94	0.10081974
203	0xbe23dd41	-0.1600237
204	0x3d065e89	0.032805
205	0xbc95f81e	-0.018306788
206	0xbdfac0f1	-0.12243832
207	0xbd8d2d08	-0.06893355
208	0x3dc15f3a	0.09441991
209	0xbe5fb521	-0.21846439
210	0xbe4af59f	-0.1982026
211	0x3c9afaa5	0.018918345
212	0xbcf71940	-0.030163407
213	0xbe0cddca	-0.13756481
214	0x3e506dba	0.20354357
215	0xbe0197cb	-0.1265556
216	0xbd681c55	-0.056667645
217	0x3dccff97	0.100096874
218	0xbe1916dd	-0.14950128
219	0x3d2bbef0	0.04193014
220	0xbded6ec4	-0.115933925
221	0xbe31e246	-0.17371473
222	0x3de5e85b	0.11225959
223	0xbb537d87	-0.0032270865
224	0xbe35b157	-0.17743431
225	0x3df7fafa	0.12108417
226	0xbe4f3a85	-0.20237167
227	0x3ddfd359	0.10928983
228	0x3e617030	0.22015452
229	0x3d930f45	0.07180647
230	0xbd264df0	-0.04060167
231	0x3dda4a0b	0.10658654
232	0xbe0cbb77	-0.13743387
233	0x3e792a39	0.24332513
234	0xbe2c4bee	-0.1682584
235	0x3bf28211	0.007400759
236	0x3dd02849	0.10163934
237	0x3e85db1d	0.26143733
238	0x3e439c4d	0.19102593
239	0x3e30b9ad	0.1725833
240	0xbd7d1ea4	-0.0617968
241	0xbdaae7e7	-0.08345013
242	0x3e507244	0.20356089
243	0xbda521df	-0.08063101
244	0xbdb64b70	-0.08901107
245	0x3e9563d8	0.29177737
246	0x3dfbbe56	0.12292163
247	0xbd431e34	-0.047636226
248	0xbddf7121	-0.109102495
249	0x3e4a08c4	0.19729906
250	0xbda9b2e6	-0.08286075
251	0xbd41b31e	-0.04728996
252	0x3e2826ef	0.16421102
253	0x3d8a53ec	0.06754288
254	0x3d7baf02	0.061446197
255	0xbb9bff26	-0.0047606407

net_layers.0.bias f4 [62]
0	0xbc9f9d78	-0.019484267
1	0x3dbbd1b0	0.09170854
2	0xbc4f58ba	-0.012655431
3	0x3bb53c11	0.005530842
4	0xbd51a73c	-0.051184878
5	0x3ddf9931	0.10917891
6	0x3da446a1	0.08021284
7	0x3dbb5500	0.09147072
8	0x3d1b70d0	0.037949383
9	0x3d51c9d2	0.05121786
10	0x3dcbb317	0.09946268
11	0x3ca5318e	0.020165231
12	0xbcd5c99b	-0.02609711
13	0x3ccde345	0.025132785
14	0x3d59af34	0.053145602
15	0x3d0de3df	0.034641143
16	0x398729a0	0.0002578022
17	0xbd5eda83	-0.054407608
18	0xbd31d356	-0.043414436
19	0x3c131418	0.008976959
20	0x3d17e402	0.03708268
21	0xbc4ff334	-0.0126922615
22	0x3d9a5ca5	0.07537202
23	0x3c7549cb	0.014971207
24	0xbdad463c	-0.08460662
25	0x3d8de4aa	0.0692838
26	0x3d87e348	0.06635147
27	0xbd7bf774	-0.061515287
28	0x3d6c985a	0.05776248
29	0xbdb52d35	-0.08846513
30	0xb8b3f469	-8.58091e-05
31	0xbd3b87f8	-0.045783967
32	0xbcda7da1	-0.026671233
33	0xbd0cc57e	-0.03436803
34	0xbd4c3b05	-0.049860973
35	0x3d3c937d	0.046039093
36	0x3d9a04ba	0.07520433
37	0xbd1a8d0c	-0.03773217
38	0xbb61d5bf	-0.0034459678
39	0xbc09d59f	-0.008412748
40	0xbb6eaa22	-0.0036417325
41	0x3d03f055	0.03221162
42	0x3dc0c74f	0.09413015
43	0xbd4b0aed	-0.049570967
44	0xbb948432	-0.0045323605
45	0xbcf7a832	-0.030231569
46	0xbda256ff	-0.079267494
47	0x3db81796	0.08988874
48	0x3d16958a	0.036763705
49	0xbdb7d444	-0.08976033
50	0xbda08bad	-0.07839141
51	0xbda5568f	-0.0807315
52	0xbc01b843	-0.007917467
53	0x3d392c55	0.045208294
54	0x3de3e755	0.111281075
55	0xbd46fb02	-0.048579223
56	0x3dad1617	0.08451479
57	0xbdb5b6fa	-0.08872791
58	0x3ba9e39a	0.005184603
59	0x3beff861	0.0073233102
60	0xbc1c53da	-0.009541476
61	0xbcb9d632	-0.022685144

net_layers.1.weight f4 [4, 62]
0	0xbe48abd0	-0.19596791
1	0xbd427d76	-0.04748293
2	0x3e936c4d	0.28793564
3	0x3cccce84	0.025000818
4	0xbe172e78	-0.1476382
5	0x3e2b6889	0.16739096
6	0xbec47015	-0.38366762
7	0xbe8d0dfa	-0.27549726
8	0x3dec66ab	0.1154302
9	0xbe2d6fe8	-0.1693722
10	0x3cc6d991	0.024273666
11	0x3e56e411	0.20985438
12	0xbe96b053	-0.294314
13	0x3ea8d686	0.32976168
14	0x3e92d7f4	0.28680384
15	0x3e932fed	0.28747502
16	0xbd96b866	-0.0735939
17	0xbda65aec	-0.08122811
18	0xbd9a694c	-0.07539615
19	0xbe896cc6	-0.268408
20	0x3e676be2	0.22599748
21	0x3e083c2c	0.13304204
22	0xbe6515a4	-0.22371536
23	0xbe207238	-0.15668571
24	0x3daae1c9	0.08343846
25	0x3e175f5e	0.14782473
26	0x3d2bf8ee	0.041985445
27	0xbdfefc2b	-0.12450441
28	0xbec914a4	-0.3927356
29	0xbd9fe30d	-0.078069784
30	0xbe78f8e4	-0.24313694
31	0x3e80b2d4	0.25136435
32	0x3c561dcf	0.01306863
33	0x3eaaadad	0.3333563
34	0x3e1b16be	0.15145394
35	0x3e96224c	0.2932304
36	0xbe5dd04f	-0.21661495
37	0x3e6389cf	0.22220539
38	0xbeac3f8f	-0.3364224
39	0xbe8ef212	-0.2791906
40	0xbc87c29b	-0.016572287
41	0x3de0fb34	0.10985413
42	0xbc7f3823	-0.015577349
43	0x3d8f0cda	0.06984873
44	0x3dc9cd5b	0.098536216
45	0x3eb9dc36	0.3630082
46	0xbe88d3ad	-0.26723996
47	0x3ec2dbb2	0.3805824
48	0xbe88fec4	-0.2675687
49	0x3e039448	0.12849534
50	0xbd1fc294	-0.039003924
51	0xbe64100e	-0.2227175
52	0xbe96dd4c	-0.2946571
53	0xbc2b0b07	-0.010439641
54	0x3da8df5d	0.08245728
55	0x3cf70a64	0.030156322
56	0x3e14bfe0	0.1452632
57	0x3c6c3c14	0.014418621
58	0xbe3c54c9	-0.18391718
59	0xbdd5133c	-0.10404059
60	0x3ef4d0ff	0.478157
61	0xbeab57de	-0.33465475
62	0x3efadf60	0.48998547
63	0xbea8f211	-0.32997182
64	0x3deded20	0.11617494
65	0xbec8a328	-0.39186978
66	0xbe5d1e12	-0.21593502
67	0x3de51820	0.11186242
68	0xbe903256	-0.28163403
69	0xbe54088c	-0.20706385
70	0x3eb532e4	0.3539039
71	0x3e1a41c8	0.15064156
72	0xbcb486a8	-0.022036865
73	0x3ea0bd96	0.31394643
74	0x3d911e73	0.07085886
75	0x3e707d92	0.23485401
76	0x3dba2950	0.09089911
77	0xbd9e9e2e	-0.07745014
78	0x3ca5a8a0	0.020222008
79	0xbe4ff6ec	-0.20309037
80	0x3ea0137f	0.31264874
81	0xbe10f93b	-0.14157574
82	0xbd741f6a	-0.05960027
83	0x3ee3d8f7	0.4450147
84	0xbe6f9b1d	-0.23399015
85	0x3e0b0990	0.13577867
86	0x3cbbb486	0.022913229
87	0xbea8483d	-0.32867613
88	0xbcc753ff	-0.024332045
89	0x3ea94d63	0.33066854
90	0xbe6231e1	-0.2208934
91	0x3e4115a1	0.18855907
92	0xbc9e6d15	-0.019339124
93	0x3c2abd4d	0.010421109
94	0x3e27187c	0.16317934
95	0x3e990a12	0.29890496
96	0x3e33640d	0.17518635
97	0x3e5d071e	0.21584746
98	0xbec34cf7	-0.38144657
99	0x3e85d6c9	0.2614043
100	0xbe1d30d0	-0.15350652
101	0x3ca68f21	0.020331921
102	0xbe54e94c	-0.2079212
103	0x3e81cffc	0.25353992
104	0x3eb0cddd	0.3453206
105	0xbe9914dd	-0.2989873
106	0xbe891a8e	-0.26778072
107	0xbded1912	-0.115770474
108	0xbe1db497	-0.15400921
109	0x3ceabb95	0.0286539
110	0x3b88e9a0	0.004178241
111	0xbe1e4957	-0.15457664
112	0xbcd9ad5a	-0.026571918
113	0xbe37e284	-0.17957503
114	0xbe5c0de4	-0.21489674
115	0xbd337170	-0.043809354
116	0x3e90ed4d	0.28306046
117	0x3e4007ed	0.18753023
118	0xbea59834	-0.32342684
119	0x3e76b77b	0.2409343
120	0x3e6b4ee3	0.22979312
121	0x3e9c7bc6	0.30563182
122	0xbcff4004	-0.031158455
123	0xbe922c94	-0.28549635
124	0xbe53a26c	-0.20667428
125	0x3d2f7597	0.04283675
126	0xbd9c14b1	-0.07621134
127	0xbdc47eaa	-0.09594472
128	0xbe2e7e46	-0.17040357
129	0x3ea20ff7	0.31652805
130	0xbebfde93	-0.37474498
131	0x3e50732d	0.20356436
132	0xbe5ef453	-0.2177289
133	0xbe83663f	-0.25663945
134	0x3eddf400	0.4335022
135	0x3ccaebd3	0.024770653
136	0x3d436546	0.047704004
137	0xbdc04ff6	-0.09390251
138	0x3e989464	0.29800713
139	0x3df6f839	0.120590635
140	0x3e915262	0.28383166
141	0xbdb8145e	-0.0898826
142	0xbd0e3aa4	-0.034723893
143	0xbe1504ea	-0.14552656
144	0x3e45c0ea	0.19311872
145	0x3d5955fb	0.053060513
146	0xbdef9278	-0.116978586
147	0x3e5ce31f	0.21571015
148	0x3e973159	0.29529837
149	0xbdc7c058	-0.097534835
150	0xbec9a22e	-0.39381546
151	0xbd0348df	-0.032051917
152	0xbe85f8af	-0.26166293
153	0xbda89d84	-0.08233169
154	0xbe8e2fad	-0.2777075
155	0xbe3d91ab	-0.18512599
156	0xbea70a17	-0.32624885
157	0x3ec036fc	0.3754195
158	0x3e81e7a3	0.25372037
159	0x3e3e8495	0.18605264
160	0xbdce9121	-0.10086275
161	0xbd4ccb17	-0.04999837
162	0xbc9a058f	-0.018801479
163	0xbdb64ef4	-0.08901778
164	0x3e949491	0.29019597
165	0x3df17fb5	0.11791936
166	0x3d712cb0	0.058880508
167	0xbeae9a78	-0.34102225
168	0x3e7d3dfa	0.24730673
169	0x3e2cbaf1	0.16868187
170	0x3d731606	0.059347175
171	0x3ea2064d	0.31645432
172	0xbed2aa6d	-0.4114565
173	0xbe4bc915	-0.19900925
174	0x3ee85d51	0.45383695
175	0x3e97a418	0.2961738
176	0x3e7ec360	0.24879217
177	0xbe102bdb	-0.1407923
178	0x3e9d5c8a	0.30734664
179	0xbe549d34	-0.20763093
180	0xbe493d19	-0.19652213
181	0xbd9c4de8	-0.07632047
182	0xbe36c4e5	-0.17848547
183	0x3e97eee7	0.29674456
184	0x3eb5b828	0.35492063
185	0x3c40ea64	0.011774633
186	0xbced6b23	-0.02898175
187	0xbe33f746	-0.17574796
188	0x3d461aee	0.048365526
189	0x3e1c7084	0.15277296
190	0xbd6af844	-0.05736567
191	0xbe5d4545	-0.21608455
192	0x3e5096a7	0.2036997
193	0x3e103df5	0.14086135
194	0xbe7eb575	-0.24873908
195	0x3e6a9953	0.22910051
196	0x3e3d18fa	0.18466559
197	0xbe48537e	-0.195631
198	0xbe1ceed3	-0.15325479
199	0x3c772477	0.0150843775
200	0x3ea5b41f	0.32363984
201	0x3e67b72c	0.22628468
202	0x3dab2e04	0.08358386
203	0x3e207ac9	0.15671839
204	0xbdd2774c	-0.1027666
205	0xbe3cbcca	-0.18431392
206	0x3ea49c44	0.3215047
207	0xbdc9f1e8	-0.09860593
208	0xbdb5b0be	-0.088716015
209	0xbdfa65d3	-0.12226453
210	0xbd561d73	-0.05227418
211	0x3e6bad76	0.23015389
212	0xbed4d2d0	-0.41567087
213	0xbe41dedd	-0.18932672
214	0xbe950f40	-0.29113197
215	0x3e157fbb	0.14599507
216	0x3e93951d	0.28824702
217	0xbe8918a3	-0.2677661
218	0xbe0f7afc	-0.14011759
219	0x3cf88008	0.030334488
220	0xbc123a11	-0.008924977
221	0x3c851995	0.01624755
222	0xbee4a439	-0.44656542
223	0x3e4e51aa	0.2014834
224	0xbec37077	-0.3817174
225	0x3d30bad8	0.043146938
226	0x3e7c338d	0.2462904
227	0x3e1e8068	0.1547867
228	0x3ceff2c1	0.029290559
229	0xbe9b80eb	-0.30371794
230	0x3e5b9916	0.21445116
231	0x3e4afaf7	0.19822298
232	0xbec1c795	-0.37847582
233	0x3ece8f79	0.40343836
234	0xbe7fbfcd	-0.2497551
235	0xbe117cf8	-0.14207828
236	0xbd0ac551	-0.03387958
237	0x3e81928f	0.25307128
238	0x3d9ccea9	0.07656605
239	0xbcd2f251	-0.025750311
240	0xbd88dacc	-0.06682357
241	0xbe9a94cf	-0.30191657
242	0x3bad39cd	0.0052864314
243	0xbe65fadd	-0.22458978
244	0x3e747614	0.23873168
245	0xbdba9220	-0.091099024
246	0x3f019830	0.50622845
247	0xbe5bb628	-0.21456206

net_layers.1.bias f4 [4]
0	0xbb8b12fb	-0.004244206
1	0x3d53f6e5	0.05174913
2	0xbd0416f0	-0.032248437
3	0xbdc9c893	-0.098527096
