dialogue_manager/model/multi_clarification_trained/fourier_neural/weights/trained_modelLIST_SAMPLESAMPLEDCOMPOSITE0.0.pt (torch_old, 23982 bytes, 4 tensors)

net_layers.0.weight f4 [62, 88]
000000 35 20 be bd 7f eb 28 be 35 fb 22 3e 41 65 81 bd
       -0.09283487 -0.16496085 0.1591614 -0.06318141
000010 97 b2 be 3d 95 73 cf bd 20 21 8d bd 89 9f 3b 3e
       0.09311407 -0.101294674 -0.06891084 0.18322577
000020 61 82 7b be e5 ce d6 bd 99 cd c7 3b d7 63 02 3e
       -0.24561454 -0.10488681 0.006097507 0.12733398
000030 b3 35 9c bd 2a 71 17 3e 90 8c 38 be 37 df 2b be
       -0.0762743 0.14789262 -0.1802237 -0.16784368
000040 54 68 48 3e ad 16 1f 3e f6 4c d5 bd cf e7 81 3c
       0.19571048 0.15535994 -0.1041507 0.015857605
000050 8c 14 a9 bc d0 33 cb bd 8c 3a af bd f3 08 1b 3e
       -0.02063968 -0.09921992 -0.08556089 0.15140133
000060 da 80 52 3d db 1e 55 3e 0f e1 dc 3c 27 3c 28 be
       0.051392414 0.20812552 0.026962785 -0.16429196
000070 20 16 79 3e 76 02 9c 3d a8 ae 23 3c 32 12 42 be
       0.24324846 0.07617657 0.009990372 -0.18952253
000080 f4 11 e2 bd 10 56 14 3e c7 2d 49 3d 31 53 80 bd
       -0.110385805 0.14485955 0.049115922 -0.062658675
000090 9e 76 4b 3e 32 e0 ab bc c7 4d cb 3c 90 e7 3a be
       0.19869468 -0.020980928 0.02481736 -0.18252397
0000a0 43 73 37 3d 4b 50 5a bd de 13 5b 3d 54 34 26 3e
       0.044787657 -0.05329923 0.053485744 0.16230899
0000b0 c9 3e a3 3d 12 e9 6e be 11 4c 58 3d 42 7c fc bd
       0.0797096 -0.23331097 0.052806918 -0.12328388
0000c0 b6 fe 37 3e a4 14 11 be 55 4c a3 3d 60 c1 13 3e
       0.17968258 -0.1416803 0.079735436 0.14429235
0000d0 15 bb b7 bd 2e ea 46 be d1 2e 1d 3e 79 0d 5c be
       -0.0897123 -0.1942527 0.1534989 -0.21489514
0000e0 ff c2 4a 3e 8a ea bf 3d ed 15 66 bd 94 3e 9f be
       0.19800948 0.09370907 -0.056173254 -0.3110243
0000f0 6f 81 4b be d4 88 8a 3d 6b f8 c1 bd d5 da 8f 3d
       -0.19873594 0.06764379 -0.0947121 0.07024161
000100 98 11 26 3e 48 ab fd 3b 14 41 8f 3d 0f f3 e5 bc
       0.16217649 0.0077413656 0.069948345 -0.028070001
000110 d6 7b 31 3d fc ef a3 be c8 a0 82 3d b6 23 ae bd
       0.04333099 -0.3201903 0.06378323 -0.08502905
000120 ed 4b 92 3d 64 83 36 3d 49 c9 4d bd 42 0e 04 3c
       0.07143388 0.044558898 -0.05024079 0.00806004
000130 e4 f6 8a 3d 7c c5 5f be f5 87 ef 3d 0f 14 60 3d
       0.06785372 -0.21852678 0.116958536 0.05470663
000140 14 c4 7d 3d 8d c3 71 bd d2 07 66 be 14 9e f7 3d
       0.061954573 -0.059024382 -0.2246392 0.12090698
000150 79 b7 94 3c 2a 1d 18 be 9c 40 cf bc 9a f2 cd 3d
       0.018153893 -0.14854875 -0.025299363 0.10056038
000160 99 91 33 3e 2a 0d e0 3d 3d 76 bd 3d 65 1a 1d 3e
       0.1753601 0.10940011 0.09251068 0.153421
000170 6b 4c 69 be 63 b7 f5 3d e6 9f 21 be 29 03 25 be
       -0.22783057 0.11997869 -0.15783653 -0.16114487
000180 70 d9 f6 3a 6c 42 ab 3d bd 54 11 be 9b 16 ff bc
       0.0018833112 0.08362278 -0.14192481 -0.031138709
000190 c5 11 a2 bd af ca 55 3a 2f 46 07 be 7a c6 ce 3d
       -0.079135455 0.00081555074 -0.13210367 0.1009645
0001a0 f0 55 16 3e 8b f4 b7 bc 8d 92 da bd f7 03 2f 3e
       0.1468122 -0.022455474 -0.106724836 0.17091356
0001b0 31 37 11 be 48 5b 11 be df f4 25 bd fc 1e 52 3d
       -0.1418121 -0.14194977 -0.04051673 0.05129908
0001c0 c8 d8 29 3e 46 8d 44 3d 23 ac 6e 3e 53 a5 05 bb
       0.16586602 0.04798629 0.23307852 -0.002039273
0001d0 ad 7a 8c 3e 8f 63 12 be a6 58 6a 3e 70 1f bf bd
       0.27437344 -0.14295791 0.22885379 -0.09332168
0001e0 8b da 57 3e 29 c8 cf bc 08 43 d5 bd 3a e4 c7 3d
       0.21079461 -0.025363998 -0.10413176 0.09760328
0001f0 e0 84 75 3e 39 72 a9 3d 03 b2 e3 3d 49 67 79 be
       0.23976469 0.08273739 0.111179374 -0.24355806
000200 c6 8e 98 bd 6e ca 24 be 08 5e ba bc e8 94 59 be
       -0.07449107 -0.16092846 -0.022749916 -0.2124821
000210 46 bb 17 3e e6 e8 61 be 17 f3 f5 3d 75 f0 98 3d
       0.14817533 -0.220615 0.12009256 0.074677385
000220 f0 0e e6 3d 87 29 85 3d ce 0a ba bd 36 ab d1 ba
       0.11233318 0.06502061 -0.09084092 -0.0015996459
000230 1e 29 99 3d bf 96 74 be 3c 5d 20 3e 49 6b 8b be
       0.074785456 -0.2388563 0.15660566 -0.2723029
000240 ba 6b 5f bd 8b 44 56 be 77 23 79 bd 25 46 07 be
       -0.054546095 -0.20924585 -0.060824838 -0.13210352
000250 6b 1d 31 3e 80 dd 0c 3e 8d 16 83 3c 0c fa 43 bc
       0.17296378 0.1375637 0.016001964 -0.011961471
000260 ff a8 9f 3d 6d 82 9c 3d b8 44 1d be ec 46 d9 bc
       0.07795905 0.07642064 -0.15358245 -0.026523076
000270 b2 be e8 bd f9 54 aa 3d 72 c4 9f bd cb 24 30 bd
       -0.11364497 0.083169885 -0.07801141 -0.04300384
000280 d7 ea f3 3d a2 52 01 3e 77 09 8b be 8c b4 9f 3d
       0.119100265 0.12629178 -0.2715566 0.077981085
000290 ea 33 0b 3e 8b 13 0e be d5 7e fb 3d 00 8e 30 be
       0.13594022 -0.13874643 0.12280051 -0.17241669
0002a0 a8 f1 a2 3d df 21 ab bd dc 5b 41 be 15 68 7a 3d
       0.079562485 -0.0835607 -0.18882698 0.061134417
0002b0 55 a9 84 bc a7 fb de 3c a8 c9 50 3d ad dd 3b 3d
       -0.016194025 0.027219607 0.050973564 0.045865703
0002c0 cc e0 2e be 00 bd f4 3c 44 c7 24 be fb 5e f7 bd
       -0.1707794 0.029875278 -0.16091639 -0.12078663
0002d0 13 1c d2 bd d8 3b 28 be 88 c9 07 3e c7 86 ca 3d
       -0.10259261 -0.16429079 0.13260472 0.09888988
0002e0 aa 02 d2 3d 07 3c 99 bc 38 89 11 be 3f 0a d0 bd
       0.102544144 -0.018705381 -0.14212501 -0.10158204
0002f0 27 a1 65 3d f7 c0 4b 3e cd a7 25 bb 4a c6 28 bd
       0.05606189 0.19897829 -0.002527702 -0.04120473
000300 d2 cc 02 be 80 19 52 3d 60 77 68 3d 2a f7 b1 3d
       -0.12773445 0.05129385 0.05675447 0.08689721
000310 5a 42 09 be ba 83 40 3d 20 7f 33 be 19 f4 33 be
       -0.13404217 0.047000624 -0.17528963 -0.17573585
000320 ba 04 99 3d a7 62 4f bc e7 a6 5d bd 58 74 98 bd
       0.07471605 -0.012657798 -0.05411425 -0.07444066
000330 65 c7 28 3e 8d 89 3e bc 59 80 36 be a0 e2 2b be
       0.16482313 -0.011629474 -0.17822398 -0.1678567
000340 3a 85 53 3d 8d ce fa 3c ca dd 91 3d 40 a0 db 3c
       0.051640727 0.03061607 0.07122381 0.026809812
000350 33 03 75 bb f3 8d 1d 3d c0 54 aa 3c 07 2f cb bc
       -0.003738594 0.03846545 0.020792365 -0.024802698
000360 5d ae 84 bd db 1c 05 be da 2c 75 3d 07 de e9 3d
       -0.0647857 -0.12999289 0.059857227 0.114193015
000370 a5 46 19 3e 2d 49 0d 3e 00 55 c5 bc d7 6b e7 3d
       0.14968355 0.13797446 -0.024088383 0.11299866
000380 33 43 ea bd f3 3b 81 bd 1a e1 8e bc 28 7a b7 bd
       -0.114385985 -0.063102625 -0.017441321 -0.08958846
000390 d8 16 20 be da 4b 55 bc 2a 94 69 bd 33 63 8e ba
       -0.15633714 -0.013018573 -0.057026066 -0.0010863304
0003a0 57 fd f1 bd 34 00 02 be 68 90 09 3e 33 5b 0f 3e
       -0.11815899 -0.1269539 0.13433993 0.13999633
0003b0 67 f5 ab bb 33 20 75 bd db 7b c5 bd 9f 4b c8 bd
       -0.00524776 -0.05984516 -0.09642764 -0.097800486
0003c0 27 a3 b3 3d 16 54 31 be 97 a8 61 bd ed 8a 38 be
       0.08771353 -0.17317232 -0.05509242 -0.18021746
0003d0 aa 12 cb bd d3 60 ce bc 2a aa 46 be 95 af 23 3e
       -0.09915669 -0.025192654 -0.1940085 0.15984948
0003e0 dd 0f a9 3d ad 0a b2 3d 67 e3 17 bc 73 77 a3 bd
       0.08254979 0.086934425 -0.009270526 -0.079817675
0003f0 a0 15 68 3d d0 16 db 3d 1a f1 87 3d 88 d7 05 3e
       0.05666125 0.106977105 0.06637783 0.130705

net_layers.0.bias f4 [62]
000000 e5 21 39 3d 15 e7 b2 3d e8 df 84 3d 38 87 b9 bd
       0.04519834 0.08735482 0.06488019 -0.09058994
000010 12 04 2d bd 2a db 37 bd 16 ec 45 bd 53 06 eb bc
       -0.04224021 -0.044886746 -0.048320852 -0.028689539
000020 01 35 20 3e e7 95 a1 bd b8 4d b8 bc c6 00 97 3d
       0.1564522 -0.0788992 -0.022497997 0.073731944
000030 bb 83 93 bd e0 06 99 3d f1 49 54 3d 2f 05 7d 3d
       -0.0720286 0.074720144 0.05182833 0.06177252
000040 aa c8 a7 3d 84 49 0e 3d e3 f5 3e bd 18 b0 e2 3d
       0.081925705 0.03473808 -0.046621215 0.110687435
000050 f2 02 4c 3d ea 13 05 3d 43 c1 ad bd af 9c 2f 3d
       0.049807496 0.032489695 -0.08484127 0.042874034
000060 9a d9 9b 3d 55 ac 2f 3d ee a8 a9 bd 21 aa 94 3d
       0.076098636 0.042888958 -0.08284174 0.07259012
000070 3f 60 c7 3c ff bb ba bd a2 0d 3e 3d e1 f3 8e bc
       0.024337886 -0.09117889 0.04639972 -0.017450275
000080 c9 8c 90 3d 65 ff 27 bc 34 e0 f4 bc 50 9e e4 3c
       0.07058103 -0.010253762 -0.029892065 0.02790752
000090 b2 d4 82 3d 04 f4 75 3c 94 94 d4 bc 43 23 d9 3d
       0.06388225 0.015011791 -0.025949754 0.10602429
0000a0 1a b7 6d bd 8c 98 8c 3c 74 68 97 3d 1d b6 c6 bd
       -0.058035947 0.017162584 0.0739297 -0.09702704
0000b0 78 1b 14 3d f3 35 b5 3d 07 f4 0e 3c 1a 37 c8 3d
       0.03615901 0.088481806 0.008725173 0.09776135
0000c0 74 f4 49 bd 04 1f 41 bd f4 3f a7 3c 20 00 cb 3c
       -0.049305394 -0.04714872 0.020416237 0.024780333
0000d0 21 f6 e1 bb d7 3a cd 3d 64 e6 cc bd f1 16 b7 bd
       -0.006895796 0.100209884 -0.10004881 -0.089399226
0000e0 ae 0e db 3b 25 af e8 bc 9b 7c be 3d 16 b4 44 3d
       0.0066850996 -0.028403828 0.0930111 0.048023306
0000f0 71 ee bb 3d c6 79 cf 3d
       0.091763385 0.10130648

net_layers.1.weight f4 [4, 62]
000000 2e f5 bc 3d ac 43 46 3e d6 aa 9d 3d 95 1a 27 bd
       0.09226452 0.19361752 0.076986 -0.040796835
000010 77 b3 98 3e 1f c5 8a 3c 88 a4 07 3e 2c d3 90 3e
       0.2982442 0.016939698 0.13246357 0.2828611
000020 62 87 40 bf 85 04 20 3e eb 2b 8b 3d bb da 18 be
       -0.7520658 0.15626724 0.06795486 -0.14927189
000030 b6 0a 82 3e cc 41 f6 3e 8c 37 81 bc b2 55 1a be
       0.25398797 0.48097074 -0.015773557 -0.15071753
000040 80 6f c4 be ef 6e 38 3d 45 c8 62 3e 35 6f 68 3e
       -0.38366318 0.04502767 0.2214671 0.22698672
000050 c2 91 97 be 86 40 9a be 83 61 23 3e 72 df 93 3d
       -0.29603392 -0.30127352 0.15955167 0.07220353
000060 0d 18 ef bd 37 8e 8b be 66 cd c7 3e f4 86 d9 3d
       -0.11674509 -0.2725694 0.39023894 0.106214434
000070 52 73 8a 3e dd 53 26 be 2c c6 d0 3e 06 e0 59 3e
       0.27041107 -0.16242929 0.40776193 0.21276864
000080 83 50 12 3c e9 8b f3 3d cf c5 53 3d 67 5e 62 bd
       0.008930328 0.1189192 0.051702317 -0.05526581
000090 60 4c 3d 3e ec de 01 be c1 71 8c 3d 4f 1f 8b 3d
       0.18486166 -0.12682694 0.06857634 0.06793081
0000a0 b3 03 87 be 85 34 8e 3d cd bb ce bc 9e 10 44 3e
       -0.2637001 0.06943611 -0.025236035 0.19146964
0000b0 a8 86 81 3e 95 5a 84 3e c3 1f 89 3e 1a db cf 3e
       0.25298047 0.2585036 0.26782045 0.4059685
0000c0 e1 5d 62 3d 9b da ad be f2 89 9c 3e 8b ed 79 be
       0.05526531 -0.33955845 0.30573994 -0.24407022
0000d0 4a 72 81 3e 4d f6 ff bd b1 72 75 3e d1 87 cf 3d
       0.25282508 -0.1249815 0.23969533 0.10133327
0000e0 2f 26 dc bc 58 2b 23 bb ce 98 12 be 40 a7 1a 3e
       -0.026873676 -0.002489766 -0.14316103 0.15102863
0000f0 9d 06 1e 3e 87 42 66 3e 54 34 f0 bd 5d f6 aa be
       0.1543221 0.22486316 -0.11728731 -0.33391085
000100 52 27 71 be 56 af 3d 3e 74 77 d9 3b da f1 8f be
       -0.23550156 0.18523917 0.0066365544 -0.28114206
000110 9f ca 48 3e 5e 1b 93 bc fa 3a 7b be 23 d0 73 3e
       0.19608544 -0.017957386 -0.24534217 0.23809867
000120 af 95 99 3d 65 05 92 be c7 6c ec bd 87 b8 c7 3e
       0.07499253 -0.2851974 -0.11544185 0.3900797
000130 ab 6d 4a be b2 dd 0f be a1 3f a0 be 54 b3 4e 3e
       -0.19768398 -0.14049414 -0.31298545 0.20185596
000140 d3 e3 7f bd bc 53 d0 bd ef 7b 9a be cb 11 93 bc
       -0.06247313 -0.10172221 -0.3017268 -0.01795282
000150 1c d1 0b be 38 c6 43 be be 1a 80 3e 21 72 37 3e
       -0.13653988 -0.19118583 0.25020403 0.1791463
000160 c5 f4 c2 be d9 33 4a be 81 c6 8a 3e ae 79 64 3e
       -0.3807737 -0.19746341 0.2710457 0.22312042
000170 e8 1e 9f bd 6a a5 43 be b0 0f aa be e6 cf b1 3e
       -0.07769567 -0.19106069 -0.33215094 0.34728926
000180 4e 1f 1d be 58 a2 64 3e a5 91 9a bd 0b 14 12 3e
       -0.15343973 0.22327554 -0.07547311 0.14265458
000190 22 17 a1 3e 81 88 78 3e fe e5 8e 3e 6e 4a 51 be
       0.3146296 0.24270822 0.27909845 -0.20438549
0001a0 43 c7 ab bc fb 15 3b be 25 83 ab 3d c2 b7 10 be
       -0.020969039 -0.18270104 0.08374623 -0.14132598
0001b0 fe 05 70 3e ca 4e a6 bd 38 57 5e bd b7 0d 06 be
       0.23439786 -0.081204966 -0.054282397 -0.1309117
0001c0 38 58 a7 3e ac b1 83 3e 56 93 b4 be 8c eb bb 3e
       0.32684493 0.2572149 -0.35268658 0.36703146
0001d0 cc 15 5d be d4 e0 6c be 13 14 9e 3e ea 84 da bd
       -0.21590346 -0.2313264 0.3087469 -0.106698826
0001e0 32 8d b2 3d 03 6f f1 3d 56 9a 0d 3d 7d 0d 6c 3e
       0.08718337 0.11788752 0.034571014 0.2305202
0001f0 a2 52 8e 3e 1a 30 97 3e 4c ee b0 3d 98 72 45 bd
       0.2779742 0.29528886 0.086392015 -0.04820499
000200 68 2c c7 3e 8d 02 7e be 1d 0c 9c be 10 eb b2 3d
       0.38901067 -0.2480566 -0.30477992 0.08736241
000210 ac e5 ac bd 04 f8 29 3e 43 e0 c4 3d e9 b1 e7 3d
       -0.08442244 0.16598517 0.09613087 0.113132305
000220 6f bd a7 3d e3 84 20 be b7 4c 25 3d 40 6f 8f be
       0.081904285 -0.15675692 0.040356364 -0.28014565
000230 80 01 32 3d b4 fc 23 3e 3c 5d 9c 3e 86 a4 85 be
       0.04345846 0.16014367 0.30539882 -0.26102084
000240 15 37 b2 be e9 50 a9 be 9a 55 a0 ba 3d db a1 3c
       -0.3480765 -0.33069542 -0.0012232543 0.019757861
000250 dd ca b1 be a0 ac 45 be 43 ba 99 3c c9 a4 13 3e
       -0.34725085 -0.19304132 0.018765574 0.1441833
000260 e3 c0 6c be cc 09 8d 3e 87 b7 b4 3e 86 67 5d 3e
       -0.23120455 0.27546537 0.3529627 0.21621522
000270 1f 2f be bd 37 ae 20 3e 52 96 da 3c 36 96 b6 3e
       -0.092863314 0.15691458 0.026683006 0.35661477
000280 95 04 4c bc f4 6c 28 3e 3d f4 d8 bd ea a0 4a be
       -0.012452264 0.16447812 -0.1059346 -0.19787946
000290 a3 f0 2d be a1 86 5d 3e af 61 ba 3e 00 8d 8b bd
       -0.16986327 0.21633388 0.36402652 -0.06814003
0002a0 9c 8a 88 bd 28 b5 ea be 6d 43 b9 3e c0 0a 0b bd
       -0.06667063 -0.45841336 0.36184254 -0.0339458
0002b0 ad 64 7d be b0 db 9a be 74 98 17 be 06 10 ed bd
       -0.24745436 -0.30245733 -0.1480425 -0.11575322
0002c0 01 3d 54 be 86 4b b3 bc 18 d3 4d 3e b2 25 35 3e
       -0.20726396 -0.021886598 0.20100057 0.17690161
0002d0 dd 5f df bd 27 f1 90 be 47 80 8d be 89 d3 a0 3e
       -0.10906956 -0.28308985 -0.2763693 0.3141139
0002e0 17 9d 45 3e 54 45 08 be d3 9b 9c 3e 46 4c 98 bc
       0.19298206 -0.13307697 0.30587634 -0.018591058
0002f0 c5 fe 14 3d b0 13 9d be fb 12 ab bd 90 7f 84 be
       0.03637578 -0.30679083 -0.083532296 -0.25878572
000300 bf 79 73 be 68 c1 90 be a9 16 31 bd 7b 5c 4e 3e
       -0.23776911 -0.28272557 -0.0432345 0.20152466
000310 0a 24 1c 3d 98 3d 4a be 5c 06 e9 3d 97 79 f1 3d
       0.038120307 -0.19750059 0.11378166 0.117907695
000320 9e ba 59 3e 65 19 f8 bc 89 a3 c1 3d 08 d3 5e be
       0.21262595 -0.030285547 0.0945502 -0.2176019
000330 d6 d2 17 3e 13 d4 35 be 52 93 b0 be 87 f2 36 be
       0.14826521 -0.17756681 -0.34487396 -0.17865954
000340 8a be f0 3d 00 c6 29 bd 16 18 0b be 14 9f c6 be
       0.117550924 -0.041448593 -0.13583407 -0.38793242
000350 6d 13 a1 bc ca af 22 be d9 bb 70 3e 88 ae 24 3e
       -0.019662583 -0.1588737 0.23509158 0.16082203
000360 28 cd 11 bd 2c b9 b8 bd c3 03 89 3d d9 38 df bd
       -0.035596043 -0.09019694 0.066901706 -0.10899515
000370 0b 69 cf 3c b4 36 0b bc b4 e6 9b 3e 6d d1 11 3e
       0.025318643 -0.008496929 0.3044945 0.14240046
000380 c4 30 73 3e 8e d5 29 be 34 4f 97 3d 26 87 5d 3e
       0.23749071 -0.16585371 0.07388154 0.21633586
000390 c3 f9 b2 3e 9d 7b 80 3e 0c 43 99 bd 02 38 79 be
       0.34956178 0.2509431 -0.07483491 -0.24337772
0003a0 2d ac 85 3e fa 10 ce 3e 1f 60 98 3e 4e fa bc bb
       0.26107922 0.40247327 0.29760835 -0.0057671433
0003b0 05 8c 43 3e 16 08 df bd 30 88 c2 bd 08 02 73 be
       0.19096382 -0.10890214 -0.09498632 -0.23731244
0003c0 50 6d 72 3e fd e7 0c 3e 8f ce 27 bd 81 d1 95 3c
       0.23674512 0.13760372 -0.040968474 0.018288376
0003d0 ac 9d 06 be a1 5a ab 3e 61 ac 9b 3e dd b6 dd 3e
       -0.13146085 0.33467582 0.30404952 0.43303576

net_layers.1.bias f4 [4]
000000 bd 16 c7 ba 7c df f4 bd 5b b7 43 3d 59 f3 0f bc
       -0.0015189272 -0.11956689 0.047782283 -0.008786046
