dialogue_manager/model/multi_clarification_trained/linear/weights/trained_modelLIST_SAMPLEMODELDCOMPOSITE0.0.pt (torch_old, 3747 bytes, 2 tensors)

net_layers.0.weight f4 [9, 86]
-0.18331218 -0.17475545 -0.22962436 -0.114872806 -0.17879795 0.24663489 -0.004501664 -0.06767411
-0.16005923 -0.14883652 -0.17240044 -0.029078383 0.0108737135 -0.17658226 -0.024713585 0.14746316
0.1031104 0.15627961 -0.08566901 -0.08440895 0.033895317 0.07658764 0.09162643 0.008091576
-0.1497992 0.14001025 0.072037265 -0.23039767 -0.021398753 0.037016094 -0.15825078 0.18305872
0.20659289 0.05261146 -0.20123842 -0.064968504 0.11894076 -0.104210384 -0.21854131 0.114030614
-0.16939226 -0.13961503 0.19356343 0.17222837 0.031101814 -0.17079724 0.06837651 0.2361509
0.017761864 0.1557784 0.16536511 0.112889424 -0.027073422 0.045637876 -0.19258305 0.21465282
-0.056855492 -0.070437685 -0.11695715 -0.093700044 -0.19282813 0.24332169 0.2319071 0.09981103
0.20972626 -0.059691958 -0.13251081 -0.14186987 -0.19533394 -0.0728765 0.04590297 0.21342544
0.16949214 -0.20140587 -0.23458593 -0.2270208 -0.14836954 -0.12050972 -0.24124216 0.056784205
-0.14512853 0.044982757 0.17223276 0.090983726 -0.10594094 -0.046801064 0.12905768 -0.18922241
-0.16713062 0.13373974 0.17675094 -0.24316344 -0.22059402 -0.24677432 -0.10005333 0.123083524
-0.14575765 0.103362836 0.09222015 -0.026006384 -0.06180327 0.14945577 -0.10006529 -0.18030782
0.022991136 0.020357791 -0.16926543 0.23706767 0.2314036 -0.029023537 0.061978158 -0.20931017
0.1757861 -0.19230369 -0.17768443 0.24654806 0.15398961 0.14442025 0.07627508 0.069098726
-0.049717292 0.15936305 0.13330294 0.16875386 -0.09187762 0.21994357 -0.20128171 0.23707947
-0.0503443 -0.24572666 0.17695715 -0.21225056 -0.21434513 0.0033813561 0.14960892 -0.10070566
-0.07196561 -0.23436269 -0.1523968 0.014149605 -0.12785682 -0.12627372 -0.10749202 -0.20453349
0.12158523 0.13851534 0.1746973 -0.08275035 -0.13171019 -0.27738136 -0.01558852 -0.076671176
0.027605085 -0.17634201 -0.16285104 0.24491216 0.18621565 0.11148891 -0.08455065 -0.041113526
-0.045027442 -0.0009146561 -0.029895538 0.07573016 0.21246839 -0.031367503 -0.03207227 -0.08963546
0.18114658 0.07197186 -0.3383606 0.09711738 0.2599788 0.4108847 -0.02951893 -0.12567909
-0.0024330413 0.13425611 0.20818993 -0.19367865 -0.15283334 -0.051073134 0.09714909 0.16754751
-0.0035676695 0.04291847 0.19624685 -0.15965219 0.050128717 0.18636857 -0.062323447 0.18609646
-0.25059772 0.08473331 0.15967013 0.17226228 -0.17250866 0.23694377 0.03481661 -0.005887991
-0.24260285 0.23058562 -0.18059361 -0.107948475 -0.06983339 0.020892086 0.1775592 -0.14660625
-0.24271746 -0.22753415 -0.07097558 -0.16397889 -0.11759622 0.21809362 -0.08839713 0.23561898
0.112830885 0.14525889 -0.1344757 0.20565647 0.239836 -0.19853969 0.23805739 -0.083533816
-0.1606087 -0.18095818 0.23497649 -0.18166238 -0.018166307 -0.21211454 -0.077351496 -0.22540805
-0.0027939994 -0.23135866 0.13673195 -0.05559602 0.080265224 -0.15969309 0.039252635 0.07125432
0.071802475 0.17555004 0.010414476 -0.07024696 0.17893906 0.16352406 -0.21047747 0.21104713
0.249679 -0.06419574 -0.008782607 0.027239319 -0.1523556 0.081735454 -0.23070785 -0.011803005
00000000: 30b6 3bbe 18f3 32be a622 6bbe 6f42 ebbd
00000010: cf16 37be db8d 7c3e b282 93bb b998 8abd
00000020: 91e6 23be 9a68 18be be89 30be ca35 eebc
00000030: a927 323c fbd1 34be 2574 cabc 9500 173e
00000040: 8c2b d33d c307 203e 3c73 afbd 99de acbd
00000050: d1d5 0a3d fbd9 9c3d a3a6 bb3d 8892 043c
00000060: f664 19be d95e 0f3e 4688 933d 5eed 6bbe
00000070: 704c afbc 309e 173d 7e0c 22be bf73 3b3e
00000080: 168d 533e 1d7f 573d 7211 4ebe 350e 85bd
00000090: 3797 f33d 416c d5bd 4bc9 5fbe e288 e93d
000000a0: 2a75 2dbe 3ef7 0ebe 7e35 463e a25c 303e
000000b0: 3bc9 fe3c 79e5 2ebe fc08 8c3d 8bd1 713e
000000c0: 5481 913c 5f84 1f3e 7955 293e 9232 e73d
000000d0: 15c9 ddbc c8ee 3a3d 7e34 45be f3cd 5b3e
000000e0: 4ee1 68bd a241 90bd 3b87 efbd cfe5 bfbd
000000f0: bd74 45be 5229 793e 0e79 6d3e ba69 cc3d
00000100: 7bc2 563e 8e7f 74bd eab0 07be 5646 11be
00000110: 9f05 48be 4640 95bd c104 3c3d 338c 5a3e
00000120: 598f 2d3e 573d 4ebe 4b37 70be 2478 68be
00000130: 2fee 17be cdcd f6bd 2f08 77be 8e96 683d
00000140: 939c 14be d73f 383d c95d 303e ad55 ba3d
00000150: 90f7 d8bd 79b2 3fbd b227 043e 85c3 41be
00000160: 4a24 2bbe 12f3 083e 33fe 343e d6ff 78be
00000170: 66e3 61be 68b2 7cbe c3e8 ccbd 3713 fc3d
00000180: 7e41 15be e5af d33d ebdd bc3d 570b d5bc
00000190: 6d25 7dbd ef0a 193e 08ef ccbd 9da2 38be
000001a0: e857 bc3c 62c5 a63c eb53 2dbe dec1 723e
000001b0: 11f5 6c3e c5c2 edbc cfdc 7d3d 6855 56be
000001c0: 4501 343e 42eb 44be e8f2 35be 1877 7c3e
000001d0: 74af 1d3e e7e2 133e 1c36 9c3d a283 8d3d
000001e0: 5ca4 4bbd 1130 233e 9180 083e d0cd 2c3e
000001f0: 552a bcbd e338 613e cb1c 4ebe f6c4 723e
00000200: d335 4ebd c59f 7bbe 4134 353e 3658 59be
00000210: 4a7d 5bbe be99 5d3b 1533 193e c53e cebd
00000220: b562 93bd c6fc 6fbe e80d 1cbe bfd3 673c
00000230: e6ec 02be e64d 01be c724 dcbd 3a71 51be
00000240: ad01 f93d f7d6 0d3e d9e3 323e 0479 a9bd
00000250: 09df 06be ee04 8ebe fe66 7fbc c705 9dbd
00000260: 0f24 e23c 0093 34be 6cc2 26be 41ca 7a3e
00000270: 51af 3e3e 4c54 e43d e428 adbd a866 28bd
00000280: b26e 38bd 88c5 6fba 7de7 f4bc 6a18 9b3d
00000290: 5091 593e 367b 00bd 365e 03bd cc92 b7bd
000002a0: 7d7e 393e fc65 933d 9a3d adbe 7ae5 c63d
000002b0: f11b 853e 7b5f d23e afd1 f1bc 05b2 00be
000002c0: a973 1fbb 6f7a 093e be2f 553e b253 46be
000002d0: 5880 1cbe 1032 51bd 1af6 c63d 9391 2b3e
000002e0: 90cf 69bb 47cb 2f3d eff4 483e dd7b 23be
000002f0: c553 4d3d 67d7 3e3e df46 7fbd 1290 3e3e
00000300: 584e 80be a888 ad3d 9180 233e 8665 303e
00000310: 1ca6 30be 63a1 723e dd9b 0e3d 0cf0 c0bb
00000320: e26c 78be a31e 6c3e 88ed 38be 1714 ddbd
00000330: cf04 8fbd e125 ab3c 14d2 353e f31f 16be
00000340: ed8a 78be b6fe 68be a55b 91bd 15ea 27be
00000350: 49d6 f0bd ef53 5f3e 8e09 b5bd 1a46 713e
00000360: e113 e73d bfbe 143e ffb3 09be 9c97 523e
00000370: 9297 753e fd4d 4bbe 51c5 733e c713 abbd
00000380: 9b76 24be 1a4d 39be ad9d 703e b405 3abe
00000390: 82d1 94bc 8e34 59be 766a 9ebd 5ed1 66be
000003a0: 881b 37bb 49e9 6cbe 7603 0c3e a7b8 63bd
000003b0: 1862 a43d 9686 23be 5fc7 203d c9ed 913d
000003c0: 2d0d 933d 64c3 333e 7aa1 2a3c a3dd 8fbd
000003d0: cd3b 373e da72 273e 6887 57be bd1c 583e
000003e0: daab 7f3e 0e79 83bd ece4 0fbc fe24 df3c
000003f0: 1b03 1cbe eb64 a73d ae3e 6cbe 6461 41bc

net_layers.0.bias f4 [9]
-0.06607181 -0.17389455 0.21294838 -0.24537237 0.15936714 -0.1134682 0.19359797 0.054172095
-0.17421836
00000000: a850 87bd 6a11 32be 240f 5a3e e542 7bbe
00000010: 2431 233e 0462 e8bd 8c3e 463e 8fe3 5d3d
00000020: 4c66 32be
