dialogue_manager/model/multi_clarification_trained/fourier_neural_length_penalty/trained_modelLIST_SAMPLESAMPLEDCOMPOSITE0.0.pt (torch_old, 23982 bytes, 4 tensors)

net_layers.0.weight f4 [62, 88]
00000000: 59b7 183e 4548 95bd 6763 c5bd 8d34 4cbc
00000010: fed3 00be 169a 343e 2ce5 44be 61d7 47be
00000020: 22bb 1e3e ec1b 24be 0bcf 963c 90df e5bd
00000030: 05f5 33be 46d6 bf3d 0f34 1ebd 1750 3abe
00000040: aca5 9fbd 0ba5 713d aa95 2abd 1f16 103e
00000050: b439 bcbd 4d69 41bc 38c1 cdbd 4920 3dbe
00000060: 391a 3cbe 8494 06bd 8624 433e 4eea bebd
00000070: e97c 00be 1e30 cfbd 9867 e3bd 6dd7 db3d
00000080: be7f 913d bdc3 333e 68bf 163e f144 ccbd
00000090: 4893 44be 6805 223e a9eb dabd 1063 63bd
000000a0: c5b2 d0bd 740c b73d cfb6 dc3d 948c 6f3c
000000b0: 069d 2e3e 98cf d43d f0c4 363d 9855 9dbc
000000c0: f387 923a 4ae9 c0bd ae71 b3bd 5d89 1abe
000000d0: 2d2a 2f3e f302 883c 9c3e 31be 6afc a53d
000000e0: 428c 15be aa5b 70bc 685d 173e 6092 103e
000000f0: ecfe 933d 8af3 b83d 2fe2 42bd 0c62 a5bd
00000100: a94d 1bbe aea6 c0bd 1176 40be ac2a fa3d
00000110: e09a a0bd 374a 243e 6aa4 a9bd 93e1 f3bd
00000120: 1dcd 023e eb00 0fbe 0c52 2b3c 2f94 18bd
00000130: 4b0f 3fbe 74da 9f3d 9a70 b63d 3788 02be
00000140: bfca 1c3e ade7 6d3d ddb6 063e b361 e33c
00000150: a82a b5bd c6c1 97bd 08b3 e13d 2f8e 033e
00000160: a9b0 b53d 4b82 473e b080 233e ee64 b7bd
00000170: 8db9 c6bd 4760 3c3e c975 c13c 95e9 473d
00000180: d244 223e 681a 95bd 40a4 fc3c 81f2 35bd
00000190: aefc d23d 59d7 dabd 3aa2 563e 5516 213e
000001a0: 2451 e43d ce4f afbc 7ed3 e93d 6d5a a5bd
000001b0: 2692 133e e7e9 01bd 592c 613d 1ceb 02be
000001c0: b7b3 20be aeff 1ebe d6b0 68be 7141 52bd
000001d0: a6ae 87be 7f3a 6f3d a651 60be 9489 493e
000001e0: 0089 fcbd b94e 353e 407e 1739 aeb9 9abc
000001f0: 2d99 46be ce96 7cbd 1655 3c3d bd91 c2bd
00000200: fb41 bc3c 4aac 693e 787e 5fbe f3e1 08be
00000210: 68cf 8ebc a0a9 b03d 0467 8ebc 7fe8 52bd
00000220: 4e1b 3f3d fe72 1b3e 88f8 06bc 42b2 15be
00000230: 45d9 30be 3752 13be 7088 28be eb41 843e
00000240: 49bf 02be 929c 333e 585c bbbd 531e a0bd
00000250: 36f9 11be 65b4 523b c812 d53b cc33 133d
00000260: badc e13d 3c61 07be 53b3 3c3c cab3 12bd
00000270: cbeb d1bd a436 8a3e 38fd 50bd 3c2e 1bbd
00000280: 303d 583e 493e 033d a347 d33d 8af7 23bd
00000290: 0d1c 3e3e 1eed 0b3e 88d5 7e3e 9b5d b73d
000002a0: dfc5 cb3d 70b9 c73d a189 01bd 1631 1d3e
000002b0: 8a7e 233e 3498 23bc 584d cc3d b2ff cabd
000002c0: 8007 09bd 8083 18be 6987 8ebd 98e7 eb3d
000002d0: 59c6 8dbd 6436 c9bc 8386 1dbe 1a17 273e
000002e0: 7f75 fe3c 18bb 2abd 325c f73d fb52 05be
000002f0: 8786 2abd c302 20be 4895 d4bc eb42 9bbc
00000300: 5b35 5bbd e5c0 5fbd e9aa 263e bae6 12bd
00000310: b6f3 49bb 1b84 183d 7498 64bc db43 ae3d
00000320: ce69 c1bc 5eb8 1cbe 36b3 333e 93b2 6ebe
00000330: 831a 933e 819d 2ebe e056 073e 060e 193e
00000340: 0c5b 15be fd89 e03d 6870 bc3d eb28 62be
00000350: 31e9 e83d dfc4 6bbe 2a30 453e 3049 873d
00000360: 267b 2b3e 9bab 29be 432b db3d 3a93 703d
00000370: 6f34 5d3e 3f4d 7ebe 8043 863c 0fa0 a03c
00000380: b1eb 46bd 0c59 5fbe 3143 373e e7b3 18be
00000390: f4a0 6a3e bbf7 413d b574 3d3e 4f7f 85be
000003a0: 7573 07be dee1 8b3d f5c3 083e 6277 6abd
000003b0: bc79 853d fc42 ed3d 460b 593d 6bd8 fc3d
000003c0: 785e a33c 151f 62be 7379 5dbc 922f 4a3d
000003d0: 7e1d 963d 6260 21be 29a2 f2bd 7c53 6fbe
000003e0: 2232 983d 059c 24be a208 2abc 8c29 ae3d
000003f0: dbcb 84be aef7 293e 23d5 e6bc 92d6 973c
0.14913692 -0.07289175 -0.096381 -0.012463701 -0.12580869 0.17636904 -0.19228047 -0.19515754
0.15501073 -0.16026276 0.018409273 -0.11224282 -0.17573936 0.09367041 -0.038623866 -0.18194614
-0.07795271 0.058995288 -0.041646637 0.14070939 -0.091906935 -0.011804891 -0.10046619 -0.18469347
-0.18369378 -0.03285648 0.19056901 -0.09322034 -0.1254765 -0.101165995 -0.11103743 0.107344486
0.07104443 0.17555137 0.14721453 -0.09974087 -0.19196808 0.15822375 -0.1068948 -0.055514395
-0.101903476 0.08937922 0.107770555 0.014620919 0.17052087 0.10391158 0.044621408 -0.019205853
0.0011179432 -0.09419496 -0.08761917 -0.15091462 0.17105933 0.016602969 -0.1730904 0.08104785
-0.14604285 -0.014670292 0.14781725 0.14118338 0.07226357 0.090308264 -0.047578987 -0.080753416
-0.15166344 -0.094067916 -0.18795039 0.1221517 -0.0784204 0.16043936 -0.082833126 -0.11908259
0.12773557 -0.13965194 0.010456573 -0.037250694 -0.18658178 0.078053385 0.08908196 -0.12747274
0.15311716 0.05808227 0.13155694 0.027756548 -0.08846027 -0.07410006 0.110204756 0.12847207
0.08871586 0.19483297 0.15967059 -0.08954798 -0.0970336 0.18396102 0.023615735 0.048806746
0.15846565 -0.07280427 0.03084004 -0.044420723 0.10302101 -0.106856056 0.20960322 0.15731175
0.11148289 -0.021400359 0.11417292 -0.08073888 0.1441122 -0.031717207 0.054973934 -0.12785
-0.15693556 -0.15527222 -0.22723708 -0.05133194 -0.26500434 0.058405396 -0.21906146 0.19681388
-0.12330818 0.17705812 0.00014447514 -0.018887367 -0.1939437 -0.061667256 0.04597958 -0.095004536
0.02298068 0.2281963 -0.21825588 -0.13367443 -0.017432883 0.086261034 -0.017383106 -0.051491257
0.0466569 0.15180585 -0.008237965 -0.14618781 -0.17270382 -0.14386831 -0.16458297 0.2583154
-0.12768282 0.17540196 -0.091484725 -0.07818284 -0.14255223 0.003215098 0.006502483 0.03593807
0.110284284 -0.13220686 0.011517364 -0.03581599 -0.10250052 0.26994812 -0.05102274 -0.03788589
0.21117091 0.03204182 0.10316398 -0.040030994 0.18565388 0.13664672 0.24886143 0.08953401
0.0994985 0.09752166 -0.031625394 0.15350756 0.1596624 -0.0099850185 0.0997569 -0.09912051
-0.03345442 -0.14893913 -0.06959421 0.115187824 -0.069225974 -0.024562068 -0.15383343 0.16317406
0.031061886 -0.041682333 0.12078132 -0.13019936 -0.0416322 -0.15626054 -0.02595009 -0.018952807
-0.05351768 -0.054627318 0.16276135 -0.03586457 -0.003081543 0.03723536 -0.013952363 0.08509036
-0.023610022 -0.15304706 0.17548832 -0.23310308 0.28731164 -0.1705227 0.13216734 0.14946756
-0.14585513 0.10963819 0.09201127 -0.22085921 0.11372603 -0.23024319 0.19256654 0.06605756
0.16746196 -0.16569369 0.10701611 0.058734156 0.21602033 -0.24834155 0.016389608 0.019607572
-0.048564617 -0.21811312 0.17896725 -0.14912377 0.22912961 0.047355395 0.18501551 -0.2607369
-0.13227637 0.0683019 0.13356002 -0.05724276 0.065173596 0.11585042 0.052989267 0.12345966
0.019942507 -0.2208217 -0.013517725 0.049361773 0.07329844 -0.15759423 -0.11847336 -0.2337169
0.07431437 -0.16075142 -0.010378035 0.08504018 -0.2593678 0.16598389 -0.028177803 0.018534932

net_layers.0.bias f4 [62]
00000000: 5367 863d bfdc a93d f5c9 d63d 8ebc a43d
00000010: 05d9 c43d 281e 07bd ebeb 873d 7bc4 2bbd
00000020: 4fb9 6a3d 49eb 043d 9e1f a9bc 3447 613d
00000030: c170 093e 3fd7 8d3c f8d4 193d a30b aabd
00000040: 3223 b13d f805 84bd 46ca 14bd 7e98 3ebc
00000050: 75d1 f7b9 861a 47bd 9c66 7dbd 9e5d 32bc
00000060: 9df4 69bd 576a c4bd 4902 aa3d 7a48 88bd
00000070: 5d7d cabd aa37 663d b7ca 883b e55f 3bbd
00000080: 7101 8e3d 2753 c7bd 65cf 0ebd 9e70 52bd
00000090: 0a24 81bc 7331 25bd 8507 243d 20e9 bd3c
000000a0: ca55 4d3d 49e8 bc3d 7333 f039 afbf 783d
000000b0: 3453 5d3d 2f93 7c3d 99a3 833d a530 923d
000000c0: 316a 263d 9573 ea3c 8561 5b3d 23c2 5d3a
000000d0: 3af0 bc3b d990 0a3d 64b2 aabd 730d c1bd
000000e0: ae84 c7bd 2f85 a5bd 3036 4d3d fc63 493c
000000f0: 0645 38bd ae3e 9b3d
0.06562676 0.08294057 0.10487739 0.080437765 0.09611706 -0.032987744 0.06636795 -0.041935425
0.05730563 0.032450948 -0.020644959 0.054999545 0.13421918 0.017314551 0.03755662 -0.08303001
0.08649291 -0.06446451 -0.036325715 -0.011633037 -0.0004726757 -0.04860928 -0.061865434 -0.010886578
-0.057118047 -0.09590595 0.08301217 -0.06654449 -0.098871924 0.05620543 0.004174556 -0.04574575
0.06933869 -0.09732657 -0.034865756 -0.05137693 -0.015764255 -0.04033036 0.040046234 0.023182452
0.050130643 0.092239924 0.000458147 0.06072968 0.054034427 0.061663803 0.06427688 0.071381845
0.040628616 0.028619567 0.0535598 0.00084594096 0.005765942 0.033829544 -0.083348066 -0.09426393
-0.097421035 -0.080820434 0.050100505 0.012291905 -0.0449877 0.075803146

net_layers.1.weight f4 [4, 62]
00000000: 7e80 e53c cd17 90be 10bd ae3d 0a39 ac3e
00000010: 4aa4 6f3e d140 283c 8558 473d b17d dcbe
00000020: b858 6f3e 33fe 36bb db95 69be 8d9f b4bd
00000030: 01c0 53bd 5d03 51bd 215b 0e3e bf16 e73d
00000040: a00e 95be 65be 15be 13c9 a53e 9b10 5abd
00000050: 362a 6ebe b6ed 20be 2143 18bd 0ea4 1a3e
00000060: 3db8 a9bb 64e2 933e 8ca6 ac3d 8030 5bbe
00000070: fde6 88be c8a3 b03d 746f 953e 3619 bd3d
00000080: a7f0 91be 9fba de3d 4918 ee3c dffa 5a3e
00000090: 3a03 b63e f90c 813e c8f7 243e 6e87 1d3e
000000a0: 6dfc e1be 95c2 cd3d cfa6 50be 704f c63d
000000b0: f2c2 0e3d f2ed 083e 1d96 cf3e 18f2 d0bd
000000c0: 5ae1 913e 45df 3ebe f730 37bb a3b9 5abc
000000d0: 03c0 77be 030a 953e d7d6 debe 89d0 0bbe
000000e0: 3f74 b23c 188a 40be 5c39 883e 57fc 813e
000000f0: abbf 8f3e 808f 573e 37e9 91be 995e 4a3e
00000100: d9c4 97be 4608 363e b54e 983e e054 9abe
00000110: bcdc ec3d 6de4 88ba 221b 093e d55e 59be
00000120: b5f4 efbd 6bf9 303e 773d 31be 8a1e 923e
00000130: 01de 8c3d a7e6 c3be d4d2 35be 5784 9bbe
00000140: dfab ec3c 5a7e 4ebe f070 76be 1ed6 48be
00000150: 78db 4ebc 9e6f 01be c90d 7cbe 0631 733e
00000160: ba37 9a3e 82ed 11be 2fa3 fa3c 82d5 a0bd
00000170: 1195 4a3e be82 e53d 6548 9a3e aeaf 32bd
00000180: fc6a 8dbe 1cae 07bd ee18 b43d 3f6e 793e
00000190: 47b0 9d3e 6f57 b8be 260e 9fbe c01b 07be
000001a0: 4fe7 b23d 12a8 bcbe eb80 603e 9a33 0e3e
000001b0: ed9b 30be 967c 3d3e bae2 4a3d 9e36 83be
000001c0: b773 cf3d 5c97 ccbd bd5f b03e 7e43 153e
000001d0: 5133 003f 0568 b1be cfd0 fdbd 836b 0abe
000001e0: ef13 59bd ff8f 31be f999 fabd e5c6 1c3e
000001f0: 0fa3 85bd 84df 11be 0596 193e 9de0 c33e
00000200: a506 563e f13b db3d 926d 48be b8bf 0e3d
00000210: 625b bfbd b74f a6be 2683 3e3d 0e5f 583d
00000220: 8de4 ce3c aa41 23be ae9e 823d 5009 3ebe
00000230: fb3f 803e 2926 fcbd 4425 2d3f 73d5 8ebe
00000240: 5b92 1ebe bd6a 6f3e ce0b 65be c94c 9bbe
00000250: b042 83be a05c 3abe 2906 863e 59b1 f03d
00000260: 4066 c1be d7c2 95be bb47 303d d6d7 8bbe
00000270: 3e89 733e 8623 04be 2ebb 093e ac92 063f
00000280: 8292 4cbd 53cd ecbd da26 993e 7df6 1b3e
00000290: ecef fe3d c88e 0d3d 441b aebc f252 44be
000002a0: 851d e83d cee7 5bbe c6bc df3e 92e4 a4bd
000002b0: abe4 993e cbc2 d9bd dfb6 84be ffae cbbe
000002c0: eb81 15be faaf 9bbd 8be8 9f3c eb41 00be
000002d0: b89d 95be 80df dcbe 85f5 81be 3b68 6d3e
000002e0: 147f 5abe 4ac8 8cbd a3c2 bdba 0bfd aa3d
000002f0: 98b3 ad3e 2ec7 de3e c8e5 36be c280 473e
00000300: 9eb0 9f3e fc15 79bd 428a 7fbe 81c2 173e
00000310: 5505 c6bb b6d5 ad3d f15c 3f3e 1b8f bcbd
00000320: d8bb 843b cd1b e5bd 1789 a1bd 9b37 91be
00000330: 6209 c53e c792 9cb9 c7c0 7ebe c9ee 2e3e
00000340: b25e d5be 9343 0cbe 2ff9 b6bd 7153 61be
00000350: c6fe e4bd 64fc 2f3e f9d2 73be bbe1 2ebd
00000360: 87dd 363e 7a67 acbd e4c2 8ebe b16b 0c3e
00000370: 633b b5bd bc37 423e 85e9 1f3e d1cf 51be
00000380: 606e 853d 271d e63d 13cd 2dbe be90 96be
00000390: e77f 5bbe 8490 b0be e80c 4a3e 9c9e 93be
000003a0: a9a1 b4bd dfab 3bbd 9af0 a03e 81b2 68bd
000003b0: 602b b03b 6ccb 48be 4d53 73be 9cf0 a73e
000003c0: bdcc d6be 6fc4 da3a ca37 df3d c1a6 f2be
000003d0: 1dc2 173d 0320 3ebc 1036 4abe c6f3 f63c
0.028015371 -0.2814316 0.085321546 0.33637267 0.23402515 0.01026936 0.048668403 -0.43064645
0.23373687 -0.002792251 -0.22811072 -0.088194944 -0.05169678 -0.051028598 0.1390195 0.11283635
-0.2911272 -0.14623411 0.3237997 -0.053238492 -0.2325829 -0.1571568 -0.037173394 0.15101644
-0.0051794336 0.2888366 0.08430204 -0.2140522 -0.2673873 0.08624989 0.29186594 0.09233324
-0.28503916 0.10875439 0.029064314 0.21384762 0.35549337 0.2520521 0.16110146 0.15383694
-0.44137898 0.10046879 -0.20376132 0.0968312 0.034853883 0.13372019 0.40544215 -0.10202426
0.28492242 -0.18639858 -0.002795277 -0.013349923 -0.2419434 0.291092 -0.43523285 -0.13653769
0.021783946 -0.18802679 0.26606262 0.25387833 0.2807592 0.21050835 -0.2849824 0.19762649
-0.2964237 0.17776594 0.2974755 -0.3014288 0.11565539 -0.0010444053 0.13389257 -0.21227582
-0.11716596 0.17282645 -0.17308603 0.28538924 0.068782814 -0.3826191 -0.17756206 -0.30374405
0.028890548 -0.20165387 -0.2406652 -0.19612929 -0.012625568 -0.12640235 -0.24614634 0.2374917
0.3012064 -0.14250758 0.03059539 -0.078532234 0.19783427 0.11206578 0.30133358 -0.043624572
-0.27620685 -0.033125028 0.087938175 0.24358462 0.3079855 -0.36004207 -0.31065482 -0.1319418
0.08735525 -0.36846977 0.21924178 0.13886872 -0.17246981 0.18504557 0.04953263 -0.25627607
0.10129493 -0.09989807 0.34448043 0.14576527 0.500783 -0.34649673 -0.12393343 -0.13517575
-0.052997526 -0.17340086 -0.12236399 0.15310247 -0.065252416 -0.1424542 0.14998634 0.38257304
0.20900972 0.10704792 -0.19573048 0.034850806 -0.09343602 -0.32482693 0.04651179 0.052825026
0.025255466 -0.15943018 0.06377922 -0.1855824 0.25048813 -0.12311966 0.6763499 -0.27897224
-0.15485518 0.23380561 -0.22367784 -0.3033202 -0.25636816 -0.18199396 0.26176575 0.117525764
-0.37773323 -0.29250214 0.043037158 -0.27313107 0.23782822 -0.12904176 0.1345031 0.52567554
-0.04994441 -0.115626 0.29912454 0.15230747 0.12448105 0.034559995 -0.021253236 -0.19172266
0.113337554 -0.21475145 0.4369871 -0.08051409 0.30057272 -0.10632857 -0.2592077 -0.3978195
-0.14600341 -0.07601924 0.019520065 -0.12525146 -0.29221892 -0.43139267 -0.2538263 0.23184292
-0.21337539 -0.068741396 -0.0014477562 0.08349045 0.33926082 0.43511337 -0.17861092 0.19482711
0.31189436 -0.06081198 -0.24955085 0.14820291 -0.006043116 0.08488028 0.18687798 -0.09206983
0.004050713 -0.11186943 -0.07887476 -0.28362736 0.3848372 -0.00029863996 -0.24878226 0.17083277
-0.4167381 -0.13697653 -0.08934247 -0.22004487 -0.11181407 0.17186123 -0.23810948 -0.042695742
0.17857943 -0.08418174 -0.27883065 0.13712956 -0.08849218 0.18966573 0.15616424 -0.20489432
0.06515193 0.11236029 -0.16972761 -0.29407305 -0.2143551 -0.34485257 0.19731486 -0.28831947
-0.08819897 -0.045818206 0.31433564 -0.05681086 0.0053762645 -0.1960885 -0.23762245 0.32800758
-0.41953078 0.0016690622 0.10899313 -0.47392848 0.037050355 -0.011604312 -0.19747186 0.030145537

net_layers.1.bias f4 [4]
00000000: 247a 133c f045 96bd a522 b93d 9687 a53b
0.009001289 -0.07337558 0.09039811 0.0050515635
