dialogue_manager/model/backup_model/wts/trained_modelLIST_SAMPLEMODELDCOMPOSITE0.0.pt (torch_old, 26209 bytes, 4 tensors)

net_layers.0.weight f4 [66, 86]
00000000: 300a 143e 5ef0 fd3d 6855 423e dd98 5a3d
00000010: 7ef0 4e3e 8e2d 613e 4e7e 683e 260c 23be
00000020: 88a8 8fbd 86bb cbbd b325 0abe c07f 9dbb
00000030: ea44 12be f781 633e 5803 25be e078 ad3d
00000040: 940c b23d 7024 513d 5794 44be ee88 78be
00000050: cc07 33bd e0ef 04be 800f 733b 5210 343e
00000060: a8ad 25bd 8c2d 89bd 2e0b 783e af1b 81be
00000070: 0024 8abc 53c8 6bbe 6009 8cbc c8c5 d23d
00000080: 648b 2cbe c809 efbd 848a f73d f8e8 a43d
00000090: a2a8 5c3e d673 4abe f244 adbd 16fa 053e
000000a0: 10bc dfbd c81d a6bd 4246 6abe 800b a33b
000000b0: d56e 72be b0f6 2d3e 78d4 b3bc f635 623e
000000c0: e050 073c e016 00be 2cc7 61bd afe9 823e
000000d0: a800 a53d a415 533d 3ab8 3a3e 804e 233d
000000e0: 3217 e3bd d8a3 ef3d 247c 67bd 8619 053e
000000f0: 1009 6e3e 0e8e 703e a8c9 f13d d279 da3c
00000100: 4040 883d 4034 123d 307b 003d 10e4 ddbc
00000110: 4c2a 283e d276 fbbd 41bd 7fbe 805c 783c
00000120: 20b8 6d3d 2ca1 cc3d b8ff d7bc 9871 efbd
00000130: 481b bc3d d4fb 61bd 6010 7fbc aa14 0cbe
00000140: f90a 55be 8ad3 7f3e 4761 853e 048e da3d
00000150: 0ef7 873e 1a83 b53a aa1d 96bd 1751 9e3d
00000160: d67c 87be f36f bcbd e39c 7bbe e01f 193c
00000170: e0d5 a43d d4a9 d8bd c6c5 18be c0db d93c
00000180: 0454 b2bd 5a16 8dbd a4c3 dc3d f41c 9ebc
00000190: 64ec d0bd 14ff 50bd b2ae d0bd 0802 703d
000001a0: 00f1 963a b5c9 853e 04fa 603e 1c20 6e3e
000001b0: f4cf 8c3d 9dcc 82be 688a da3d 170e 39be
000001c0: 3224 83be e454 8bbd 205e 923d 2860 b1bd
000001d0: e8ba 9d3d eac4 2c3e 32c9 59be 966c a93d
000001e0: 8038 81bb 008c d9bc 703d aa3d f056 563d
000001f0: ea46 0c3e 8850 90bc c42f 293e 8088 dabc
00000200: a8e2 d13d 5460 0ebd e072 603d 7ae7 8ebd
00000210: e0dc 183c c281 33be 9f85 36be d832 0c3e
00000220: c07d 5fbd a423 823d 00f9 d3bc 0edc cf3c
00000230: e809 3f3d a8fe c93d 0602 33be d80c 2fbe
00000240: ff11 823e 0a0d 453e 1846 643e 2fb6 5ebe
00000250: 2415 f6bd aefb 38be 1c97 21be 4e55 21be
00000260: 1c05 b63d 38f6 18bd 6270 2abe 0674 42be
00000270: 9466 4f3e e295 64be d5f0 863e f15d ad3d
00000280: beda 2d3e cb1e 41be 2826 e63d 2ca9 883d
00000290: c0c2 8dbd c01c 923d bc5d 51be 0a7f 733e
000002a0: 0c7c 22be 08be d63d f330 d2bd 8424 f23d
000002b0: 3913 0c3e 61a3 b03d b80c 213e 0b9a 2abe
000002c0: a21a 38be e064 5f3e f4cc 3a3e 44ef 1ebe
000002d0: 98cd ff3d 3a44 c3bd f838 723d ef79 80be
000002e0: 22f5 1fbe a8cc edbd e09d c33d 9ef4 623e
000002f0: cad5 81bd e10f 813e c3f5 14be 98c2 ad3d
00000300: ac55 613e c443 1f3e 48fa 123d 8c81 9f3d
00000310: 5a11 3a3e acc0 75be 0016 183a 50f3 70be
00000320: 3c0a 0bbd d836 2a3e fc0c 2b3e eeee 713e
00000330: 401f c7bd 0391 77bc 00d9 933c e047 ea3d
00000340: f629 d2bd b032 4cbd 1a60 093e 201c 1a3e
00000350: 208d 863c bc92 8abd f9d0 813e 0813 89bd
00000360: d987 4abe 4ea2 0d3e b04e 063e 20da 30bc
00000370: 8060 083c 801b 81bc 72a4 3e3e 3a5a bfbd
00000380: 1695 43be 31ae 2c3e 80f5 2abb 80ac 7cbe
00000390: b2dc 3bbe 2e10 3d3e 28d5 6abd a001 6e3c
000003a0: eb38 59be a256 323e 3287 673e eafc 70be
000003b0: 563c 30be 0032 cf3d f434 75be c635 52be
000003c0: e41f a7bd d4a3 ab3d b846 073e c068 85be
000003d0: 78e5 143d b2b7 7aba 18ae 003d b0f8 56bd
000003e0: 80bf ecbb 148c 1ebd c0ea 443c 3eb9 5bbe
000003f0: 7213 543e 9488 ce3d 00ca 50bb 921b 343e
0.14457011 0.12399362 0.18977892 0.053368438 0.20208928 0.21990034 0.22704431 -0.15922603
-0.07014567 -0.09947877 -0.13490944 -0.0048064888 -0.14284101 0.22217546 -0.16114557 0.08470321
0.08693805 0.05106014 -0.19197212 -0.24270985 -0.043708608 -0.1298213 0.0037088096 0.1758435
-0.040448815 -0.066981405 0.24223015 -0.25216433 -0.01686287 -0.23025636 -0.017094314 0.1029163
-0.16850048 -0.116717875 0.12086967 0.08052248 0.21548703 -0.1977075 -0.08460416 0.13083681
-0.10924542 -0.08111149 -0.22878364 0.004975736 -0.23675092 0.16988635 -0.021951899 0.22090897
0.008259028 -0.12508726 -0.055121586 0.2556891 0.08056766 0.05153431 0.1823434 0.039869785
-0.110884085 0.117011726 -0.056514874 0.12998018 0.23245645 0.2349169 0.11806041 0.026669417
0.0665288 0.03569436 0.03136748 -0.027086288 0.16422385 -0.122785226 -0.24974538 0.0151587725
0.058036923 0.099916786 -0.026367053 -0.11691588 0.09184891 -0.055171803 -0.015567869 -0.13679758
-0.20804967 0.2498304 0.2605078 0.106716186 0.26555675 0.0013848275 -0.07329877 0.077303104
-0.2646243 -0.0920104 -0.24571566 0.0093459785 0.08048606 -0.10579267 -0.14919195 0.026594043
-0.08707431 -0.06889029 0.10779503 -0.019300915 -0.10201338 -0.05102451 -0.101895705 0.058595687
0.0011515915 0.26130453 0.21970373 0.23254436 0.068756014 -0.25546733 0.1067093 -0.18071781
-0.25613552 -0.06803301 0.07146859 -0.086609185 0.07701665 0.16871992 -0.21268156 0.08272664
-0.003943503 -0.026556015 0.083124995 0.052329004 0.13698927 -0.017616525 0.16522127 -0.026676416
0.102483094 -0.034759834 0.054797053 -0.069777444 0.009330004 -0.17529967 -0.1782441 0.1369127
-0.054563284 0.06354454 -0.025875568 0.025373485 0.046640307 0.09863025 -0.1748124 -0.17094743
0.25404355 0.19243255 0.22292364 -0.21749185 -0.12015751 -0.18064758 -0.157803 -0.15755197
0.08887693 -0.037344187 -0.16644433 -0.18989572 0.20253974 -0.22322801 0.26355615 0.084651835
0.16977975 -0.18859403 0.112377465 0.06672892 -0.06921911 0.0713439 -0.20445913 0.2377893
-0.15867633 0.10485464 -0.102632426 0.11823371 0.13679208 0.08624912 0.15727508 -0.16660325
-0.1797891 0.21815825 0.18242246 -0.1552096 0.12490386 -0.095344976 0.05913636 -0.25093028
-0.15620854 -0.11611301 0.09551597 0.22163627 -0.06339605 0.25207427 -0.14546876 0.084843814
0.22005337 0.15553194 0.035883218 0.07788381 0.18170682 -0.2399928 0.0005801618 -0.23530316
-0.033945307 0.16622484 0.16704172 0.236263 -0.09722757 -0.015110257 0.01804781 0.1143949
-0.1026191 -0.049853027 0.13415566 0.15049791 0.016424716 -0.067662686 0.25354746 -0.06693083
-0.19778384 0.13831446 0.13115954 -0.010794193 0.008323789 -0.015760183 0.18617418 -0.09343381
-0.1909984 0.16863324 -0.002608627 -0.24675179 -0.18345907 0.18463203 -0.057332188 0.014526755
-0.21213119 0.1741586 0.22610167 -0.23533979 -0.17210516 0.101169586 -0.23945981 -0.20528325
-0.081603795 0.08380857 0.13210571 -0.2605648 0.03635165 -0.0009564116 0.03141603 -0.05248326
-0.007224977 -0.038707808 0.012018859 -0.21457383 0.20710543 0.10084644 -0.0031858683 0.17588642

net_layers.0.bias f4 [66]
00000000: f4dc 59bd 5c67 c8bb e37d 33bd cc55 84bc
00000010: c3eb 2cbc 59d9 393d 943a e53d 89b6 a2bc
00000020: c444 4dbd 2ac1 dabd 6834 a83d 49e8 ee3d
00000030: 534c c5bd ad2d 993c 688b 88bd 8934 f5bc
00000040: 7973 fc3d 106d ee3b a553 9dbd e381 72bd
00000050: 50e4 b1bc 8c99 d43b c694 13bc e853 6f3d
00000060: d286 eebd 1b1c a43d c979 a33d 91cd dcbc
00000070: 0e34 993d 8ebe da3d d7e7 d4bd 4b03 4c3d
00000080: d5b1 0a3d 96f1 06bd e08f 823d 1022 493c
00000090: 93dd 3e3d 0715 143d 0324 a93b 7f42 2c3d
000000a0: d4b8 86bc 334a 55bd 3537 ba3d 607f 8cbd
000000b0: e2d3 7e3c c7da a6bb 16e2 09bd 21b1 84bd
000000c0: bf0f f13d 99b4 803d ee46 48bd 4c4f 083c
000000d0: 5e7e babc 61b9 c3bd 8da9 003c 2eb3 773a
000000e0: ecda 663d fd56 93bc 47f6 7a3c 0e4f b63d
000000f0: d4f4 823a d223 3cbd f862 22bc 406b 143d
00000100: d21e b83d 7c18 7fbd
-0.053189233 -0.006115837 -0.043821227 -0.016154192 -0.010554257 0.045373295 0.111928135 -0.01986243
-0.050114408 -0.10681374 0.08213121 0.11665399 -0.09633698 0.018698538 -0.06667215 -0.029932277
0.12326712 0.007276185 -0.076819696 -0.0592059 -0.021715313 0.006488031 -0.009007638 0.05842963
-0.11646809 0.08013173 0.07982213 -0.02695349 0.07480632 0.10680877 -0.103957824 0.049807828
0.033861 -0.032945238 0.06375098 0.012276188 0.04659803 0.036152866 0.0051617636 0.042055603
-0.016445555 -0.052072715 0.09092561 -0.06860232 0.0155534465 -0.0050919983 -0.033662878 -0.06479097
0.117705815 0.06284446 -0.04889577 0.008319687 -0.022765335 -0.095568426 0.007852924 0.0009449002
0.056361124 -0.017985815 0.015317506 0.08901797 0.0009991177 -0.0459326 -0.009911291 0.036235094
0.089902535 -0.06227921

net_layers.1.weight f4 [9, 66]
00000000: 791e 6abe 27db ecbd d548 13be cc53 9abd
00000010: f49f 38be 2e52 f43c f700 453d 24c1 59be
00000020: 2d90 7a3e 3c2f 37be 33c6 433e 3f1e 563e
00000030: bd0c f0bd 88e8 ae3d e3b9 15be 49a9 603e
00000040: c57c 1bbd 7c2e 853d cc5e 24be d10e b83d
00000050: 00c3 11be b67e 0c3d 179c 793d d0eb 5bbe
00000060: 701f 843d 99ce 8c3e 9ed6 a7bd 6a0b c03d
00000070: 4126 b3bd 05b6 003e ba9a f7bc e2c9 c0bd
00000080: e6aa 66be f571 883e 33c9 8b3e 6736 c0bd
00000090: 2104 303e 200a 89be dd34 943e 4c1d 953e
000000a0: 5cac 0b3e 0d16 13bd 6d9d 8d3e 13d9 8abe
000000b0: 97d7 903c f7ca 82be e7ca 76be d857 eabd
000000c0: 9496 823e a276 c3bd 1300 903e fb25 18bd
000000d0: c963 e83b ae43 5dbe 389e 553e fc3e 94be
000000e0: 5854 89bd f433 423e be60 a43d 41be 2b3c
000000f0: e3ae 733e 7003 75be 6a75 06be 80ad 953e
00000100: c718 56be 7dd6 04be ee2e 6cbe 1c3b 92be
00000110: bcff 903d c66b 9abe fdbd 88be 6454 8dbe
00000120: ec6a cbbc 5c8b 753e 1f9e c5bd 3897 953d
00000130: 2470 7bbd 33a7 78be 57f6 bf3d 1bb3 2f3d
00000140: dfeb eb3c 9077 7a3e be51 a13e dff4 64be
00000150: 51d9 e43d ec0a 9b3d 3379 b6bd 121c 933e
00000160: fb81 603d c0cd 713d 0d26 75be 52a6 3abc
00000170: fdd9 503e 2cdf a93d 84e0 64be 1c4c 82bd
00000180: 03e0 dbbd a80e 413e a078 17be b25c 07bd
00000190: ba07 843e 6e86 1a3e a750 0abe 8a74 42be
000001a0: 1ab7 74be 17f9 2a3e 6810 f9bd 8717 673d
000001b0: 8065 193c 69b7 10be 9e24 3cbe b794 89bd
000001c0: 50b3 5bbe b420 963d b35d 9ebd fbce 3fbd
000001d0: b65e 2b3e 73f6 0e3e a1b5 8ebe 4e98 0e3e
000001e0: 5903 6dbd 61f6 a4bd 3bdf 4ebe 75de 063e
000001f0: 4fa5 6abe 18a0 0fbd 969d 003d 97da fd3c
00000200: 968b 3dbc 69a9 c93d 31f0 46bd a22a f4bd
00000210: 5b41 7fbe dd00 a2be e153 133d 29ca 87be
00000220: 2535 42be 48e4 02be cc8d 2cbe a3e6 91be
00000230: 2980 783d 1214 5abe 39cb ca3d f570 273e
00000240: f56a 533d 863b 19bd 1237 293e 297b 27bc
00000250: 40cf 0a3e 8035 353e e6af b43b 64bd c4bd
00000260: fe5f ae3c 15fe 46be 0fb8 143a 5eed e8bd
00000270: cc58 823e 1d0e 293e 2b23 57bd 5692 c83c
00000280: cbde 23bd 6898 ffbd fc45 413e 41ca 9ebe
00000290: 3d59 fcbd abb2 5ebe e889 993e 0ec9 58be
000002a0: 6993 c0bc 818f 08be 0e71 e53c e60d fc3d
000002b0: c280 5e3e 92a5 78be 5c45 07bd 9829 163e
000002c0: 710e 84be 0b95 62bc fcf9 a73d de9d 16be
000002d0: c032 a83d 74d4 1abe fb8a a0be 5008 683e
000002e0: 3d38 95bd b5f6 80be e728 393e 5154 fcbd
000002f0: fdd7 0b3d 9b7b 4b3e d928 85bd 997d 65be
00000300: a9ff 43bd fc22 743e 1c2f 2d3e 99ae 7dbe
00000310: 639e 08be 2270 be3d 40c8 dabd f969 21be
00000320: fc66 8dbe 7a6d 5e3e 27f2 7c3d b7df 7f3e
00000330: f35e 8c3e d5f9 2ebe 757d 9e3d ec76 083e
00000340: a5f5 8c3e 2473 853e 7613 853e c819 96be
00000350: 012d 7a3c 4a70 f6bd abee 3ebe 6130 94be
00000360: 9977 fe3d ec57 7d3e 0ad2 01be cb05 bcbd
00000370: 6852 83be 7aa3 86be 584d 58be e4b3 533e
00000380: ef61 293e 7b61 86be 62c2 8bbe 58f5 7dbd
00000390: a566 843b d8e4 34be e169 e9bc f1ce f63c
000003a0: 0a88 c7bc 4b35 92be c430 893e 6a82 013e
000003b0: 91a5 8dbe 9333 043e 6144 daba 5851 2b3e
000003c0: 5672 8ebe e534 7f3e cc41 c2bb 0f43 753e
000003d0: fb27 3a3d 6184 f13d e7a0 3c3e ef8a 69be
000003e0: ed02 9c3d 2072 433e 014d 1e3e 1677 303d
000003f0: 3ee5 543d 5649 67be c2d0 473c 978e 493e
-0.22863187 -0.115652375 -0.14383252 -0.07535514 -0.18029767 0.029824343 0.048096623 -0.21265084
0.24469061 -0.17889112 0.19118576 0.20909975 -0.1172118 0.085404456 -0.14621691 0.21939577
-0.037960786 0.06503007 -0.16051787 0.08987201 -0.14234543 0.03430053 0.060939875 -0.21476674
0.06451309 0.27501372 -0.08195232 0.09377177 -0.08747531 0.12569435 -0.030225147 -0.09413506
-0.2252613 0.26649442 0.2730194 -0.093853764 0.17189075 -0.26765537 0.2894658 0.29123914
0.13639969 -0.0359097 0.2765917 -0.2711874 0.017680926 -0.25545475 -0.24100839 -0.11442536
0.25505507 -0.09544112 0.28125057 -0.037145596 0.0070919734 -0.21607849 0.20861137 -0.28954303
-0.067055404 0.18965131 0.080262646 0.010482372 0.23797183 -0.23927093 -0.13130727 0.29233932
-0.2090789 -0.12972446 -0.23064777 -0.28560722 0.070800275 -0.3016035 -0.2670745 -0.27603447
-0.024831258 0.23978943 -0.096493 0.07304233 -0.061386243 -0.24282531 0.093731575 0.042895418
0.028798996 0.24459672 0.31507677 -0.22359036 0.11174262 0.075704426 -0.08909836 0.28732353
0.05481146 0.05903411 -0.23940296 -0.011392193 0.20395656 0.0829452 -0.22351271 -0.06362173
-0.10736086 0.18853247 -0.14792109 -0.033047386 0.25787145 0.15090343 -0.13507329 -0.18989769
-0.23897973 0.16696583 -0.12161332 0.05641892 0.009362578 -0.14132465 -0.18373343 -0.06717818
-0.21455121 0.073304564 -0.077327155 -0.04682825 0.16735348 0.139612 -0.27872947 0.13925287
-0.05786452 -0.080548055 -0.20202343 0.13170798 -0.22914623 -0.035064787 0.031400286 0.03098802
-0.011568924 0.098467655 -0.048568908 -0.11922194 -0.24927275 -0.31641284 0.035968665 -0.26521423
-0.18965586 -0.12782395 -0.16850966 -0.28496274 0.060669098 -0.21296719 0.09902043 0.16351683
0.051615674 -0.03741028 0.16524914 -0.010222235 0.13555622 0.1769619 0.005514133 -0.09606436
0.021286007 -0.19432862 0.0005673179 -0.11373399 0.25458372 0.1650929 -0.052523773 0.02448384
-0.040007394 -0.12480241 0.18874353 -0.31013682 -0.12321708 -0.21747844 0.29988027 -0.21170446
-0.02350779 -0.13335992 0.02800801 0.123073384 0.21728805 -0.2428191 -0.03302513 0.14664304
-0.25792268 -0.01382948 0.082019776 -0.14708659 0.08212805 -0.15120107 -0.31356034 0.22659421
-0.07286117 -0.25188223 0.1808201 -0.123207696 0.03414153 0.1987137 -0.06501932 -0.22411193
-0.04785124 0.2384147 0.16912502 -0.24773635 -0.1334167 0.092987314 -0.10682726 -0.15763082
-0.27617633 0.2172145 0.061754372 0.24987684 0.2741619 -0.17087491 0.07738773 0.13326615
0.27531162 0.26064408 0.2599141 -0.29316545 0.015269519 -0.12033136 -0.18645732 -0.2894316
0.12425155 0.24740571 -0.1267778 -0.091807924 -0.25648808 -0.26296598 -0.21123254 0.20674092
0.16541265 -0.26246247 -0.2729674 -0.062001556 0.0040405565 -0.17665422 -0.02849287 0.030127974
-0.02435686 -0.28556284 0.26795018 0.12647405 -0.2766538 0.12910299 -0.0016652459 0.16730249
-0.27821606 0.24922521 -0.0059282538 0.23951362 0.045448285 0.117928274 0.18420754 -0.22806905
0.076177455 0.19086504 0.15459062 0.04308232 0.051976435 -0.22586569 0.012195768 0.196833

net_layers.1.bias f4 [9]
00000000: 00b2 bb3d 9a80 b4bd 0348 fe3d 9c76 5d3c
00000010: e9ae 683c 8818 25bd 808d f03d 78ab 82bd
00000020: 2dd1 d0bd
0.0916481 -0.08813591 0.12416079 0.013517048 0.014201858 -0.040306598 0.11745739 -0.06380361
-0.10196147
